Assignment-2/models/moon_test_conditional.pth (torch, 139015 bytes, 11 tensors)

class_embed.weight f4 [2, 2]
000000 15 93 95 bf 04 31 18 3f b7 8d d4 bd a8 ed 28 3d
       -1.1685511 0.5944979 -0.103785925 0.04124227

model.fc1.weight f4 [64, 6]
000000 31 6f fb 3d 0d 72 c8 3e 1f 56 82 be 57 87 2a be
       0.122770675 0.39149514 -0.2545633 -0.1665319
000010 b9 cd 27 bd a7 1e 8a be 34 36 bc 3e 50 ff 8e be
       -0.040967677 -0.2697651 0.36760104 -0.27929163
000020 d6 53 4a 3e b5 50 71 3e 3d e1 91 bd f5 2a fa 3c
       0.19758543 0.23565944 -0.07123039 0.030538062
000030 05 ac 1c bf 85 13 41 be fe 64 b3 3e 5a 28 8b bd
       -0.6119998 -0.18855102 0.35037988 -0.06794806
000040 eb 9b 89 be 6b 78 9b be 60 78 02 3f 5f 17 04 3f
       -0.26876768 -0.3036531 0.5096493 0.5159816
000050 a2 98 05 3e 81 ae 2b be a5 e8 98 3e bf 40 a3 be
       0.13046506 -0.16765787 0.29864994 -0.31885335
000060 71 c0 22 bf 3f c0 b7 be 57 4a 7e be 53 28 2d 3e
       -0.6357489 -0.3588886 -0.24833046 0.16909914
000070 70 32 e6 bd 86 65 98 3c a4 d2 e3 3e df 7e fd 3d
       -0.11240089 0.018603098 0.44496644 0.12377714
000080 6f d3 be be 87 40 7d be fb 8b 6e 3e 47 47 db bc
       -0.37270686 -0.24731646 0.23295586 -0.026767386
000090 f1 93 1e be 34 fd 21 bd e9 24 8f 3e 01 f9 7c 3d
       -0.15486123 -0.039548114 0.27957848 0.061760906
0000a0 e0 ef 07 be d3 20 0a 3e 2e b1 fe be 4d 6c 0f bf
       -0.13275099 0.13489084 -0.49744552 -0.5602463
0000b0 2e e9 48 3e b1 71 f2 bb 2a 04 9e 3c a6 cb 91 bb
       0.19620201 -0.007398807 0.019289095 -0.0044493256
0000c0 4b 36 a0 be d4 bf c9 3d c7 7d 9e 3e d5 fb 5b 3e
       -0.31291422 0.098510414 0.30955335 0.21482785
0000d0 1e d2 64 bd f4 ec a7 3d 88 98 4b 3e 38 24 bd be
       -0.055864446 0.08199492 0.19882405 -0.36941695
0000e0 c4 03 9e be 6d 62 c1 3d 51 20 91 3d 1b 41 0c 3e
       -0.30862248 0.09442601 0.07086242 0.13696711
0000f0 e3 8c 7d be 0b 91 84 3e 94 ae 7b 3e ed 89 d0 bd
       -0.24760775 0.2589191 0.24578315 -0.10182557
000100 14 ca 56 3e ef 01 4f be 58 d2 1b bf 5e a1 c1 be
       0.20975524 -0.20215581 -0.60867834 -0.37818426
000110 cb 0b aa 3e fe e3 4c be 9e 18 a8 bd 73 9a 49 3d
       0.33212122 -0.20008847 -0.0820782 0.04921956
000120 a9 33 5e 3e 2d 7a 9d be 57 4a 0c be d5 53 7f 3d
       0.21699394 -0.30757275 -0.13700233 0.062335808
000130 58 be ed bd 0d 1c 9b be a2 63 b4 3e 15 66 b4 be
       -0.11608571 -0.3029484 0.35232264 -0.35234132
000140 4d d0 bb be 22 8b e5 3e 2d 4a 5a be c3 53 58 3d
       -0.36682358 0.44832712 -0.21317358 0.052814256
000150 b5 11 01 3f cd fc e4 be aa f2 b8 3c e6 4c 83 3e
       0.50417644 -0.44724122 0.022576649 0.25644606
000160 35 a2 86 bc a7 de 2a 3d 4b 57 b6 be af 1e 0d 3e
       -0.016434768 0.041716244 -0.35613474 0.13781236
000170 75 cc 5e 3d 2a 2d 67 be 25 0c 15 3e fc 71 b1 bd
       0.054394204 -0.22575822 0.14555414 -0.08664319
000180 a3 e3 ed be 66 11 15 be 1a 6a 11 bd 4a e0 04 3d
       -0.46462736 -0.14557418 -0.035501577 0.03244046
000190 09 0d e4 3d f1 43 07 be fa 42 24 3f 16 c7 96 3e
       0.11135299 -0.13209511 0.641647 0.29448766
0001a0 4f 3f 1f bd b5 80 1b 3e b1 14 89 be 37 0e 93 3e
       -0.038878735 0.15185817 -0.267736 0.28721783
0001b0 d2 9e 99 3e 8a 4b 9b be b5 5e 5c be e0 37 d2 3d
       0.30003983 -0.3033107 -0.21520503 0.102645636
0001c0 df 25 bf 3e 14 d6 e2 3b a6 84 b2 be e4 06 92 3e
       0.3733358 0.0069224928 -0.34866828 0.28520882
0001d0 75 60 03 bd ad 2d 09 3d 94 60 01 be 66 b3 86 3d
       -0.03207441 0.033490825 -0.12634498 0.06577186
0001e0 ab 5d a8 3e 95 18 b5 3e 1f 96 71 3d 49 79 bb be
       0.32883963 0.35370317 0.058981057 -0.3661597
0001f0 8f 22 1c 3e 14 8d 0d be 0c 53 56 3e 50 fd 27 3d
       0.15247558 -0.13823348 0.20930117 0.041013062
000200 38 fa 3e be 0f 06 e0 be 75 11 1d be 24 c9 21 3e
       -0.18650138 -0.43754622 -0.1533869 0.15799385
000210 8d 26 93 be bb dd 1f bc 12 2a 29 3e 3a 88 e9 be
       -0.2874035 -0.0097574545 0.16519955 -0.45611745
000220 4d e5 b6 3d 18 da ae bd a5 3d 6e 3e 4e f6 0b 3f
       0.089304544 -0.08537692 0.23265703 0.54672706
000230 73 c2 b2 3e af 48 c3 3e c6 0c 5f be fc 00 79 bd
       0.34913978 0.3814139 -0.21782216 -0.060791954
000240 53 ca 12 be 7a d9 8e 3e 09 a5 e8 3d 94 68 8f 3e
       -0.14334993 0.27900296 0.11359603 0.28009474
000250 26 f5 cc 3d 3c cf 07 be 7c 79 1f bf 56 53 9a 3e
       0.10007696 -0.13262647 -0.62294745 0.30141705
000260 72 83 01 3d 4f 06 30 be 66 24 7e bc 89 c8 28 bb
       0.031619497 -0.17189907 -0.015511608 -0.0025754294
000270 6b f2 03 bf 6f e3 e0 3c e9 7c 10 3e 80 6d 82 be
       -0.51541775 0.027452199 0.1411015 -0.25474167
000280 e0 3c a8 be 87 02 f9 3d ce 13 33 be 7e aa 7f be
       -0.32858944 0.12158685 -0.17488024 -0.24967381
000290 c9 1a b1 3e f0 6f cf be fa 63 8f be 69 2c 7d 3e
       0.34590748 -0.4051509 -0.28005964 0.24723972
0002a0 94 d4 c9 3e 6b fc d6 3e b7 5a b6 3e 83 9f 8a bd
       0.39419997 0.41989455 0.35616085 -0.06768706
0002b0 99 a4 b8 3d 3c 7f f4 bd 25 7f 9d be 45 16 aa bd
       0.090157695 -0.119383305 -0.30761066 -0.08305029
0002c0 ab 2d b4 3d dd d8 87 be 75 51 af 3d 25 22 92 3e
       0.08797773 -0.2653264 0.085604586 0.28541675
0002d0 7d 21 07 bf 6b 45 fc 3e b1 16 d4 3d 81 b8 33 be
       -0.52785474 0.49271712 0.103558905 -0.17550851
0002e0 d7 a4 22 3d ea e6 f6 bb 52 22 e4 be b7 e5 45 be
       0.039707985 -0.0075348513 -0.44557434 -0.1932591
0002f0 43 3f 0c bd 80 02 b0 3e ed fe 73 3e bb bd 49 bd
       -0.03424002 0.34376907 0.23827715 -0.049253207
000300 34 7f 28 3d df 34 4a be aa 3d a4 bb 84 98 d8 3e
       0.041136935 -0.19746731 -0.0050122337 0.4230386
000310 17 c2 71 be 37 63 8f be ec 7f 92 bd 4f 4b fc 3d
       -0.23609196 -0.28005382 -0.071533054 0.123190515
000320 0b 17 7d 3e dc d2 3d 3c f0 fc 55 bd f1 7b ee 3c
       0.24715821 0.011585917 -0.052243173 0.029111834
000330 41 79 3c be 7d 5b 00 3f 8b 3d 3a 3e 0b 7d e1 be
       -0.1840563 0.501396 0.1818754 -0.44040713
000340 b4 4d 95 3b 6d 44 76 3b 3b 50 da be b9 d7 bf be
       0.004556382 0.0037577406 -0.42639336 -0.3746927
000350 f3 f6 c8 3d 7a 76 cb 3e 86 b1 01 be be 41 0b be
       0.09812727 0.39738828 -0.12665376 -0.13599297
000360 4c 83 ae 3e f4 1d 1c 3f 8c 6b 7a be ab 4d 8b bd
       0.34084547 0.60983205 -0.24455088 -0.06801923
000370 e1 86 99 3c f0 b9 86 3d e4 88 de be 4a c5 41 3e
       0.018741073 0.065784335 -0.43463814 0.18922916
000380 ef 21 b9 3e 2d 99 34 3e 4e 3e 8b bd 7c ac 69 3e
       0.36158702 0.17636557 -0.06798993 0.22819704
000390 2b 8a bb 3e 4c ab d9 3d b3 fb b5 be 91 6d f6 bd
       0.3662885 0.106283754 -0.35543594 -0.12032617
0003a0 e1 a0 a8 bd 5c 3d fa bc d0 f2 01 bb 90 04 05 bf
       -0.0823381 -0.030546837 -0.0019828565 -0.51960087
0003b0 1f 9e 74 be 3f fb 04 be 38 e3 a7 bd 00 be 3e 3d
       -0.23888443 -0.12986468 -0.081976354 0.046567917
0003c0 53 64 a6 be 39 70 d8 be 6a b1 d5 be f9 7d 83 3e
       -0.32498416 -0.4227312 -0.4173692 0.25682047
0003d0 cb 56 65 be 73 64 69 3e 51 2e ab be 9a d6 51 3e
       -0.2239639 0.22792225 -0.33433774 0.2049202
0003e0 84 75 f2 3e 3d 60 52 3e 7a f2 55 3e 5b 76 b7 bd
       0.47355282 0.20544524 0.20893279 -0.089581214
0003f0 24 08 d1 3e d4 6b e7 3e af be ba be 7c 7a b9 be
       0.40826523 0.45199454 -0.36473605 -0.3622626

model.fc1.bias f4 [64]
000000 2e 3a 4d 3d e2 81 01 3e ff 15 95 be 71 65 c0 be
       0.050104313 0.12647203 -0.29118344 -0.37577394
000010 30 78 a1 3c 04 1e 94 3e 4b 89 3e 3d ae ff 70 be
       0.01971063 0.2892915 0.04651765 -0.23535034
000020 c6 6e d6 3e 4f 1d 04 3e 08 62 26 be 60 ec ee 3c
       0.41881388 0.12901805 -0.16248333 0.029165447
000030 9e c2 ba be 5f 6c a6 be eb 2a 8e be 03 4b 85 bd
       -0.36476606 -0.32504556 -0.2776712 -0.06508448
000040 7e 65 91 3e f7 e3 7e be 33 55 df be e4 65 99 be
       0.28397745 -0.24891649 -0.4361969 -0.2996055
000050 0a 2a e2 3d 8a c2 90 3e c3 16 ee 3e 08 42 27 be
       0.110431746 0.28273422 0.4650174 -0.16333783
000060 ed 6a e8 be 30 dc 52 be 01 71 4a be dd 74 b7 be
       -0.45394078 -0.20591807 -0.1976967 -0.35831347
000070 bd 25 c2 3e 83 85 99 be ca ca 25 be d6 62 b3 3d
       0.37919417 -0.29984674 -0.16190639 0.08759086
000080 f1 ec e6 be 6e 53 7a 3e ba 8d 0e 3e 80 93 ba 3e
       -0.45102647 0.24445888 0.13921252 0.3644066
000090 93 9b 2d be 22 45 6b 3e b8 34 32 bd 88 4e 4f be
       -0.16953878 0.22975591 -0.043507308 -0.20244801
0000a0 21 c1 8a be f7 d9 a6 3e a4 9a ba 3e bc 59 e0 3d
       -0.2710047 0.3258817 0.36446106 0.109546155
0000b0 ec 55 71 bd 3e 59 81 bd b8 1e f6 be 87 d0 6d bd
       -0.058919832 -0.0631585 -0.48070312 -0.058060195
0000c0 85 46 5f 3d 0d 3d 75 3e b8 74 24 bd cd 05 81 bd
       0.054510612 0.2394907 -0.040150374 -0.062999345
0000d0 b9 cb a9 3e 44 45 4c 3e 3c 86 f7 bd 81 ef c7 be
       0.3316324 0.19948298 -0.1208615 -0.39049914
0000e0 be 37 13 3e 63 ce 85 be 9b 13 18 3d 2f 25 3a 3e
       0.14376733 -0.26134023 0.037128072 0.18178247
0000f0 b8 84 d3 be c1 f6 06 3d db 44 46 3e 8e 5f 44 bd
       -0.41312194 0.032950167 0.19362204 -0.04794269

model.fc2.weight f4 [128, 64]
000000 bd 19 1b 3d 42 70 e5 bc 58 eb 60 be 10 3f d5 bc
       0.037866343 -0.02800763 -0.21964777 -0.026031047
000010 d5 8d 6b be 53 90 c4 bd 38 f7 0e 3e 5d 3a 8b be
       -0.23003323 -0.0959784 0.13961494 -0.27192965
000020 86 7e c3 3d 83 b4 50 3d f6 80 08 be 9a d2 27 3c
       0.09545617 0.0509534 -0.13330445 0.010243082
000030 61 1e ba bb ae df a7 bd 3d 82 b4 be cb 85 68 be
       -0.005679891 -0.081969604 -0.35255614 -0.22707288
000040 91 67 2d be d7 b0 ee 3d 46 85 aa bd 03 5f 62 be
       -0.16934039 0.11654823 -0.08326201 -0.22106557
000050 f3 8a fb 3d 0a 6c 80 3d ff 52 b8 3c 18 31 03 bd
       0.12282362 0.06270607 0.022500513 -0.03202924
000060 2d 6f d1 bd f0 85 93 be a2 e4 8f be dd 68 b8 bd
       -0.10226283 -0.28813124 -0.2810412 -0.09004376
000070 80 53 64 3e 2b d0 3b be f7 21 78 bd 6c 74 eb bc
       0.22297478 -0.18341129 -0.060579266 -0.028742038
000080 bd cd f5 bd 9e d9 03 3e e1 0c 75 bc bd f3 88 bc
       -0.12002132 0.12875983 -0.014956684 -0.016717786
000090 8e f7 03 3d f4 be 52 be 68 4a 67 3d fa de ae 3c
       0.03221851 -0.20580655 0.056467444 0.021346558
0000a0 fc a1 c0 bd db 41 6a bc 09 3b 13 3e 28 68 a8 bd
       -0.09405896 -0.014297928 0.14377989 -0.08222991
0000b0 78 45 08 bd 4b 29 a6 bc 06 ed 3d bc 8c 8b c2 b9
       -0.033269376 -0.020283362 -0.011592155 -0.00037106534
0000c0 0b 8b b5 3d 46 6d 1b 3e a4 dd cd be 59 9b 3a be
       0.08864411 0.15178403 -0.4020816 -0.18223323
0000d0 07 cd 24 3e ba 4c b5 3c 27 92 a3 bb da 08 e1 bd
       0.16093837 0.022131313 -0.004991788 -0.109880164
0000e0 66 20 bd 3d 93 5b 86 be 76 89 90 3c 7d 41 ee bd
       0.09234695 -0.2624174 0.017643671 -0.11633585
0000f0 2c a9 0d be d7 e3 9e bb d9 1a 17 bc 79 ae 2b be
       -0.13834065 -0.004848938 -0.00922271 -0.16765775
000100 c9 25 17 bc c3 5b 3e bd 91 69 61 bd 2d 9f 84 be
       -0.009225317 -0.04647423 -0.055032317 -0.2590269
000110 9f 72 36 3e f3 b2 20 3d f8 09 de bd 05 44 36 3e
       0.17817162 0.03923316 -0.10841745 0.17799385
000120 2d 69 cf bc 68 7d 99 bc 52 b1 43 3c 1d 1e 40 be
       -0.025318706 -0.018736556 0.011944132 -0.18761487
000130 1c 7b dd bc 84 ed f7 3d 55 dd ef 3d cd cf 12 3d
       -0.027036242 0.121058494 0.117121376 0.035842706
000140 b5 95 17 3e 7e 83 b5 3b 43 24 28 3e fb 1c be bd
       0.14803202 0.0055393567 0.16420083 -0.09282871
000150 59 60 d6 bd 85 bf 9e bd 7c 97 f7 bd 7c 65 de bb
       -0.104675956 -0.07751373 -0.1208944 -0.006787
000160 c3 e8 18 bd 22 cb e5 be ba 35 d4 bd f5 be 6c 3d
       -0.037331354 -0.4488154 -0.1036181 0.0577993
000170 2c 93 bc bd 72 a3 99 bd 20 ca 72 be 08 08 32 3d
       -0.09207758 -0.07501878 -0.23709917 0.04346469
000180 7f e4 5d bc dd e0 ad bb 63 fb 71 bd ab 70 9d 3d
       -0.013543247 -0.005306347 -0.05907763 0.07687505
000190 1b 93 85 bc 47 00 af bd ad 7f 4e bd 32 e7 09 3e
       -0.016305497 -0.08544975 -0.05041473 0.134671
0001a0 d0 31 40 3e 09 25 c8 bd f2 71 36 be 2d cf 23 3c
       0.18769002 -0.09772689 -0.17816904 0.009998125
0001b0 04 5e 44 be 24 16 3f 3e 41 20 58 3d e7 1b 61 be
       -0.19176489 0.1866079 0.052765135 -0.219833
0001c0 5e ce 16 be f4 a8 04 bc e3 56 3d 3d 2d e2 91 bd
       -0.1472716 -0.008096922 0.04622544 -0.07123218
0001d0 20 6c 3e bd af 59 19 3e fe 1c ac 3c f4 d3 61 3d
       -0.046489835 0.14975618 0.021009918 0.055133775
0001e0 e7 44 01 be d3 f8 a7 3d 2e 8a c6 3d cf 61 91 3d
       -0.1262394 0.08201756 0.096943244 0.07098734
0001f0 89 da 3e 3e af 19 d0 bc 95 c5 3b 3d 2a 80 89 3d
       0.18638052 -0.025402872 0.045842726 0.067138985
000200 7d 85 8d bd d4 b4 c7 3d 60 ee b5 3b 18 ce bc 3c
       -0.069102265 0.09751287 0.005552098 0.023047492
000210 ac b8 ff 3b 63 83 19 bd ec 00 87 3d 22 44 83 bd
       0.007803997 -0.037478816 0.06591973 -0.0640948
000220 d7 f4 37 bd 40 17 01 be f6 ac 11 3d d8 53 d1 3d
       -0.04491123 -0.12606525 0.03556534 0.1022107
000230 68 19 ed 3c b2 c5 8d bd 9a 3a 82 3d c2 5c 26 bd
       0.028942779 -0.06922473 0.063588336 -0.040615804
000240 c0 00 e2 bc 00 e2 12 3c 12 dc e8 bd 77 f9 4d bc
       -0.027588248 0.008965015 -0.113701 -0.012571684
000250 3e 64 ce bd ac 40 15 3d 41 25 84 3c 50 31 de 3c
       -0.100777134 0.03643863 0.016131045 0.027123123
000260 96 1b 97 3d 08 54 b2 3b 28 86 a7 bc 30 3c 6e 3c
       0.073783085 0.005442146 -0.020449713 0.014540717
000270 a1 cc d6 bd ac 3c 0e 3b 8e 46 10 3c 25 fc 88 bd
       -0.104882486 0.0021703644 0.008805884 -0.06688718
000280 24 6c 03 bd 00 86 e4 bd bb 5c e1 3d d8 99 bc bd
       -0.032085553 -0.11158371 0.11004015 -0.09209031
000290 99 f4 3d 3d 92 e2 fe bd b5 ec 1f 3d 20 d9 a4 bb
       0.046375845 -0.124455586 0.0390441 -0.005030766
0002a0 dc 5c 4f bd 1c 89 ec 3d 95 ff a6 bd 0e e0 d6 bd
       -0.050625667 0.11549589 -0.08154217 -0.10491954
0002b0 73 70 eb bd 28 cb eb bd c6 d6 fe 3d 40 b9 4a 3d
       -0.11496057 -0.11513358 0.124433085 0.049493074
0002c0 e0 52 f2 3c fc ea 7b bd 4e ee c9 bc 40 7d 21 bd
       0.029580534 -0.061503395 -0.024649765 -0.03942609
0002d0 55 50 fb bc ae c6 d9 bd f0 0d 40 3d 62 a1 3a 3d
       -0.030677954 -0.10633598 0.04688829 0.045564063
0002e0 38 28 a6 bc ba 81 d4 bd 70 b3 6a 3c bf 5c ae 3c
       -0.02028285 -0.10376306 0.014325008 0.02128446
0002f0 e0 9b 62 3d dc 0b dc 3d 11 45 ce 3d a0 c9 18 bc
       0.055324435 0.107444495 0.10071767 -0.009325415
000300 a5 96 f5 bd 76 9c 39 bd 64 af 17 be 64 b7 9f bd
       -0.11991624 -0.04531523 -0.14813 -0.07798651
000310 03 70 27 be 77 14 b9 bc 3d c8 22 3d 7b 7a 8b be
       -0.16351323 -0.022592766 0.039741743 -0.27241883
000320 2a 2d bf 3d ef bd 11 be b7 cb 07 bd 81 40 30 be
       0.09334786 -0.1423261 -0.033153262 -0.17212106
000330 45 aa 36 3d 3f d2 db bd 46 58 e1 bd 16 a1 39 3d
       0.044595975 -0.10733461 -0.11003165 0.04531964
000340 1b 38 a5 bd a1 1e a2 bc f3 c2 f1 bd dc 32 07 bd
       -0.08067342 -0.019789996 -0.11804762 -0.033007488
000350 43 04 7e bd 76 f1 24 3d b6 7c 6f bd df fa b4 bc
       -0.062015783 0.040269338 -0.058468543 -0.02209228
000360 5d 74 bd bd e0 29 5b 3e f2 50 c5 bd ec 5c d1 bd
       -0.0925071 0.21402693 -0.0963458 -0.102228016
000370 0e 6b 8b 3d 6b f8 e0 bd 04 ac 36 bd 0d 16 89 bd
       0.068075284 -0.10984882 -0.04459764 -0.06693659
000380 f8 1a a9 3d b8 49 a6 bc 12 e7 58 3e 5a 32 76 3d
       0.08257097 -0.020298824 0.21181896 0.060106613
000390 67 8c a1 bd e5 f7 d7 bc de 80 ab bd 1c 2c 03 3e
       -0.07888108 -0.026363323 -0.08374189 0.12809795
0003a0 05 e6 d7 3a fe 6b 9c bc 25 44 b9 bc 73 df 7d 3b
       0.0016471749 -0.019094463 -0.022615502 0.0038737922
0003b0 f6 04 97 bb 04 02 33 be cf 58 67 bc 91 72 04 3a
       -0.0046087457 -0.17481238 -0.014120295 0.0005052472
0003c0 96 ad d5 3d 94 c4 9d 3d f5 dd 10 be 7b 4b 87 3d
       0.104334995 0.0770351 -0.1414717 0.06606194
0003d0 ff c2 6b 3c c5 64 8b bc f1 45 b4 bd a7 79 60 3d
       0.014389752 -0.017015824 -0.08802403 0.054803517
0003e0 50 29 fd bd 5d 53 67 be 50 3f a4 bd 19 f7 ab bd
       -0.12361395 -0.22590394 -0.080198884 -0.083967395
0003f0 be 2e d2 3d 48 67 d8 bc 2d 3f 31 3c 7e bf 4d be
       0.102628216 -0.026416436 0.010818285 -0.2009258

model.fc2.bias f4 [128]
000000 a9 64 40 3e b7 92 08 be 33 97 33 bc 5f 8c c3 bd
       0.18788399 -0.13337217 -0.010961342 -0.09548258
000010 b9 d1 1f 3d 74 c9 82 bd 25 62 98 bd 52 f5 1f 3c
       0.039018366 -0.063860804 -0.074405946 0.009763079
000020 0a 3b ba 3d f2 8c de 3d 31 e6 54 3d 32 e4 8d 3d
       0.09093292 0.10866727 0.05197734 0.069282904
000030 57 9b a6 3b 18 d7 0f be 88 b5 9a 3c 82 36 08 3b
       0.005084436 -0.14046896 0.018885389 0.0020784442
000040 3f 18 59 bd 67 77 1f 3d e0 60 bf bd 81 b5 9e bc
       -0.05300164 0.03893223 -0.09344649 -0.019373657
000050 46 52 f2 bd 18 71 a0 bd cc ec b9 bd 7f ac bb 3d
       -0.11832099 -0.07834071 -0.090783685 0.091637604
000060 70 2a 2f be c2 03 0c be bf b6 b4 3d 64 1d 0c bd
       -0.17106032 -0.13673308 0.088239186 -0.034207717
000070 bc 1b 44 bd 7d 21 da bd 56 c4 04 bd 3a 86 05 be
       -0.047878012 -0.10650919 -0.032413803 -0.13039485
000080 f5 3b 8c bd 34 57 c0 3c 40 7a 44 bd 85 70 93 bd
       -0.068473734 0.023479082 -0.04796815 -0.07199196
000090 c1 cf 01 bc 64 94 4f bc 14 d7 62 bd b8 5c aa bc
       -0.007923068 -0.012669656 -0.055380896 -0.020796165
0000a0 39 a5 db 3c 8e 7c 49 3d 83 29 39 3e 83 e7 21 bc
       0.026812183 0.04919105 0.18082242 -0.009881857
0000b0 b1 b5 b3 3c 89 a4 2e be 15 1c 09 3e 06 4e 5f bd
       0.021937223 -0.17054953 0.13389619 -0.05451777
0000c0 d9 ed 1e be 3a 61 92 3d 5c 64 6e 3d 46 df 16 be
       -0.15520419 0.07147451 0.05820118 -0.1473361
0000d0 86 47 c9 3d ef a8 10 be 57 ed 89 bd 6f 8c 13 be
       0.09828095 -0.14126943 -0.06734722 -0.1440904
0000e0 53 24 01 3e ba ee a8 39 83 3e ac bd 52 cd 08 bd
       0.12611513 0.00032221322 -0.08410361 -0.033398934
0000f0 15 91 5c bd b3 33 09 bd c1 cc d9 3d 04 7d f9 bc
       -0.0538493 -0.03349657 0.10634757 -0.03045512
000100 12 c2 2e bd e7 6d 3d bd bd 22 06 bc dc 3e 49 bd
       -0.04266555 -0.04624739 -0.008186993 -0.049132213
000110 aa 3d e7 bd 46 df d1 bc 44 20 04 ba 87 f0 2a be
       -0.11291058 -0.02561916 -0.00050402083 -0.16693316
000120 da 48 7d 3d cb 61 54 bd e7 2b ee bd 85 3c f4 3d
       0.061837055 -0.051851075 -0.116294675 0.11925606
000130 69 89 51 3b 72 e2 a0 bc e1 8f 15 bd 1f 95 08 be
       0.0031972772 -0.019639228 -0.036514167 -0.13338135
000140 02 f0 81 3d a2 5f d0 38 b0 27 17 be bd 40 00 bd
       0.06344606 9.936026e-05 -0.14761233 -0.03131174
000150 95 b8 0c 3e 5b 4a 1e 3c 57 e1 15 be b4 33 83 bd
       0.13742287 0.009661282 -0.14636742 -0.06406346
000160 a4 d2 46 bd 4d 3e c7 bd 29 18 14 bd 21 16 1c 3e
       -0.048540726 -0.0972868 -0.036155853 0.15242817
000170 da e0 27 be 5c d0 3d 3e 5c ef 16 be 73 df ca 3d
       -0.16394368 0.18536514 -0.14739746 0.09905901
000180 b8 8f 8f bd 8b 64 dd bd 5f 4d 0f be 44 22 90 3d
       -0.07009834 -0.10810193 -0.13994358 0.07037786
000190 b9 59 3e bd e2 ee 73 3d c0 62 92 3d 53 08 46 3e
       -0.046472285 0.05955399 0.07147741 0.19339113
0001a0 2e 82 d5 bd fb 20 2c be a7 b7 2b be 73 10 af 3c
       -0.104252204 -0.16809456 -0.16769277 0.021370148
0001b0 d6 cd 31 be f7 02 c0 3c 41 56 ea bd ae b2 ed bd
       -0.17363676 0.023438914 -0.11442233 -0.11606346
0001c0 d8 d0 37 3c d4 27 1f bd b4 89 48 bd c7 05 b9 3d
       0.011219226 -0.038856342 -0.04895945 0.09034305
0001d0 90 51 92 bd a4 37 67 bd 12 a0 08 be 69 8e 59 be
       -0.07144463 -0.056449547 -0.13342312 -0.21245731
0001e0 bf 78 0c be b3 ed 39 3d 7c 51 d9 bd 2f 3f 01 be
       -0.13717936 0.045392703 -0.10611245 -0.12621759
0001f0 64 f5 fa bb 38 38 03 be a9 24 4e 3e 63 e5 fc 3d
       -0.0076586474 -0.12814415 0.20131172 0.123484395

model.fc3.weight f4 [128, 128]
000000 f3 c8 da 3c ca 9d 12 3d d3 65 3c bc 4e b1 30 3b
       0.026707148 0.03579501 -0.011498886 0.002696115
000010 c4 5d 4e bd eb b6 d5 bb 73 74 e1 bb 91 ac c5 bc
       -0.05038239 -0.0065220497 -0.006880337 -0.024130138
000020 10 0f b1 bb 78 cf f1 3c 13 57 ac 3d 79 12 5e 3d
       -0.005403407 0.029517874 0.084150456 0.054216836
000030 89 2b 9c 3d 99 77 db 3c e5 bf b0 bd 48 c8 ba 3d
       0.07625491 0.026790427 -0.08630351 0.09120232
000040 15 6e 07 3d 0d 20 b9 bd a6 29 76 3d 54 ac ca bc
       0.033063967 -0.09039316 0.060098313 -0.024740376
000050 da e3 1c bd 0e f4 b4 bd 50 c6 fb bb b6 a3 67 3c
       -0.038303234 -0.08835612 -0.007683553 0.014138153
000060 95 7f dc 3c a9 c0 d9 bc 14 92 bb ba 47 9f 90 bc
       0.026916305 -0.026581125 -0.0014310502 -0.017654074
000070 99 4b 4c bd d3 71 a5 3b ad 7d 8e 3b 2c 98 3b bc
       -0.049876783 0.0050489693 0.004348478 -0.011449855
000080 0b 88 20 3d 76 41 10 3d c0 a0 32 bd 86 60 23 3d
       0.03919224 0.03521868 -0.043610334 0.039886974
000090 31 18 44 bd fe cf fe bc bb c8 24 3d 70 fc a3 3b
       -0.047874633 -0.031105038 0.040230494 0.005004458
0000a0 76 88 fe bc 45 2b dc bc ad 68 a8 3d 66 ed 9e bd
       -0.031070929 -0.026876101 0.0822309 -0.07760124
0000b0 21 de 84 3c 3b 9b b2 bd 9a a8 8a bd 0b 71 81 3d
       0.0162192 -0.08721014 -0.067704394 0.06320389
0000c0 f8 f2 21 be a0 92 0a bb d4 b6 42 3d 79 68 61 3d
       -0.15815341 -0.0021144524 0.04753764 0.055031274
0000d0 47 a5 4f 3d 90 98 98 bd d8 a3 4b 3d 83 7d 66 3d
       0.05069473 -0.07450974 0.0497168 0.05627204
0000e0 62 9c ee bd 9d f4 80 3b 4d 86 80 3d 73 a1 52 bd
       -0.116509214 0.00393541 0.06275616 -0.0514235
0000f0 0a 62 bb bd 11 33 64 3d a9 69 e9 bd 89 26 9a bd
       -0.09149559 0.055712763 -0.11397106 -0.07526881
000100 62 bc d3 bd ff 4b 76 3d 81 cc ba bd 0f c9 29 bd
       -0.103386655 0.06013107 -0.09121037 -0.04145151
000110 74 01 c7 bc 22 02 97 3d 29 3d 7c bc b3 f8 9d bd
       -0.024292685 0.07373454 -0.015395441 -0.07713451
000120 60 d9 b0 bd d2 dc 97 bd bb 12 8a bd 8a e8 80 3c
       -0.08635211 -0.07415165 -0.06741854 0.015735883
000130 36 de 0d bd d9 48 11 3d 72 b5 fd 3b f7 65 f3 3c
       -0.034635745 0.035469864 0.007742577 0.029711707
000140 7b f3 c2 bd 75 bc ca bd 9c 9c 8b bd 82 c0 98 bd
       -0.095190965 -0.098992266 -0.0681698 -0.07458593
000150 9a ba 01 3d a4 2b d9 3b 79 47 08 be 41 42 62 bd
       0.031672098 0.006627517 -0.13308515 -0.055238966
000160 3a 4f b8 bc f7 e7 4f bd f1 98 17 bd 2f 0c 77 bd
       -0.022498716 -0.05075833 -0.03701109 -0.060314354
000170 1d 4c 76 be 12 11 cd bc 78 50 92 bd 93 03 5c 3d
       -0.24052472 -0.025032554 -0.071442544 0.053714346
000180 d6 b9 2f 3c f6 a9 3b bd 36 7b 13 bd ef a7 e8 3b
       0.010725459 -0.045816384 -0.036006175 0.0071000974
000190 42 46 36 3c 21 6e d0 bc f3 49 4c 3d 72 f8 c0 bd
       0.011125149 -0.025443139 0.04987521 -0.09422387
0001a0 b4 64 a7 bc 79 66 58 3c 49 8f 94 bc b6 8a 8f 3d
       -0.020433761 0.013208025 -0.01813473 0.07008879
0001b0 cd 72 ec bd ad 5f ed bc 12 1f 39 be 28 10 85 bb
       -0.11545334 -0.028976286 -0.18078259 -0.004060764
0001c0 d2 da 18 3c 14 e4 a5 3d 69 60 bd bd 5e 23 12 be
       0.009329515 0.08100143 -0.092469044 -0.14271304
0001d0 7f 0a ac bd 1a ec bd bc db 59 04 be 2e b5 88 bc
       -0.084004395 -0.023183871 -0.12924902 -0.016687956
0001e0 b5 fc 96 39 13 c2 2d bd b1 0b 2b bd 04 86 00 be
       0.0002879851 -0.04242141 -0.041759197 -0.12551123
0001f0 1c 27 81 3d 0f 47 4d bd a4 4c a7 bd cd 29 66 bc
       0.06306288 -0.050116595 -0.08168915 -0.014048052
000200 11 6c cc bc 1c f3 29 bd 0e 7f 22 3d b5 89 76 bd
       -0.024953874 -0.041491613 0.03967195 -0.06018992
000210 f3 65 41 bd 2e a8 bb bd e8 a6 a1 bd 44 c1 36 bd
       -0.047216367 -0.09162937 -0.07893163 -0.044617906
000220 53 54 ea 3c 85 82 24 3e 25 81 d1 bd 33 4d 91 3d
       0.028604662 0.16065414 -0.102297105 0.07094803
000230 a7 05 89 3c 81 4b 63 3d e3 4b b8 bd f6 cf fc 3b
       0.016726328 0.055491928 -0.08998849 0.0077152206
000240 33 5c 2e bd 4f d1 fe bc 96 06 34 3d 05 b7 e0 3d
       -0.042568397 -0.031105665 0.043951593 0.10972408
000250 b8 a7 2a bd 00 fe 80 b9 a7 38 40 bd 1f ad 31 3c
       -0.041663855 -0.00024603307 -0.046929028 0.010844498
000260 44 4b 49 3d 40 11 87 3e 34 df 06 3d a3 1f ff 3b
       0.049144045 0.26380348 0.032927707 0.007785754
000270 52 83 d7 bd 2c 9f 73 bd 3c 64 0f 3d d2 86 0e 3c
       -0.10523094 -0.05947797 0.0350077 0.008699136
000280 21 f1 f3 bd de 4b 1d be bd 2f 48 bd 67 9e 47 3d
       -0.11911226 -0.15360972 -0.04887365 0.04873505
000290 91 8e fa bc b0 c9 df 3b 33 8d dd 3c 31 4d 83 3d
       -0.03058556 0.006829463 0.027044868 0.064112075
0002a0 4d 7e c4 3c 05 64 19 3d f9 94 60 be ce 59 50 be
       0.023986006 0.0374489 -0.21931829 -0.20346758
0002b0 8c 63 0a 3e 20 3b 04 3e c8 bf c9 bc a6 99 b5 bd
       0.13514537 0.1291318 -0.024627581 -0.08867197
0002c0 68 d9 7d 3d 88 d5 4d be 86 da 07 be 42 01 b1 bd
       0.061974913 -0.20100987 -0.13266954 -0.08642818
0002d0 13 4c f5 bd ad 3c 9b 3e c1 c8 aa 3c d5 c4 1e 3d
       -0.11977401 0.3031973 0.02084768 0.038761932
0002e0 9d 30 ca 3d f8 f7 2f 3d 0f 0d 08 bc f5 5c 94 3d
       0.098725535 0.04296109 -0.008303895 0.07244293
0002f0 3d 06 bc 3d d9 5d 5c 3d c6 c6 71 bb bb c8 04 bd
       0.09180877 0.053800438 -0.003689216 -0.032417994
000300 b4 1c a3 3d a3 f1 8b bd 68 6b 3b 3e 7a ab 56 3d
       0.07964459 -0.06833198 0.18302691 0.052409627
000310 4c 56 a7 3d 22 60 48 be 6c 84 a1 be ed 64 5b 3e
       0.08170757 -0.19567922 -0.31546342 0.21425219
000320 a5 29 7b 3d e8 b4 8f 3c 33 36 4c 3e 2a 71 59 bd
       0.061319012 0.017542318 0.1994255 -0.053086437
000330 66 3d 81 be c8 9d 4e bd 45 d8 3d bd d7 c2 43 3d
       -0.25242156 -0.05044344 -0.04634883 0.047793236
000340 4e 43 42 be 61 50 32 be 8a 27 85 bd b2 a7 a3 bc
       -0.18970987 -0.17413475 -0.06501682 -0.019977424
000350 46 56 25 3d db 8d 28 3d dc 05 87 bd 0c 95 24 be
       0.04036548 0.04115091 -0.065929145 -0.16072482
000360 2d 6d 81 be 31 fe f7 3d e5 29 8c 3e 70 fe e0 bd
       -0.25278607 0.1210903 0.27375713 -0.1098603
000370 b6 1c 45 be a1 35 9a be 8c a1 94 3c 3a 24 61 be
       -0.19249234 -0.3011904 0.018143438 -0.21986476
000380 3c f4 49 3c e9 12 16 bd ce af 2f be 63 d0 4e bd
       0.012326296 -0.036639128 -0.17156908 -0.0504917
000390 b9 32 52 3d 1f fe 0b bd 45 75 76 bd 39 8a 1f be
       0.051317904 -0.034177896 -0.06017043 -0.15580072
0003a0 0c ee b1 bd 07 99 b6 3d f2 33 b8 3d 5b 71 9e bd
       -0.08687982 0.089159064 0.08994283 -0.077364646
0003b0 b1 f9 59 3d 01 4f 14 be 0d 84 38 be 20 ba 93 bd
       0.05321664 -0.14483263 -0.18019123 -0.07213235
0003c0 e0 1c ec bd 44 06 84 3d 87 db f3 bd cf 90 e2 bc
       -0.11528945 0.064465076 -0.11907106 -0.02765694
0003d0 48 41 03 bc 49 9c d8 bd c9 4a 0a bd 49 b6 74 3e
       -0.00801117 -0.10576684 -0.033762727 0.23897661
0003e0 c8 5e bc 3e 88 b5 2c bb e6 33 1b be 4a 78 3b 3e
       0.36791062 -0.0026353318 -0.15156516 0.18307605
0003f0 0c 5e 43 3d 94 53 56 3d 30 ac 42 be b6 e8 af be
       0.047697112 0.0523258 -0.19010997 -0.34357232

model.fc3.bias f4 [128]
000000 08 bd 91 3d 41 f2 d2 bd b4 1f a5 bc 51 16 cc 3c
       0.07116133 -0.103001125 -0.020156719 0.024912985
000010 8a 93 2d 3d 8d 3b 22 bd 3a 1c d6 3d c2 dc 83 3b
       0.042377032 -0.039607573 0.104546025 0.004024119
000020 57 2b a9 bd ce a2 cf bd e7 96 99 bd e2 f4 2e 3b
       -0.082602195 -0.101384744 -0.074994855 0.0026696254
000030 90 80 ef 3c c4 81 09 bd 91 c5 38 bc 8b 4a c1 3d
       0.029236108 -0.03357102 -0.011277572 0.09438046
000040 1a 8b c6 3d 8a 63 8d bc 0e 43 15 3e 28 78 17 be
       0.096945 -0.017259378 0.1457636 -0.1479193
000050 6a 8c 37 3d 7a fc 70 bd 5c 4c 90 3d dd 76 4d 3c
       0.044811644 -0.05883453 0.070458144 0.012540546
000060 01 75 16 be 18 5d c1 bd 09 fc 13 3b 63 62 28 3d
       -0.14693071 -0.09441584 0.0022580645 0.041109454
000070 42 6b b8 3d c3 e2 f5 bd 7d 0d d6 3c 9b f6 1a 3d
       0.09004833 -0.12006142 0.026129479 0.037832838
000080 f9 0a 31 3c a1 e7 e2 3d a4 9c a9 3c 8a 55 99 bd
       0.010805839 0.11079336 0.020704575 -0.074870184
000090 91 c3 23 bd 8d eb c2 bc 4a ba be bd e1 65 4c 3d
       -0.03998143 -0.02379396 -0.093128756 0.049901847
0000a0 c7 ec ab 3a 31 95 dc bd cb cd b8 3c 70 1a 8f bc
       0.001311683 -0.107706435 0.022559067 -0.017468661
0000b0 43 ed 85 be 21 4c 78 bd 1f 2c 08 3e 8c ee 02 3d
       -0.2615758 -0.060619477 0.13298081 0.031965777
0000c0 de 86 14 bd 53 01 cd bd 77 b2 80 3d 22 6e ec bd
       -0.036261432 -0.10010018 0.062840395 -0.11544444
0000d0 8c 52 3d bd 9b 74 b6 bd f9 7b 91 bd 2c d1 8e be
       -0.0462213 -0.089089595 -0.07103724 -0.2789396
0000e0 01 68 65 3d fa f1 32 3c 45 fb f1 bc 18 73 51 3d
       0.05600739 0.0109219495 -0.02953876 0.051135153
0000f0 f0 b7 0f 3e a7 01 cf 3b fb 9e 34 3e 28 bb e9 bd
       0.1403501 0.0063173356 0.17638771 -0.1141265
000100 75 e8 ae bd bc 0b 58 bd 3d be 0c 3e 14 7a 52 bb
       -0.085404314 -0.052745566 0.13744445 -0.0032116221
000110 20 d0 c0 3d 5d a0 15 3d 91 ce fe 3b 63 fe 9f bc
       0.09414697 0.036529887 0.0077760895 -0.01953048
000120 d7 56 dc bc 4b 0d ae bb 6a 8d 63 bc 84 0c 79 bd
       -0.026896877 -0.0053116432 -0.013888696 -0.06080295
000130 af b5 d4 bd 1c 18 09 bd f3 57 34 3c 8f 15 89 bd
       -0.10386216 -0.033470258 0.011007297 -0.06693565
000140 11 bb 88 bd 90 93 27 bd 97 fb f8 3c e4 ca cb bb
       -0.06676305 -0.04091221 0.030393405 -0.006219255
000150 3f d8 21 bd 0d 14 56 bd 88 ed 78 bd 75 17 14 3d
       -0.03951287 -0.052265216 -0.060773402 0.036155183
000160 a3 d4 63 bd 8d 6b e5 bd f8 2b f0 bd d5 b5 53 bc
       -0.055622708 -0.11202154 -0.117271364 -0.01292177
000170 a7 8a dd 3b 04 19 4b 3d d9 61 d6 bc 2d 17 02 bd
       0.0067609134 0.049584404 -0.026169704 -0.031760383
000180 ea df db 3c 02 f1 89 bd 3e 41 d0 bb 64 fd e7 3c
       0.026840169 -0.06735422 -0.0063554337 0.028319068
000190 1d 13 8d ba 06 e5 79 3d 96 eb c4 bd 23 ba 32 bd
       -0.0010763142 0.06100943 -0.09615247 -0.043634545
0001a0 2b f6 20 bd 2e df a3 bd f2 23 68 bd 84 47 9a bd
       -0.039297264 -0.080015525 -0.056674905 -0.07533172
0001b0 3b 33 9a bd ff 0f e6 bd 1d 3e 48 bd a6 a3 e1 bc
       -0.07529303 -0.1123352 -0.04888736 -0.027543854
0001c0 f6 5f ef bd a3 c9 0a 3d 44 1a b0 bd 19 69 5d 3d
       -0.11688225 0.033883702 -0.0859876 0.054055307
0001d0 55 ed 41 3d f0 eb 45 bd a4 44 b8 3d 94 8f 54 b9
       0.047345478 -0.04832071 0.08997467 -0.00020271383
0001e0 03 71 c5 3d ba b6 76 bb 44 27 54 3d ef a4 2e 3c
       0.09640696 -0.0037645535 0.05179526 0.01065944
0001f0 7e 93 c9 bd 68 7c 56 bd 6a d9 82 bd 9d 74 a8 bd
       -0.09842585 -0.052364737 -0.06389125 -0.08225367

model.fc4.weight f4 [64, 128]
000000 08 75 c3 3d 5a 9d 0c be 4c d0 2f bd 57 af ae 3d
       0.09543806 -0.137319 -0.042923257 0.08529537
000010 34 f5 e7 ba 45 7e 35 39 f3 80 9f 3d 58 99 b7 3c
       -0.0017696978 0.00017308544 0.07788267 0.022411987
000020 d7 d0 0c bd 8c 87 90 bd 98 14 c3 3c e9 0a b8 bd
       -0.034378853 -0.070571035 0.02381353 -0.08986456
000030 4a 4e c4 3c 00 a1 1f 3d e4 90 19 bd 79 5e 50 bc
       0.023963112 0.0389719 -0.037491694 -0.012717837
000040 55 4f b4 3c 7e 9d 81 bd 28 6f 56 3d 4a 45 b6 bd
       0.022010485 -0.063288674 0.0523521 -0.088999346
000050 9f f9 a5 3d 7c 50 32 bc 08 b9 05 bd e2 21 a9 3d
       0.08104252 -0.010883447 -0.032647163 0.08258416
000060 aa 0e 1e 3d 94 15 8d bd 80 02 3c bd 9a 48 bd bc
       0.038588203 -0.06888881 -0.04590082 -0.023105908
000070 dc d0 dd 3d 07 d7 bd bd 0d 38 29 bd 3a 2a a1 bd
       0.108308524 -0.09269529 -0.04131322 -0.07869382
000080 e7 95 1e 3d 63 bc eb 3b b9 b7 8e 3d 9f f1 a9 bc
       0.038717177 0.0071940883 0.06968636 -0.020745097
000090 56 ce fd 3d 07 af 12 be 71 b4 ee bd b5 0e a8 3b
       0.12392871 -0.1432458 -0.1165551 0.0051287063
0000a0 b6 7b 12 3d 43 cb a3 bc 66 be 42 3d df 59 5c be
       0.03576251 -0.019994384 0.04754486 -0.21518658
0000b0 cb 90 6d bc 4d 49 8d 3c 03 6e e1 3c 49 a2 ea 3d
       -0.014499853 0.017246867 0.027518278 0.11456735
0000c0 e7 ed 8d 3c 7c 8b f9 3b 79 ee d4 3c 55 99 41 3d
       0.017325355 0.007615505 0.025992619 0.04726537
0000d0 69 60 16 3d 17 0a 63 bd b3 5d 09 3d 2b 8b 61 be
       0.036713038 -0.055429544 0.033536624 -0.22025745
0000e0 b2 7d 51 3c 92 a0 85 3d 04 64 00 bd fc 9d 6b 3c
       0.012786316 0.06524767 -0.031345382 0.014380928
0000f0 2c 5d 5c 3d 11 27 3c bd 98 f6 45 be 87 7b 53 bd
       0.053799793 -0.045935694 -0.1933235 -0.051631477
000100 56 b1 70 3d c5 52 53 bd 34 4a 9d bb fd 06 78 bd
       0.05876287 -0.051592607 -0.0048001055 -0.06055354
000110 8d 5a 25 bb 27 08 9c bd 2b 70 17 3d 11 f4 07 bd
       -0.0025230974 -0.076187424 0.036972206 -0.033191744
000120 97 49 a2 3b d7 e4 88 3d fb 1d 5f 3d 39 3a a3 bd
       0.0049526202 0.06684273 0.05447195 -0.079700895
000130 e7 5f cb bd 94 10 26 bd 8a ca 6c 3d 3d e0 a8 bd
       -0.09930401 -0.040543154 0.057810344 -0.08245895
000140 0d ae 0b bd fb 26 1e 3d ea d5 6c bd 00 3d e4 bb
       -0.034101535 0.038611393 -0.05782119 -0.0069652796
000150 3d c7 04 3d b6 1b 82 3d fd d1 8c 3d a1 c2 66 bd
       0.03241657 0.06352942 0.068759896 -0.056337956
000160 ca ef 8f 3d 69 02 32 3d 04 64 d7 bd 70 27 4f 3d
       0.07028158 0.04345933 -0.10517123 0.05057472
000170 9d 9b be bd a3 4b b5 3d e3 1a 7e bd 26 f9 7a 3d
       -0.09307025 0.08852317 -0.06203736 0.061272763
000180 5f 3b b8 3d 58 a2 3c 3d 49 77 cd bc ea c9 28 3d
       0.08995699 0.04605326 -0.025081294 0.041208185
000190 f7 89 07 3d f8 f7 a4 3d 4f ef 56 ba b0 5d 89 bb
       0.033090558 0.08055109 -0.0008199112 -0.0041920766
0001a0 be 15 e6 3a 46 d7 01 3d bc b3 a2 bd 23 de 31 3d
       0.0017554087 0.03169944 -0.07944438 0.043424737
0001b0 2c 02 b0 3c 9f 99 a5 bc e6 ba 1a 3d 10 0f ad 3d
       0.02148541 -0.020214854 0.037775896 0.084501386
0001c0 1c 65 48 bc 89 43 15 bd 2d 23 fb 3c 1e a9 b7 3d
       -0.012231138 -0.03644136 0.030656422 0.089678034
0001d0 ce f8 6d bd 53 11 2b 3d 08 4d 92 bc 18 d1 e0 bd
       -0.058098607 0.04176457 -0.017858997 -0.109773815
0001e0 44 84 40 3d c2 ce 29 bd 9a 02 0b bd 40 39 ee 3c
       0.04700114 -0.041456945 -0.033938028 0.029080033
0001f0 09 c9 f0 bc c8 1f 0f bd 94 18 36 3d 6b 9b 08 bd
       -0.029392736 -0.03494242 0.044457033 -0.033351343
000200 8c 8e 71 bd ce 65 8c bd 30 d8 3e 3c 4e b9 33 3c
       -0.058973834 -0.06855355 0.011648223 0.010969473
000210 10 a9 40 3b c5 95 a5 bd 6d ed 40 bd b3 83 13 bd
       0.0029397644 -0.08085207 -0.047101427 -0.03601427
000220 a2 e6 0f be 6f a3 a5 3d 6a 3d 66 bd aa 41 e0 bd
       -0.14052823 0.08087813 -0.056210913 -0.109500244
000230 20 88 5d bd 5c d9 cb 3c e6 83 60 3d fe a0 15 bc
       -0.054084897 0.024883918 0.05481329 -0.009132622
000240 c2 5d b9 bd b4 29 e2 bc 3a 0f db bd 84 6b 96 3a
       -0.09051086 -0.027607776 -0.106962636 0.0011476134
000250 d5 8a 7d bd 7d d3 31 bd 67 77 35 3d f4 c3 21 bc
       -0.06189998 -0.04341458 0.044303324 -0.009873379
000260 76 31 85 bd 6b be 8e 3d ef 13 86 bd 67 8f 8f 3d
       -0.065035746 0.06969913 -0.06546771 0.07009774
000270 1a 46 59 bc ce ce 4c 3d c2 93 7d bd 7b c5 d6 bd
       -0.013261342 0.05000191 -0.06190849 -0.10486885
000280 ed b3 41 bc 63 9d 19 bd e8 19 7a 3c 78 26 92 3d
       -0.011822683 -0.03750361 0.015264966 0.071362436
000290 ee ce 69 3d 20 17 bf 3c b4 6d 23 3d c3 fd c2 bd
       0.05708211 0.023326457 0.039899543 -0.095210575
0002a0 b3 4c da bd f2 db 66 3d 0c 38 7b bb 60 8d 38 bd
       -0.106591605 0.0563621 -0.0038332967 -0.0450567
0002b0 37 f5 69 bd 79 4c 82 3d 3a 8a 3c 3c 9d 46 4a bd
       -0.05711862 0.06362242 0.011507565 -0.04938375
0002c0 9a f4 85 3d b9 a5 17 bd d0 77 b6 3c f5 f5 76 bc
       0.06540795 -0.03702328 0.022273928 -0.015073289
0002d0 80 38 e1 3b 35 30 ea 3c c3 7e fa bc 69 c1 8d bd
       0.0068731904 0.02858744 -0.030578023 -0.06921656
0002e0 2a b9 d4 bd d0 dc 48 3c f6 a6 10 bd e0 dd 50 3d
       -0.1038688 0.012259677 -0.035315476 0.050992846
0002f0 28 60 14 bd 0b 8a 3b 3d 58 96 cb bc 64 cb bf bc
       -0.036224514 0.045785945 -0.024851963 -0.023412414
000300 67 1a ce bc c0 19 19 bb 38 cd 7a 3d 50 7d 21 bc
       -0.025159074 -0.0023361295 0.061230868 -0.009856537
000310 07 a4 cd bd 1b 9c 33 bd 79 db d7 bd 43 e0 b5 3c
       -0.10041051 -0.043850046 -0.10539908 0.022201663
000320 de c5 51 3d ac e3 91 3c b3 f5 03 bd a8 cf 9f bc
       0.05121409 0.017808758 -0.03221674 -0.019508198
000330 52 1e 1c 3d 7b ae 19 bd 70 66 17 3d 9f fd c2 3c
       0.038114853 -0.037519913 0.036962926 0.023802577
000340 6f c0 07 3c fd 8f d3 3c 16 36 79 3d a0 28 02 3c
       0.008285626 0.025825495 0.060842596 0.007944256
000350 c0 52 f9 3b d7 b8 87 3d 2c 96 a6 bd 08 f3 b0 bc
       0.0076087415 0.06627052 -0.08134112 -0.021600261
000360 f0 db c8 bb 76 96 04 3d 80 ab 05 be c1 fa b5 bd
       -0.006129734 0.032370053 -0.13053703 -0.08885718
000370 de 80 94 bd fa 1f 46 bd a1 ca e2 bd fe e0 0f bd
       -0.07251142 -0.04837034 -0.11073805 -0.03512668
000380 b0 b0 de bb 92 ed 7b bd 8b 72 96 bd 7d 05 bf bc
       -0.006795965 -0.06150586 -0.07346066 -0.023318047
000390 40 db f7 ba ca da a9 bd 0c a8 8b 3c 60 90 7a bc
       -0.0018909946 -0.08293684 0.017047904 -0.015293211
0003a0 37 d6 06 be 48 ad 1b bc a4 dc 0f 3d f1 0d 90 bd
       -0.13167654 -0.009501763 0.03512253 -0.07033909
0003b0 49 ec 86 3d 56 cb f0 bc e7 b2 c2 bd fd 17 9e bc
       0.065880366 -0.029393833 -0.09506779 -0.019298548
0003c0 68 8c ba bc f9 a8 c0 bd ce ad b0 bd 47 9b e6 3c
       -0.022772029 -0.09407229 -0.086269006 0.028150214
0003d0 9b 80 2a bd 60 ae af bc 78 ca 4d 3c 50 8c d4 3c
       -0.041626554 -0.021445453 0.012560479 0.025945812
0003e0 d1 5a 77 bd 15 db 1e bd 76 e0 21 bd 3a 55 e1 bd
       -0.060389344 -0.03878315 -0.039520703 -0.11002584
0003f0 e4 2c dd 3c 6a 53 f0 bc 9f ef 15 bd ea bb 08 be
       0.026998945 -0.02933665 -0.036605474 -0.13352934

model.fc4.bias f4 [64]
000000 52 ae 8b bc d2 92 b3 bd 78 c9 06 be c4 58 91 3b
       -0.017050896 -0.08768238 -0.13162792 0.0044356305
000010 d1 1b 86 3d fe 8b b5 bd 11 41 00 3e 62 f1 d7 3d
       0.06548274 -0.08864592 0.12524821 0.10544087
000020 08 b8 21 3e f5 cd a1 bd 85 93 2f 3e 01 85 ee bb
       0.15792859 -0.07900611 0.17146118 -0.007279039
000030 79 84 5d 3d a2 28 af 3d ac 80 30 3e 9d 4a 1e 3e
       0.054081414 0.08552672 0.17236584 0.1545815
000040 d7 bf 9d bc ff 5e dc 3c e8 1f d7 bc ce d5 b4 3d
       -0.019256515 0.026900766 -0.026260331 0.088298425
000050 6a 04 38 3e df 98 ca 3d 5d a7 ff 3d 1c 03 39 3e
       0.17970434 0.09892439 0.12483094 0.18067592
000060 fe 22 db 3d 1d 1f 3c 3d fb 37 d2 3d 13 0a 96 3d
       0.107000336 0.04592811 0.10264584 0.0732614
000070 50 d4 88 be 95 68 0f 3d 09 08 d9 3d 01 a5 44 3e
       -0.26724482 0.035011847 0.10597236 0.19203569
000080 bb 43 f4 bd ff dc 89 bd 14 d5 a9 3d 8e b2 18 be
       -0.11926981 -0.06731605 0.082925946 -0.14911863
000090 0c ef 07 be 40 f8 3a 3e 10 7e 8c be 79 32 14 3e
       -0.13274783 0.18258762 -0.27439928 0.14472379
0000a0 cc cc c1 bc 5c 48 5f 3d 16 1e 0c 3e 26 94 10 3e
       -0.023657225 0.054512367 0.13683352 0.14119014
0000b0 06 c5 2b 3d 17 22 21 3e 6a cf 25 3e 3e 84 b5 3d
       0.041935943 0.1573566 0.16192403 0.08863114
0000c0 c4 68 4b 3d a1 57 0f 3e f7 44 d2 bd 1a 19 d8 3d
       0.04966046 0.13998272 -0.1026706 0.10551663
0000d0 46 71 2d bd 88 5f e5 3d a1 a1 62 3d 18 2e ae bd
       -0.042344354 0.11199862 0.055329923 -0.085048854
0000e0 51 c8 16 3e 8c bd e8 bd a6 2f 03 3e a4 91 28 3e
       0.14724852 -0.11364278 0.12811145 0.16461807
0000f0 fa a6 89 3d 39 7f ec 3d 3e 6b 09 3d 4d 99 85 bd
       0.067213014 0.11547703 0.03354954 -0.065233804

model.fc5.weight f4 [2, 64]
000000 f1 6f 29 bb 6d 3f 9c bc e4 31 b4 3c 03 66 43 3d
       -0.0025854076 -0.019073213 0.021996446 0.047704708
000010 9a 0f 0d 3d 70 e2 6e bd b3 46 02 bd f2 6c d5 3d
       0.034438707 -0.058321416 -0.031805705 0.1042117
000020 8d 1c ae 3d 6b 5f 03 3d c6 5b f5 bd 25 02 18 3a
       0.085015394 0.03207342 -0.11980395 0.00057986594
000030 2e 43 94 3a 5b 7c be 3c 0f df 07 3e 57 03 8d bd
       0.0011311525 0.023252657 0.13268684 -0.06885403
000040 d8 45 58 bb 5c c1 67 3c 8b 8a 1a 3c 61 91 94 3d
       -0.0033000614 0.014145222 0.009432445 0.07254291
000050 5e ff 05 3e 7e 55 0a bd a1 12 a4 bd 8a d5 21 bc
       0.13085696 -0.033772938 -0.08011366 -0.009877572
000060 43 20 3e 3e 05 78 20 bb 5f cf e8 bd 84 ac 43 bd
       0.18566994 -0.00244856 -0.11367678 -0.047771946
000070 87 cb bc bc 79 81 a9 3b 5b 5a 90 3d 9c de 1d be
       -0.023046268 0.005172905 0.07048484 -0.1541695
000080 18 1b 3c bd 3e b7 a1 bd 3d 2f d6 3d b8 71 83 bd
       -0.045924276 -0.07896279 0.10458229 -0.064181745
000090 1e 84 68 3a a4 0c d2 bd 11 e0 90 3c 12 65 61 3d
       0.00088697847 -0.10256317 0.017684968 0.05502803
0000a0 aa 8e 13 3d b5 e3 4f bd 3b d8 d9 3d f8 f2 a4 3d
       0.036024727 -0.050754268 0.10636946 0.08054155
0000b0 be e9 c0 3d da 86 ff bd fc 02 56 3c f5 68 56 bd
       0.09419583 -0.12476893 0.013062235 -0.05234619
0000c0 81 c4 59 3d 4f b6 90 bd bb a2 a8 bc 2f 11 af bd
       0.053165916 -0.070660226 -0.020585408 -0.085481994
0000d0 62 71 93 bb 52 e8 0e bd 99 32 9c bd 48 3a 2c bd
       -0.0044996003 -0.034889527 -0.07626838 -0.04204777
0000e0 06 4b de 3d 23 ab 5e bd ee 78 67 3e a2 41 6e 3d
       0.10854153 -0.054362427 0.22604725 0.05816806
0000f0 b2 7b 9d be e3 55 9e ba 24 b4 4e 3c 49 22 78 3d
       -0.30758435 -0.001208004 0.012616191 0.060579572
000100 87 a4 4f bc ac 2e 40 bd 99 db 94 3d e4 dd c5 bd
       -0.012673504 -0.04691951 0.072684474 -0.09661463
000110 2a c4 14 3d 52 8d 4f 3d 2c 06 11 3e ff 67 03 3b
       0.03631989 0.050671883 0.1416251 0.0020051
000120 36 27 9e 3d 4f 9f e7 3d d6 83 9a 3d 4c 33 8e 3c
       0.07722323 0.113096826 0.07544677 0.017358445
000130 60 7c 3e 3c bb 14 f2 3d ce 63 a1 bd 18 23 f4 bd
       0.011626333 0.1182036 -0.07880364 -0.11920756
000140 a8 71 c1 3a a7 e4 91 be 69 40 55 3c de 1c bc bd
       0.0014758604 -0.2849476 0.013015845 -0.091851935
000150 53 a0 c8 3d 34 ed 9f bc 69 bb 89 bd d1 6e e0 bd
       0.097962044 -0.019522287 -0.06725199 -0.109586366
000160 00 3f d3 3c 3d fe b4 3d 85 f4 0c be bb ef 63 3c
       0.025786877 0.088375546 -0.13765152 0.013912137
000170 2d fc 62 3c 4c 52 c3 3d 68 71 bf bc 8d f7 5f 3d
       0.013854069 0.09537181 -0.023369506 0.054679442
000180 83 1a 1e 3d dc 88 f4 3d 04 90 84 bc 7e 0d 15 3d
       0.038599502 0.11940166 -0.016181953 0.03638982
000190 31 f8 d4 bc 7a 96 67 bc 41 83 74 bc 4d 25 29 be
       -0.025997253 -0.0141349975 -0.0149238715 -0.16518135
0001a0 d0 40 5d bd 58 cf 73 bd e2 56 bd 3c 35 51 06 be
       -0.05401689 -0.05952391 0.023112718 -0.13116916
0001b0 4b bb 53 3d ba 87 0a 3d 42 d2 07 3e c8 cd 7e 3b
       0.05169229 0.033820845 0.132638 0.003887998
0001c0 e7 d4 7e bd 16 de b8 bd 95 a8 3e 3d e9 9e 68 bd
       -0.06221476 -0.090267345 0.04654749 -0.056792174
0001d0 c3 d9 e5 bb 3a 59 1a 3e b4 bf 90 3d a9 0e 4e bc
       -0.0070144846 0.150731 0.070678145 -0.012576737
0001e0 ca 93 c8 bd 55 12 7b 3d cd e5 64 3c 6f 36 41 3c
       -0.097938135 0.06129678 0.013970804 0.011792763
0001f0 f8 cd 3c 3c 65 91 0a be 54 d5 c9 bc 6d ed a7 3d
       0.011523716 -0.13532026 -0.024637856 0.08199582

model.fc5.bias f4 [2]
000000 ad af 9b bd 87 53 09 3c
       -0.07601867 0.008381731
