Assignment-2/models/moon_test_conditional.pth (torch, 139015 bytes, 11 tensors)

class_embed.weight f4 [2, 2]
00000000: f92f 7f3d d1a1 083f cdd4 ab3d a790 9fbf
0.06230161 0.5337191 0.08390198 -1.2466019

model.fc1.weight f4 [64, 6]
00000000: 0067 9f3d 628c b63e b6ff 293e ed21 7fbe
00000010: ae3c b5bd 65d9 7c3e bc42 8d3e bce0 de3e
00000020: f6f7 8f3d fdd6 8c3d 9ed8 06be 7f67 233e
00000030: 0d34 f03e 69ea 8f3e 7c4e 83be a658 273b
00000040: 6f98 82be 18d6 703d 380e f23d 5200 af3d
00000050: 6280 963a a662 d1bd ba19 3ebe 0f9d d8bb
00000060: 5d8a 2abe 91f4 79be 93f1 d23d f364 8ebe
00000070: 97bc 1ebe b15c 2ebe e49f 8d3e 8f80 edbd
00000080: 60e6 263e ca76 353e aae2 47be e360 99bd
00000090: c44f 41be 8e1e 35bf 3e6d e93c 6bfc 0a3e
000000a0: b438 d23c d5a3 40bc 6674 5dbe 00c7 08bf
000000b0: 387d 993e 5436 14be 87d5 24be 809b 0e3e
000000c0: 61b9 d43e 06fc 8c3e 72a1 81be 1fba d33e
000000d0: 1593 97bd 5f30 e23d 5318 963e 530f ea3e
000000e0: 480d 2ebe aff8 d3bd d988 60be 747c 4cbd
000000f0: 7eff 47be 942d f7bd 8a4f e0be 500f 0bbe
00000100: 32fd 1d3e c916 f0bd 8fa1 ed3e 909c 1f3e
00000110: 526e 953e 91bf dabd d454 333e 5349 7cbe
00000120: 91d3 80be 8794 cf3e 9bc6 c73b adc0 16be
00000130: 1378 853e ae8f 86be 38bb fb3e da89 413e
00000140: bb52 ea3e 47d8 9e3e 13d0 f53d 7e4d 76bd
00000150: 2875 e6be 0e60 cdbe e911 49be e506 2f3e
00000160: 5f49 ea3c ba84 9f3c f1fb 8a3e 24ca cf3e
00000170: 0c87 bcbe 2b18 cbbd ceef b93d 0062 833e
00000180: 9f5b 16bf 567f b53c de0c 92be 586c e9be
00000190: cb25 4b3a 5522 d6bb 0df4 3cbe be44 96be
000001a0: 8b69 713e 579b d53e 6500 ddbd 320d 3c3e
000001b0: 5073 87be 58e7 a6be 0764 24be d351 133e
000001c0: d907 92be a165 08be 1fd7 c53e 01ed 043f
000001d0: f7fd 86be ca65 9bbe 2b4d 523e 4912 b63d
000001e0: 716d 183e 3f1a 5e3e 6727 9e3e 698f 8b3c
000001f0: 3d0d adbd 5873 bf3c e6d5 85bd b7e1 acbe
00000200: a46f 513d 3f1a 9a3d 1319 6b3d b045 42be
00000210: 201d 093c 6910 5abe 92c9 9ebe 355e 823e
00000220: 687c a0be a5d5 a43e 666a b9be e783 ca3e
00000230: 06d0 a5be 0cf8 88bd f84e cfbd 68e4 6a3c
00000240: e48f 6abe 97ce a53e 6d57 87be 092a 57be
00000250: 7d81 dc3d f12f 993d f614 38bf 66a9 97bc
00000260: 7c2b f33d bde8 f03d b5d9 083d dda5 87bc
00000270: 88c1 8d3e ba51 eebe 8455 c13d 96ff 1d3d
00000280: 3965 5b3e 92a9 63be 23a7 8dbe f44a a03e
00000290: 83d4 b03d f898 e9bd bf8d bbbd 3e32 53be
000002a0: 6b92 103f ad6e fcbc 762c 9dbe 8203 1fbe
000002b0: 1fd9 143e 0a5f 0ebd 83f7 ddbc c9aa ddbe
000002c0: e726 14be 220f ea3d d3fb a83d 909e 8f3e
000002d0: 79d2 e13e 1f25 01be a43b 473d 5be8 593d
000002e0: 67e4 31be 5103 8a3d 4c63 0e3f 9839 293f
000002f0: 96e9 f4bd 7103 3c3e c410 9f3c b06e f73d
00000300: 7d4b 15be 1038 033f ab18 233e dad6 9f3c
00000310: 31fd 30be 6a29 173e d06a bfbe 7085 4ebe
00000320: 6581 fd3d e5bd 0c3e 2469 8bbd c276 553e
00000330: 52a0 84be 4969 053f f72f 063e 9175 2fbe
00000340: 67d4 26bd 3b68 04be 4a91 f03e 2ed7 96be
00000350: cca9 d73a 28c6 4d3e f47a 803e fb76 d1bd
00000360: d355 f23e b0d8 fe3e f4e4 703e 7541 cfbe
00000370: 8f8b b23c c03f e53c c010 00bf 3597 dbbe
00000380: 6049 033e 9a3e f7bd 46b4 853d 93bf 39be
00000390: d787 05bf fb36 3f3e ca95 03be 9087 dbbe
000003a0: 463a cc3d 74d4 c33c 839d f5be 45f3 0abe
000003b0: db6e 8e3e 0a2c 98bc 197d 3c3e 2b50 0f3e
000003c0: ec93 053f f465 06be 553c 3f3e 84e0 503e
000003d0: 0b21 80be 16e8 8dbe 6510 2ebe 89f3 8cbe
000003e0: 7aa2 bb3b 869f 523e 234c 78be e8ba 8ebd
000003f0: dc69 36bf 8123 113f 29d0 d23e 11e1 b9be
0.077833176 0.3565398 0.16601452 -0.24915285 -0.08849464 0.24692304 0.27589977 0.43530834
0.07029717 0.06876943 -0.1316857 0.1595745 0.46914712 0.28108528 -0.25645816 0.0025535016
-0.25506923 0.058797926 0.11819118 0.08544983 0.0011482353 -0.10223894 -0.18564501 -0.0066105197
-0.16654344 -0.24409701 0.10299983 -0.27811393 -0.15501629 -0.17027546 0.2766105 -0.11596786
0.16298819 0.17721096 -0.19520059 -0.07489183 -0.18878084 -0.7074975 0.028494474 0.13572852
0.025661804 -0.011757811 -0.21626434 -0.5342865 0.29978347 -0.1447385 -0.16097079 0.13926506
0.41547683 0.2753603 -0.25318485 0.41352937 -0.074011005 0.11044382 0.29315433 0.45714816
-0.16997254 -0.10350167 -0.21927203 -0.049923375 -0.19531056 -0.1206924 -0.43810683 -0.1358006
0.15428618 -0.11723096 0.46412322 0.15587068 0.2918573 -0.1068107 0.17512828 -0.24637346
-0.25161412 0.40543005 0.0060966737 -0.14721937 0.26068172 -0.26281494 0.49166274 0.18900242
0.45766243 0.31024382 0.12002578 -0.060132496 -0.45011258 -0.40112346 -0.19635738 0.17092474
0.02859944 0.019472469 0.2714534 0.4058391 -0.36821783 -0.09916719 0.09078942 0.25660706
-0.5873355 0.022155445 -0.28525442 -0.45590472 0.0007749467 -0.0065348544 -0.18452473 -0.2934932
0.23575418 0.41720077 -0.10791091 0.18364409 -0.26455164 -0.32598376 -0.16053782 0.14386682
-0.28521612 -0.13320018 0.38640687 0.5192414 -0.26365635 -0.30351096 0.2053725 0.08890206
0.14885499 0.216897 0.30889437 0.017036157 -0.084497906 0.02337043 -0.065349385 -0.33765957
0.05113186 0.07524537 0.05739696 -0.18971896 0.00836876 -0.21295322 -0.3101316 0.254625
-0.31344914 0.32194248 -0.36213988 0.39553759 -0.32385272 -0.06687936 -0.10122484 0.014336683
-0.22906452 0.32384178 -0.26433888 -0.21012129 0.107668854 0.07479847 -0.71906984 -0.018513393
0.11873528 0.11763141 0.033410747 -0.016558582 0.27686715 -0.46546727 0.09440139 0.038573824
0.21425332 -0.22232655 -0.27666578 0.31307185 0.086342834 -0.114061296 -0.09157895 -0.20624635
0.56473416 -0.030814493 -0.30697984 -0.15528682 0.1453595 -0.034758605 -0.027095562 -0.4329436
-0.14467965 0.114286676 0.08251157 0.2805066 0.4410589 -0.12611817 0.048640862 0.053200107
-0.17372285 0.06738914 0.55620265 0.66103506 -0.119586155 0.18360688 0.019417174 0.12081659
-0.14579578 0.5125742 0.15927379 0.019511629 -0.17284085 0.14761892 -0.3738618 -0.2016809
0.12378196 0.13744314 -0.06807163 0.20846084 -0.25903565 0.5211378 0.13104235 -0.17134692
-0.040729906 -0.12930386 0.46985847 -0.29461044 0.0016453802 0.20095122 0.25093806 -0.10227772
0.47331104 0.49774694 0.23524839 -0.40479627 0.021795062 0.0279845 -0.5002556 -0.428888
0.12820959 -0.12072487 0.06528525 -0.18139486 -0.521604 0.18673317 -0.12850109 -0.42876863
0.09972052 0.023905016 -0.47971734 -0.13569362 0.2781895 -0.018575687 0.18407096 0.13995425
0.52178836 -0.1312483 0.18675359 0.20398146 -0.2502521 -0.2771613 -0.16998442 -0.27529553
0.005726156 0.20568666 -0.24247794 -0.06969243 -0.7125528 0.566948 0.4117444 -0.36304525

model.fc1.bias f4 [64]
00000000: a7d6 54be 39ca debd 8862 77be 0c56 e7be
00000010: a66a 7b3e 9b8d 453c 978b 0ebe 79fe 87be
00000020: 3092 d53e 72ba 8f3d c4b0 38bd 868a a4be
00000030: c201 d03c 0bf9 f93e ce4e 923e da2a d13c
00000040: fb9a 7a3d c908 e73d cff7 96be 9fcf 973e
00000050: dae9 833e f466 1b3e 00e2 30be 0889 41bd
00000060: 25a2 5c3e d30b 233e 321f 2bbe f9fa a83d
00000070: d1ba f23d 8abe ee3d 7b46 a53e 921e 88be
00000080: 699f 13be 6986 07be 5a82 4dbe 01cd a53e
00000090: 638d c4bd ab15 7cbd c3b6 e53d 916a 783d
000000a0: 82a5 c1be e297 fbbd fa12 94be d71e c2be
000000b0: 3b7c bdbe f43f 8b3e 9f98 233e 016c cebd
000000c0: 9066 853e 21d1 433e 0a55 7b3e 30c1 12be
000000d0: b133 cfbe 82e0 253d d94e 8fbd 9239 583e
000000e0: 2d00 083e 7517 02bf fff8 993e 1d92 4ebe
000000f0: 1536 bdbe 8512 843d 781e 05bd 4096 103d
-0.20785008 -0.10878415 -0.2415868 -0.45182836 0.24552402 0.012057687 -0.13920437 -0.26561335
0.41713095 0.070179835 -0.04509045 -0.32136935 0.025391463 0.48822817 0.28575748 0.025533129
0.061182957 0.112809725 -0.29485938 0.2965059 0.25764352 0.15175992 -0.17273712 -0.047249824
0.21546228 0.1592248 -0.16711119 0.08250994 0.11852039 0.11657436 0.32280335 -0.26585823
-0.14416279 -0.13234867 -0.20069256 0.32382968 -0.0959728 -0.0615441 0.112165 0.060648505
-0.37821585 -0.12284829 -0.28920728 -0.37914154 -0.37008843 0.2719723 0.15976189 -0.10079194
0.2605481 0.19122745 0.24544159 -0.14331508 -0.40469125 0.04049731 -0.06997461 0.21115711
0.13281317 -0.5081704 0.3007278 -0.20172925 -0.36955324 0.06448845 -0.03249976 0.03529954

model.fc2.weight f4 [128, 64]
00000000: ce79 e63d 1ecf 053d 9748 a7ba baca 16be
00000010: a564 d53d ee1f c4be 76eb 83be ac31 8cbd
00000020: 2806 0dbe 03f1 e8bd 3158 ffbb f725 15bc
00000030: da41 193e c514 1abe 9c77 82be b1a8 9abd
00000040: 70c3 6e3d c67f 24be 29e6 03be 1421 093e
00000050: 25dc 9c3d 2c4a 8cbc cc11 cdbd 20cd 033e
00000060: 11f5 ee3d 58f4 0bbe 29a6 ffbd 775e 1dbd
00000070: d31b df3c 81a3 853d e51f a1bd bfc1 cebd
00000080: e351 c4bc 2259 c73d 984a 64bd 3e94 a13d
00000090: 5d5d e5ba 3897 fabd 7cac c93c 2d5d a5bd
000000a0: d60e 39be 895e 1f3d 9483 1bbd 4038 7cbe
000000b0: 0007 bc3c b205 583e 134f 223d 70f1 ccbd
000000c0: 338c 8bbe f7b1 a2be 52a1 71bd 5057 ae3d
000000d0: 96ce 913d 68e0 86bd 5a6e cabe 88dc 25be
000000e0: ba9f a03c 0d67 2b3e f58a 973d 29a9 dcbd
000000f0: ae4a 9abd e871 353c 35d6 d4bc 6b20 8c3d
00000100: 9367 51bb 59a3 36bd 6b33 d8bd 834d aabd
00000110: 5ffe 76bd 1818 c6bc 1963 afbc 25f8 9bbd
00000120: 3200 10be 7f65 523b 1fdc 803d 28d3 15be
00000130: df01 7fbd ef96 a03d a942 a33d 4459 62bd
00000140: f769 07bd aeef d4bd 0140 32bd cfe0 943c
00000150: 8c59 c6bd 3406 0dbd 9871 6ebd 41db 463d
00000160: 77f4 193c 9dd1 35bc 5b96 c8bc d59d bfbd
00000170: b9db ce3d 3c85 f4bb 1e31 debd c6ca 183c
00000180: 995b 65bd ad6b c8bd d864 663d 18f3 9fbd
00000190: c83e 85bd c206 b33d 4a8c 62bd 8a4f 903c
000001a0: cb81 4cbd 6091 f13c e4f5 d1bb f1ec 02be
000001b0: f8c8 58bd 95dd d0bc 2d4a 22be e2d9 133d
000001c0: 9898 15be e978 dc3d 6aab 05bd 9814 b53d
000001d0: dcfd c03d ab4e fabd df94 ddbd c552 b0bd
000001e0: 254b e73b 0f2a 8bbd 67f4 d9bd 6e62 e2bd
000001f0: adec 9f3d 38dc 09bc c4eb 853d a000 233c
00000200: 5c08 dfbc ed4e 3dbe 1806 d0bd 2e43 34bd
00000210: 4d3c 1ebe 1a4e c83d 3cbb 433c 6acc 3abd
00000220: 7cfe ebbc 29a7 d8bb a476 fbbd 7ad1 a3bd
00000230: e2fd ccbd 51ad 853c e322 9e3d 5c6e f3bd
00000240: 9a84 f0bb 7fc1 d73b 64ff 90bc 0a68 b3bc
00000250: 5e03 ecbd 4a11 dc3d 23c6 d8bd bff5 4b3c
00000260: 37d2 84bc 1c50 9ebd 9daf 4abc bf0f 13bd
00000270: 3759 44bd bb62 0a3d fc27 bf3d 91c1 96bd
00000280: e11e 1fbd 54ed 1bbd 6f21 063e 0b76 d5bc
00000290: d409 27be 38fb 73bd bb13 53bd 0dce 1dbe
000002a0: 0096 18bb 77fc 6c3b 1731 36be bd78 043e
000002b0: 5a65 8d3d c17a 403d e259 05be acba 99bd
000002c0: 3530 033e df84 eb3d d817 a33d 0aa8 90bd
000002d0: bcce 3dbe 8c77 0e3e ab96 813d 0dcf 193d
000002e0: 4dd6 233d 7cb1 90bd 5c62 1bbe ff54 9fbd
000002f0: 35d1 cbbc 865e c3bd 57c7 373e c362 cfbb
00000300: 910e 74be 75af 90bc 44ad 47be 7598 42be
00000310: 90a9 eebd 7dd4 953c 2acb 86bd 038f c7bd
00000320: 8971 b53d bd1d fcbd 7b54 823d efff dabd
00000330: cd50 22be ed38 e23d 1b10 58bd bd77 27be
00000340: b942 06be 9c82 c33d 51ea d6bd a9d8 28be
00000350: 2fd2 82bc f16b 40bd 9708 b5bc 1960 62be
00000360: d011 3b3b b74f 1fbd 69fb 8abd 64aa a6bd
00000370: af8b c5bd c4a0 923d 99e3 5bbd cdfa 53be
00000380: 8a2d 58be d152 01bd faa9 3abb 287c 063e
00000390: 414f 3dbe b5b4 cebd c37f fbbc b90a 043d
000003a0: 2aa1 f3bd bc6a 8a3d 97fb bebe d3da 01bd
000003b0: 3227 72bd c210 013d 81c5 bcbd f6fb 57be
000003c0: 0c8c 183e 24bf 3a3e 002a 033e d073 01be
000003d0: 0829 eebd 94e8 153e 735a 70be 07fa 77bd
000003e0: beda 8e3c 48c2 1b3d c786 12be 571f 973b
000003f0: a20c 2cbe 4007 dfbd 4934 6e3c 475c 593d
0.11253701 0.032668225 -0.0012762722 -0.14725772 0.10419587 -0.3830561 -0.2576558 -0.06845412
-0.1377188 -0.11374094 -0.0077924957 -0.00910329 0.14966527 -0.15046985 -0.2548188 -0.075517066
0.058291852 -0.16064367 -0.12880768 0.13391525 0.07659177 -0.017125212 -0.1001316 0.12871218
0.116678365 -0.13667428 -0.124828644 -0.038420167 0.027234947 0.065253265 -0.078674115 -0.10095548
-0.023964828 0.097337976 -0.0557352 0.07889603 -0.0017499138 -0.12235874 0.02461838 -0.080744125
-0.18072066 0.038908515 -0.03796728 -0.24630833 0.022952557 0.21095923 0.039626192 -0.10006988
-0.272554 -0.317764 -0.058991738 0.08512747 0.07119481 -0.06585771 -0.39537317 -0.16197407
0.019607414 0.1673853 0.07399551 -0.10774452 -0.07533775 0.011074521 -0.025981048 0.06842121
-0.0031952604 -0.044589374 -0.10556682 -0.083155654 -0.06030118 -0.02418141 -0.021409558 -0.07615689
-0.14062575 0.0032103953 0.06291985 -0.14631331 -0.062257644 0.07841288 0.07971699 -0.05526091
-0.03306004 -0.10397278 -0.04351807 0.018173603 -0.096850485 -0.034429744 -0.0582138 0.04854894
0.009396664 -0.011097339 -0.024485758 -0.09356276 0.101005025 -0.007462172 -0.10849212 0.009325689
-0.055995557 -0.097861625 0.056248516 -0.07810038 -0.06506115 0.08741523 -0.05530957 0.017616052
-0.049928468 0.029488266 -0.0064074863 -0.12785698 -0.052926034 -0.025496284 -0.15848608 0.03609646
-0.14608991 0.10765249 -0.032634176 0.088418186 0.0942342 -0.12222036 -0.108194105 -0.08609537
0.0070585185 -0.067951314 -0.10642319 -0.1105393 0.07808814 -0.008414321 0.06539109 0.0099488795
-0.027225666 -0.18487139 -0.10157412 -0.04400938 -0.1545269 0.09780522 0.011946496 -0.0456051
-0.028807871 -0.006611724 -0.12278488 -0.07998939 -0.10009362 0.016317995 0.07721498 -0.11886284
-0.007340026 0.006584346 -0.017699905 -0.021900196 -0.1152408 0.10745485 -0.105846666 0.012448727
-0.01621352 -0.077301234 -0.012370971 -0.03590369 -0.047936644 0.033785563 0.09333798 -0.073611386
-0.038847808 -0.03806813 0.13098691 -0.026057264 -0.16312343 -0.059565753 -0.05153249 -0.15410633
-0.0023282766 0.0036161223 -0.17792164 0.12936683 0.06904097 0.046992067 -0.13022569 -0.07506308
0.12811358 0.114999525 0.07963532 -0.07063301 -0.18535894 0.13912791 0.06327566 0.037550975
0.039999295 -0.070651025 -0.1517424 -0.077798836 -0.024880031 -0.09539513 0.17947136 -0.006328912
-0.23833682 -0.01766179 -0.1949969 -0.1900347 -0.11653435 0.018289799 -0.06581719 -0.09744074
0.08859546 -0.123103596 0.063637696 -0.10693347 -0.15851136 0.11046014 -0.052749734 -0.1635427
-0.1311139 0.09546396 -0.10493911 -0.164889 -0.015969364 -0.04697794 -0.022098823 -0.22106971
0.0028544553 -0.03889438 -0.06786234 -0.08137968 -0.09645783 0.0715957 -0.05368385 -0.20701142
-0.21111122 -0.03157312 -0.0028482662 0.131333 -0.18487264 -0.10093061 -0.03070057 0.03223679
-0.11895974 0.06758639 -0.37301323 -0.031702828 -0.05911941 0.031510122 -0.092173584 -0.21092209
0.14897174 0.18236977 0.1280899 -0.12641835 -0.1162892 0.14639503 -0.23472004 -0.06054118
0.017438289 0.038027078 -0.14309226 0.0046118903 -0.16801694 -0.10890055 0.014538833 0.05306652

model.fc2.bias f4 [128]
00000000: 21a7 e8bd 800f dc3b 46c7 8abd 74ca e33d
00000010: 5172 d0bc 3820 9bbd b903 c03d 57f2 60bd
00000020: d06c 1abe e211 e0ba 7854 213e aaf4 2fbd
00000030: f47f 263d a644 58be d239 64bd b4c3 72bc
00000040: 2a82 b53d 44af 803d 4534 f8bd a256 b0bd
00000050: a171 12be 1fd9 05bd 04f0 72bd 811b 69bd
00000060: 966c c2bd 9926 08be 95ce 2ebe 0d7a 80bd
00000070: 5259 c93d 8543 b73c bd8a 92bd 3933 c3bd
00000080: 6ffc bebd 6e5e 00be c383 9e3c 4b9f c53d
00000090: 8072 58bb 19ba 4fbd eeaf c83d 848f 01be
000000a0: e3c7 093b 8a9f 90bd 4552 293d 789e d7bd
000000b0: b2b2 adbd c389 4bbe e421 dc3d e70b 023d
000000c0: b982 acbd abfb 6bbc f074 03be 0aab 72bd
000000d0: c102 05be 29d0 ebbd 886c 883d b0da 0fbe
000000e0: dd4c 1abe d718 ac3c ad71 26be 4a88 11bc
000000f0: 4664 31be 99be afbd c08f 523d f149 38be
00000100: 81ce 8c3d 79ac 36be 6810 46be fdff 49be
00000110: f429 e13d bc67 3abe 126d b6bb 35a8 ab3d
00000120: c6bb 163d 5034 adbd ced4 1ebd 7f0d b6bd
00000130: a764 adbd a586 0fbe c129 803d c4d2 98bd
00000140: 8ef3 13be 17af ce3c 40e6 88bd 465e 3ebd
00000150: bec0 3dbe a698 07bc 6ad5 5f3d ca5a 97bd
00000160: 8aba 513d 2a50 a8bc 32d3 afbd 7fa2 5e3e
00000170: 097e 05be 79bb 5ebc 40a8 9d3b a351 a0bd
00000180: 298c a13d 7db8 d03d d87b 7c3d 337d 01bd
00000190: 4a7d a63d a027 87b9 efa1 40be ddc5 ae3b
000001a0: d114 d4bd 8e33 b6bd 5237 27be 3696 7abd
000001b0: 2329 a03c d473 703d be40 14be 89e5 0abd
000001c0: 966f c23d b2c8 ecbd b036 d8bd 3d19 1b3d
000001d0: f8ff 33be 97ae 00be 2b05 dd3c ca8b 28be
000001e0: a21b ffbd 6340 da3d 732f 663d 3dda 5ebd
000001f0: 61ea 4abc a398 fabd 80af e43c aa10 dabc
-0.11360002 0.006715715 -0.0677629 0.11122599 -0.025445135 -0.075745046 0.0937571 -0.054918613
-0.15080571 -0.0017095173 0.15754879 -0.04295794 0.04064937 -0.21119937 -0.055719204 -0.014817167
0.088627174 0.06283429 -0.121193446 -0.08610274 -0.14301158 -0.032677766 -0.059310928 -0.056910995
-0.094933674 -0.13295974 -0.17070992 -0.06273279 0.098314896 0.022371063 -0.071553685 -0.09531254
-0.09325492 -0.12536022 0.019349938 0.09649523 -0.0033027232 -0.050714586 0.09799181 -0.12652403
0.0021023683 -0.0706168 0.041338224 -0.105282724 -0.08481349 -0.1987677 0.107486516 0.031749632
-0.08423371 -0.014403264 -0.12837577 -0.059245147 -0.12989332 -0.11514313 0.06661326 -0.14048266
-0.15068384 0.021007938 -0.16254301 -0.0088825915 -0.17323408 -0.085812755 0.051406622 -0.17996956
0.06875325 -0.1783923 -0.19342196 -0.19726558 0.1099433 -0.18203634 -0.0055672014 0.08381692
0.03680017 -0.084572434 -0.038777165 -0.08889293 -0.084664635 -0.14016207 0.06257964 -0.07462075
-0.14448377 0.025229974 -0.06684542 -0.046476625 -0.18530557 -0.00827614 0.054646887 -0.073903635
0.05120329 -0.020546038 -0.08585204 0.21741675 -0.1303636 -0.013594502 0.0048113167 -0.07828071
0.078880616 0.10191438 0.061641544 -0.03161354 0.08129366 -0.0002577873 -0.18811773 0.0053336457
-0.10355533 -0.08896552 -0.16329697 -0.06117841 0.019550866 0.058704212 -0.14477822 -0.033910308
0.094939396 -0.11561717 -0.10557306 0.037865866 -0.17578113 -0.125666 0.026980003 -0.16459575
-0.124564424 0.10656812 0.056197595 -0.054407347 -0.012384982 -0.122361444 0.027915716 -0.026619274

model.fc3.weight f4 [128, 128]
00000000: d47f 913d c0d6 533d 6589 04be 9a00 eebd
00000010: 8212 e13c 267e a13c ef32 c83d 2fb8 d2bd
00000020: eb50 313d 02b1 07bd 2785 15be 46e9 3ebd
00000030: 53b4 67be b1c7 e03d e190 623c 7cf9 f3bd
00000040: 9b72 6bbe af2c 6dbd 83db 3fbd 658d 2b3d
00000050: 5112 6fbd 2c90 adbd 3e87 e53a 166a 3f3d
00000060: 9034 e83c 3be4 04bd 5e5e ee3c 93e7 ef3d
00000070: c3af 20be 3729 ff3d a0f0 06bd 92e3 b7bc
00000080: 75cd 873e 9e44 5a3e b554 e9bd 7809 adbd
00000090: be07 29bd fc7e 39be 4eea d3bd 179a f4bd
000000a0: 8624 9bbd d11d c0bd b4a4 df3d a328 9fbd
000000b0: dc35 1d3d fb41 1f3d 233d 01be c161 a0bd
000000c0: a11c 893e 3187 ec3d 1d67 d5bc 1b39 84bd
000000d0: 575f 36bd a341 3cbe 3987 bdbd 6203 aa3c
000000e0: 5515 a43d fe84 a73c fd88 e9bd 1a83 eebd
000000f0: ae78 dfbc 88cc db3c 5104 b23d 7997 f0bd
00000100: 18f1 e7bd 5445 6dbb 55e1 e53c 0cac 6dbc
00000110: ef97 94be 4001 ba3e e0bd c4bc 2c2c 5dba
00000120: 97a8 923d d060 123d 3fce b7bd acb5 993e
00000130: 8349 4b3c 868b 843c b52d ba3d ce37 553d
00000140: a803 9cbc 8a2c 873c f6ab f43d 72b6 17bd
00000150: b2d0 debd 70cd 983b e1e9 d8bd a2c4 663e
00000160: 0186 ae3d e9c9 65bd b822 52bd 2ed3 99be
00000170: f0ab 60bd 1a40 01be 4531 9a3d c799 5ebd
00000180: fe57 443d 9117 25be b6b0 50bd 457e c8bd
00000190: c91f 50bd 1442 08be 19eb 683d 74ab a33d
000001a0: 3a4d 91bd 9499 8c3d bfda 183d 4f77 efbc
000001b0: 1eb1 2abc 4a8b 763c 97a2 a9bc 94aa 4a3e
000001c0: 088b d13d e509 8ebd 4a54 12bd d3d7 c53c
000001d0: 775c babd a1fa a03e 5dc5 a23d d321 603e
000001e0: adfc 03bc 03c5 363d dbbe d03d d9c4 a13d
000001f0: f1be 99bd 995f a1bd b27b 7cbd c3bb 7d3c
00000200: 4e76 92bd c0dc e5ba 20b2 eebb c768 b0bd
00000210: fbfd cfbc 3784 983c ff85 9abd acae f03c
00000220: 7772 f23c 7cb8 2e3d 9c27 95bc b279 b8bd
00000230: 0040 eb38 7888 053c d44e 8fbc c8d1 a9bd
00000240: aca6 c03c a4ed bbbc 23da 78bd bc57 593d
00000250: 08ac ccbd 6106 afbd ce3e 79bd fa65 4b3d
00000260: 2999 b3bd c518 a1bd 46c7 b5bd 42a1 e9bc
00000270: 7e88 27bd 4298 bfbd b374 2ebd bb02 61bd
00000280: 9d8d 94bd b078 77bc 80ac d73b a5f2 75bd
00000290: 52b9 483d 9cc4 a1bc 2bfb 47bd e737 18bd
000002a0: cd46 d8bd 8818 9fbd b644 84bc c894 46bc
000002b0: 2012 33bc ea27 813d 233c b3bd e0b2 9c3c
000002c0: 01dc 553d f105 9c3c 3192 59bd f868 92bc
000002d0: 0cf2 fd3c f82a 96bc f472 f8bc 001c ac38
000002e0: d788 0d3d a4f6 cabc e589 773c 94b2 a7bd
000002f0: f384 65bd 0eca 693d 78b2 72bc c62d 57bd
00000300: c968 37bd 0026 7ebc 4012 c73b 7ccd d73c
00000310: 34a7 d73c 628d 61bd 0676 0b3d dc63 c53c
00000320: 3cf1 abbd 4872 b5bc 71a8 3ebd 91f0 3cbb
00000330: 8d26 fd3a 5cf2 033d 9ba6 293d b661 ddbd
00000340: 9ba3 173d 2035 433c 8eef 683d 403e 96bb
00000350: 2f84 9d3c 9dbe 8b3c 3876 773d d4a4 083d
00000360: 2e8a 6b3d f8a3 8a3c f0ef 0fbc 80dc b23c
00000370: 34c3 953c 5de9 b5bd 0e71 c6bd d759 80bd
00000380: 7288 b5b9 d57c cebd 0e0e 583d a18a e13c
00000390: 8678 f43b a707 01bd 907c 3cbd 2d1a 9abc
000003a0: 903a ddbb 2a71 64bd 675a a43d 196d 273c
000003b0: 15c8 f03c 8414 a7bc 4e3e 78bd 5956 19bd
000003c0: 6b3e 873d 74ec 5abd 5a33 273d 4951 d4bd
000003d0: 646b 85bd 7495 6d3d 24c4 84bc 974e 833c
000003e0: 9f3f a3bd f4f2 ff3c c27e 77bd d8f8 7fbd
000003f0: 1059 c4bc 96f8 6c3d ea60 62bd 26ec 633d
0.071044594 0.051718473 -0.12943037 -0.116212085 0.027474646 0.019713473 0.0977534 -0.102890365
0.04329006 -0.033127792 -0.14601575 -0.046609186 -0.22627382 0.10975588 0.013828487 -0.1191282
-0.22992937 -0.05790394 -0.046840202 0.04188289 -0.058367077 -0.08474764 0.0017511619 0.04673203
0.028345376 -0.03244422 0.029097732 0.11714091 -0.15692048 0.12459033 -0.03294432 -0.022447381
0.2652394 0.21315238 -0.1139311 -0.08449072 -0.04126715 -0.18114847 -0.103474244 -0.11943453
-0.07575326 -0.09380687 0.109200865 -0.07771423 0.038381442 0.038881283 -0.12620978 -0.07831145
0.26779655 0.11549223 -0.026050145 -0.064562045 -0.044524517 -0.18384413 -0.09254307 0.020753566
0.08011881 0.020449158 -0.114030816 -0.116460994 -0.027279224 0.026830927 0.086922295 -0.11747641
-0.11325282 -0.0036204653 0.028061548 -0.014506351 -0.29022166 0.3632908 -0.02401632 -0.0008437063
0.07161062 0.03573686 -0.08974885 0.30021417 0.012407663 0.016179811 0.09090749 0.052055173
-0.019044712 0.01650073 0.119468614 -0.037039228 -0.10879649 0.004663162 -0.10591484 0.22535947
0.08521653 -0.05610076 -0.05130264 -0.3004393 -0.054851472 -0.12622109 0.07528929 -0.054345872
0.04793548 -0.16122271 -0.050949775 -0.09789709 -0.050811563 -0.13306457 0.05686483 0.079916865
-0.07094808 0.0686523 0.037317988 -0.029231695 -0.010418205 0.015047858 -0.020707412 0.19791633
0.10231596 -0.06935481 -0.035724916 0.024150765 -0.090996675 0.31441215 0.079478 0.21887903
-0.008055848 0.04462148 0.10192653 0.07898874 -0.07507122 -0.07879562 -0.061641403 0.01548666
-0.07151471 -0.0017537102 -0.0072844177 -0.08613735 -0.025389662 0.018617732 -0.07545089 0.029380165
0.029595597 0.042656407 -0.018207364 -0.090075865 0.00011217594 0.0081502125 -0.017493643 -0.08291966
0.023516975 -0.022940464 -0.060754906 0.053062186 -0.0999375 -0.085461386 -0.06085091 0.0496578
-0.08769447 -0.078660525 -0.08875899 -0.028519277 -0.040901653 -0.09355213 -0.04259176 -0.054934245
-0.07253573 -0.015104458 0.006581843 -0.060045857 0.04900486 -0.019747071 -0.048823517 -0.037162688
-0.10560379 -0.07768351 -0.016146045 -0.012120433 -0.010929614 0.06306441 -0.087517045 0.019128263
0.052211765 0.019045802 -0.053117935 -0.017872319 0.030999206 -0.018331036 -0.030328251 8.2068145e-05
0.03455433 -0.02477581 0.01510856 -0.08188358 -0.056034993 0.05707746 -0.014813058 -0.052533887
-0.044777665 -0.01551199 0.0060751736 0.0263431 0.026324846 -0.055066474 0.034048103 0.024095468
-0.08395621 -0.02214922 -0.046547357 -0.0028829912 0.0019313857 0.032213554 0.041418653 -0.108096525
0.03702126 0.011914521 0.056869082 -0.0045850575 0.01922807 0.017058665 0.060415477 0.033360317
0.057504825 0.01692389 -0.008785233 0.021833658 0.018281557 -0.08882401 -0.09689532 -0.062671356
-0.0003462467 -0.100824036 0.05274778 0.027531924 0.0074606566 -0.03150144 -0.04601723 -0.01881131
-0.006751366 -0.055771984 0.080250554 0.010218882 0.029392282 -0.020395525 -0.060606293 -0.037435863
0.06603702 -0.053448156 0.040820457 -0.103670664 -0.06514624 0.058003858 -0.016206808 0.016028685
-0.07971119 0.031243779 -0.06042362 -0.062493175 -0.02396825 0.057854258 -0.055268206 0.05564513

model.fc3.bias f4 [128]
00000000: 5515 f0bd 4d8e c2bd 5f88 3abe 0b28 4c3e
00000010: e22d ed3c 819e bd3c 08c1 153e 46ba d23d
00000020: bf01 043e 47b5 e5bd aa9d 8ebd 3cfb 3bbd
00000030: 2d3f 89bc cfe0 ecbd 19e6 4dbd bb42 843d
00000040: f6f1 f7bd 4ce8 51bd 5876 47bd a7ec f9bb
00000050: 553e 30bb b182 b0bd ecaf ac3c ca8f 00be
00000060: 2d37 763c a636 343e 6b02 44bc 761d e1bd
00000070: 310b a9bc af91 18be cf1f 033e dcf2 f2bd
00000080: 39a7 cdbc baec 37bc c0df a3bc 5696 59bd
00000090: 7cee bebd 47c7 92bd 2cc0 c8bd 1ec6 a93c
000000a0: 295b 3f3d def0 2abd 0f29 6a3c 115c db3c
000000b0: 7478 613d 9592 19bb de0b 953d 7b4b dfbc
000000c0: 52bc 5b3d 4f22 8bbc ed8a 9a3d 6fea a83c
000000d0: 90c2 893d 3c80 cabd 4438 2e3e 6fdd f63c
000000e0: b99a fd3c 1a38 73be cde5 0cbe f056 eb3d
000000f0: cf3f 3abd 7bdc ba3d 74f0 243d 3617 9abc
00000100: 992d 373d 4819 d23d 0519 35bd a4b3 af3d
00000110: 2327 473d d46c 9d3d c2ed fc3c 29c4 0f3c
00000120: 5094 2c3d 9832 e8bb 1bf8 233d 7f85 df3c
00000130: d1d4 05bd f404 0dbe 6ef5 69bd 58e4 393c
00000140: 3e7e 1c3e c27b 08bb 7208 52bd 1088 0cbd
00000150: 4e9a 8dbd 6ce5 1dbe 90b3 cabc a61f 33bc
00000160: 7ed4 8bbd 8e3e 323d 5b13 cebd 2cd6 77bd
00000170: 6bae 093e d612 0bbe 8c2c 673d f00a e9bc
00000180: 10b9 e43c dfef 053e 0c32 07be 75de af3d
00000190: a800 37be 0106 623c 26ab d53d b8b8 2c3c
000001a0: fec9 1a3e bc13 d13a 79cc 31bd 63e2 61bd
000001b0: 9cba 66bd 9598 cbbd e7a9 e4bb 5bd5 693d
000001c0: 8f5a 3abd d122 013e 8fba d5bd 585b b33d
000001d0: 456b a2bd 4e13 7f3d ca7a 7e3d fd12 133c
000001e0: 6ae0 a2bb b0ee a53c 8188 473c ee37 533b
000001f0: 5b5a 3fbd e23e 223e c549 c9bd e401 b13d
-0.11722819 -0.09499798 -0.18216084 0.1993715 0.028952543 0.02314687 0.14624417 0.10289435
0.12891291 -0.112162165 -0.06963666 -0.045893893 -0.016753757 -0.11566316 -0.050268266 0.0645804
-0.12106697 -0.051246926 -0.048696846 -0.007627088 -0.0026892622 -0.086186774 0.02107998 -0.12554851
0.015027803 0.17598972 -0.011963467 -0.10991947 -0.02063522 -0.14899324 0.12805103 -0.11862728
-0.025104152 -0.011225874 -0.020004153 -0.053121887 -0.09322831 -0.071669154 -0.09802279 0.020724352
0.046717796 -0.041733615 0.014292016 0.0267773 0.055046514 -0.0023433317 0.07277654 -0.027257672
0.053646393 -0.016984133 0.07546029 0.0206196 0.06726563 -0.0988774 0.17013651 0.030134885
0.030957567 -0.2375187 -0.13759537 0.114911914 -0.04547101 0.091240846 0.040268376 -0.018809896
0.04472122 0.10258728 -0.044213314 0.085791856 0.048621308 0.07686773 0.03087509 0.008774796
0.04213363 -0.0070861094 0.040031534 0.027285336 -0.03267366 -0.1377142 -0.057118826 0.011345945
0.15282533 -0.0020825719 -0.051277585 -0.034309447 -0.06914197 -0.15419549 -0.024743825 -0.010932839
-0.06827639 0.043516688 -0.100622855 -0.060506985 0.13445441 -0.13581404 0.056438968 -0.028447598
0.027920276 0.13079785 -0.13202685 0.08587352 -0.17871344 0.013795377 0.104330346 0.010542087
0.15116116 0.0015951316 -0.04340789 -0.05514754 -0.05633031 -0.09941212 -0.0069782618 0.057088237
-0.04549652 0.12610938 -0.10435974 0.08757657 -0.07930616 0.06227427 0.06212882 0.008976695
-0.0049706 0.020255417 0.012178541 0.0032229382 -0.04671703 0.158443 -0.098285235 0.08642939

model.fc4.weight f4 [64, 128]
00000000: 4025 36be 908a 863b 9dba 803d 731c d53d
00000010: 5081 83bd b53c 893c bdab 953d 81c0 b63d
00000020: d535 d63d a8ee 303c cbec 033c 9640 3ebd
00000030: 48ce 203d 5942 1abd 0fd5 103d adc1 403c
00000040: 8cf1 5c3c a45d 46bd 0037 01bc aa4b e93a
00000050: d10f 1b3e b1b6 b8bc c229 98bd 7733 323d
00000060: 9a5b b93d d75a af3b cac5 693d 1f35 07be
00000070: 2513 73bd 96e0 a53d e5c6 b43d 820f fe3b
00000080: 0d9d 19be 8168 0b3d cd63 a03d 5b03 983d
00000090: 8f4c b7bc 89b3 c0bc 06e5 2ebd c135 f83c
000000a0: e04d bbbc aaa5 5fbd 012b 60bd 7d5f 013d
000000b0: d86b 033e 190c 8b3c a8f7 7b3d cc45 8a3d
000000c0: 1a4e 553c e65a 4cbe f3b3 433d 7058 8d3d
000000d0: 7f30 b2bb 911d c13d 76c7 803d 3003 97bc
000000e0: 631e c6bd 4905 62be 8aa9 06bc 4638 523d
000000f0: a442 c93d ce59 963d 0657 3cbd 53cf 3f3d
00000100: e0a4 053e 7ec1 21be 0ff2 303d 1b28 05be
00000110: e98a 13bc c5d0 02bc f6d3 063d b830 333d
00000120: bed4 01bc aeae d83c 76c9 0fbd b234 823d
00000130: 086c 36bd e7b2 19be 2cf3 24be d276 4f3d
00000140: 691f 633d 6671 e3bc 0a42 1c3e dc22 253e
00000150: a709 8fbc 4b9e 0b3d 5d1f a5bd 944f 723d
00000160: fb3a ec3d 9cc3 d73d 9fd7 70bd 2782 c33c
00000170: 09c9 ca3d 727d 383d fcc4 ac3c ef6c 813d
00000180: 4a73 be3c 1a81 283d c3d8 67bd 5ecb b43d
00000190: ff83 313d 402f 513d daa5 1abd 2e7f 503d
000001a0: 65a7 74bd 6faa 9d3b 5e25 c93b 2670 bbbd
000001b0: 21b4 6dbc 3ad3 c73d 4086 ecbd 0777 d13d
000001c0: 43cf 463c 2b3b 8a3d ece4 cebc 09da 7bbd
000001d0: 56bf 823d 1127 b23d 98ba 9d3d 56cc 2bbd
000001e0: 96a3 923d 7f26 003d 64b5 d73d 135d 95bd
000001f0: cc51 abbd 4e85 b33d f70f 993c 879c 433d
00000200: 0fa9 28be c628 5ebd 484d 093e 07d7 153e
00000210: 3b20 433d fc1c 79bd 858a d63d f71b f63d
00000220: ee52 0e3e 681f 78ba f05f afbd 8298 9b3d
00000230: 3f44 5cbd daea 36bc 7e21 833c 34d9 3b3d
00000240: 4876 0d3d 2806 313e bf4d 81bd 15f6 2e3e
00000250: f0fd d9bc a7d0 05bd 37a6 973d 119e a93d
00000260: ff57 d3bc aa2a ad3b cc18 6abd 7c6a 9ebd
00000270: dfa4 07bd c143 183e 3553 bb3d a53f bebd
00000280: 1c2b 45bd a330 0d3c 1a15 1e3d 3bed ec3c
00000290: 7105 333d c617 bebd c189 7cbd c535 5bbc
000002a0: 80a7 95bd 6d41 823d c53a 65bd 8baa a53d
000002b0: a6ad dd3b 4f04 ec3c 6173 ba3d f683 6dbd
000002c0: 5daf 8ebd 43f7 56be 08fc a03d 2859 ab3d
000002d0: 6c08 133d 8daa 203d 52f4 4dbd 4568 8e3d
000002e0: cafe ff3c 17dd 71be 0dad 3f3e 2e75 f7bc
000002f0: 57b5 be3c cd9c 6e3d 4059 18bd 04a3 6e3d
00000300: a6b3 8dbd aaaa 01be 19f8 39bd b833 bebd
00000310: c7e4 22bd 32e9 1c3e 51af f23c 2fc8 123d
00000320: eddc 9b3b 708a 1a3e 34b6 1f3d 77de 533d
00000330: 0a63 c5bd 7b39 363e f4eb b2bd af86 673c
00000340: eb1c 1a3e 7c6a f43d b3f3 e1bc e563 e23d
00000350: a042 c63c e58d bb3d 258a 2bba 1ffb 943c
00000360: 065a 4fbd 4e27 c93d 1a82 9fbc 77c8 be3d
00000370: e6e0 753d a5e3 bd3c ae56 9fbc 499b 3cbd
00000380: fdc0 41bd f59e c93d 57b5 89bd f81f 083e
00000390: 9225 6bbe 9463 643d ee0b 133d b601 5d3d
000003a0: 3607 e3bd d0da c1bb 4c90 86bb 0485 d7bd
000003b0: 6664 463a f6d5 d4bd 30af 733d daf3 bb3d
000003c0: bd14 033c e906 13bd 90b2 e23d 35c4 513d
000003d0: 4f12 53bd c2b2 f13d 20b7 a53c 887e 8c3b
000003e0: 17e8 713b 9100 c93d 0379 cf3d 0571 dd3c
000003f0: 791e b53d dc83 d73d d552 c8bc 275c 483d
-0.17787647 0.0041058734 0.06285594 0.10405817 -0.06421149 0.01675258 0.07308147 0.08923436
0.104594864 0.010799088 0.008052061 -0.046448313 0.039259225 -0.03766093 0.03535944 0.011764926
0.013485324 -0.048429146 -0.007886648 0.0017799039 0.15142752 -0.022548052 -0.0742984 0.043506112
0.09050675 0.005351405 0.057073392 -0.13203858 -0.05934443 0.08099477 0.088269986 0.0077533135
-0.15001316 0.03403521 0.078315355 0.07422515 -0.022375373 -0.023523109 -0.042698883 0.03029907
-0.022864282 -0.05460135 -0.05472851 0.031585205 0.12834108 0.016973542 0.06151548 0.06751594
0.013019109 -0.1995655 0.047779035 0.06901634 -0.00543791 0.094294675 0.06288044 -0.018434137
-0.096737646 -0.22072329 -0.008219132 0.051323198 0.09827164 0.07341348 -0.04598143 0.04682858
0.13051176 -0.15796468 0.043199595 -0.1300358 -0.009005287 -0.007984345 0.032916985 0.043747634
-0.007924257 0.026450481 -0.035104237 0.06357707 -0.04453662 -0.15009652 -0.16108388 0.050650425
0.055449877 -0.027764034 0.15259567 0.16126579 -0.017460657 0.034086507 -0.08062623 0.059157923
0.11534687 0.105353564 -0.058799382 0.023865772 0.09901626 0.04504151 0.021090023 0.063196056
0.023248333 0.041138746 -0.056603204 0.08827852 0.043338772 0.05107045 -0.037755825 0.050902538
-0.059729952 0.004811577 0.0061384877 -0.0915225 -0.014508278 0.09757085 -0.11549044 0.10227781
0.012134376 0.06749567 -0.025255643 -0.06148723 0.06384151 0.086988576 0.077016056 -0.041942917
0.07160108 0.031286713 0.105326444 -0.07293143 -0.08365211 0.0876566 0.01868437 0.047756698
-0.1647074 -0.054238103 0.13408387 0.14632808 0.04763816 -0.060818657 0.10475639 0.120170526
0.13898823 -0.0009465129 -0.085632205 0.07597448 -0.053776022 -0.011164391 0.016007181 0.045861438
0.03453663 0.17287505 -0.06313657 0.1708606 -0.026610345 -0.03266969 0.0740475 0.08282102
-0.025798796 0.005284627 -0.057152554 -0.07735154 -0.033116218 0.14869596 0.0914673 -0.09289483
-0.048136815 0.008617553 0.038594343 0.028921714 0.04370636 -0.09281878 -0.06165481 -0.013379519
-0.07307339 0.06360135 -0.05596425 0.08089169 0.0067650853 0.028810648 0.09104038 -0.057987176
-0.06967042 -0.2099276 0.07860571 0.083666146 0.035896704 0.03922515 -0.05028183 0.069534816
0.031249423 -0.23619495 0.18718357 -0.030207243 0.023279829 0.058255006 -0.03719449 0.058260933
-0.06919031 -0.1266276 -0.04540262 -0.09287208 -0.03976896 0.15323332 0.029624613 0.03583544
0.004756561 0.15091872 0.03899212 0.05172583 -0.09638031 0.17795365 -0.08736411 0.014131232
0.15050094 0.11934373 -0.027582025 0.110542096 0.024201691 0.091579236 -0.00065437175 0.01818615
-0.050622962 0.0982195 -0.019471217 0.093155794 0.060028933 0.023179838 -0.019450512 -0.04604653
-0.04730319 0.09844772 -0.06724041 0.13293445 -0.2296355 0.055759028 0.03590005 0.05395671
-0.1108536 -0.005915977 -0.004106557 -0.105234176 0.0007568061 -0.10392372 0.059493244 0.0917737
0.00800055 -0.035895262 0.11069214 0.05121251 -0.051531132 0.118016735 0.020228922 0.0042875446
0.0036912018 0.09814561 0.10130503 0.027031431 0.08843703 0.10523197 -0.02445356 0.04891601

model.fc4.bias f4 [64]
00000000: 0254 023e 86e2 203e dd58 d53d ff39 e1bd
00000010: 87ec d0bd f3c9 20bc cf02 1a3e b403 1e3d
00000020: ea17 3e3d 62b9 3b3d 941b 333e 2dad 273e
00000030: ef27 1f3e c95f 433e f186 0a3e 8441 843d
00000040: 4de9 143e 7029 bb3d 163b b4bd 1286 93bd
00000050: 7ee0 393e d153 903d 4c85 583e 011e fdbd
00000060: a9b5 dbbc 260d 043d e85a b6bd 9e5b 5dbb
00000070: 32fc 343e 9bdc 00be 7721 1d3e b84d 7b3d
00000080: 92e2 f73d 3f44 80bd 7d7e ddbd 7543 88bd
00000090: 3e68 6c3d a301 033e eba3 e13d 1ff0 5f3e
000000a0: 9eab 623d db46 243e 9d5b cf3d 2b65 6abd
000000b0: 44ae 143e 617b 933d 255b 583e 2b95 5c3e
000000c0: 2d63 223e 0b19 aabd 2533 4f3e 21a6 083e
000000d0: b095 91bd e8e2 d6bd cb36 ee3d 9e37 f93d
000000e0: 95cd 0cbe 8e74 b93d c9bd eb3d c7db 213e
000000f0: 719e 023e df27 593d 6457 0abd 98fa d63d
0.12727359 0.15711412 0.1041734 -0.1099739 -0.10201364 -0.009813773 0.15040134 0.03857775
0.046409525 0.04583109 0.17490989 0.16374655 0.15542577 0.19079508 0.13528039 0.064578086
0.14542122 0.09138763 -0.08800332 -0.07203306 0.18152043 0.07047237 0.21144599 -0.123592384
-0.02682002 0.0322391 -0.08904058 -0.0033776532 0.1767433 -0.12584154 0.15344797 0.061353415
0.12103762 -0.06263017 -0.10815141 -0.066534914 0.0577166 0.12793593 0.11017593 0.21868943
0.05533945 0.16042654 0.10124896 -0.057225388 0.14519602 0.07201267 0.21128519 0.21541278
0.15858145 -0.08305558 0.20234354 0.13344623 -0.07108629 -0.10492498 0.11631545 0.12168811
-0.13750298 0.09055434 0.11510808 0.15806495 0.12755753 0.05301654 -0.03377475 0.10497016

model.fc5.weight f4 [2, 64]
00000000: 054d 89bc 563b 053e 2771 f9bd 20fe 0a3e
00000010: ec5b 033d 6d41 da3b f0cc 3b3c 0079 783d
00000020: 9013 b23d c00a 84bc f631 bebd 88f8 6a3d
00000030: 67a0 97bd 67f7 e93d 119a 9d3c 62ef e33c
00000040: 9728 16be 6e01 b93d 7dba 88bc 9bea 543d
00000050: 4ed5 2abd 7f08 7e3d 488c 0c3e 9917 7e3d
00000060: aba0 e3bc 65ce 6ebc 40b1 d0bd 9bfc fa3c
00000070: 47f2 af3d 0183 3bbd 9dc9 24bd c148 edbc
00000080: 4418 6b3c d77b 133c dbb8 793d 7ca4 9a3d
00000090: 5b79 a63d 4efe 223d bbfb ecbd 5f8a 26be
000000a0: af0f c9bc bbee 083e 0f54 c63d dae3 ddbd
000000b0: b7e0 0f3e 8ef0 93bd 3a22 d5bc 6f3a b53d
000000c0: bf0c 9a3d d3d5 0dbb 297d 063e 56a1 48bd
000000d0: ca65 38bc 6baf 643d 57d1 2ebd f0bf 7abd
000000e0: 2ef3 863d b16a cc3d 23b2 babd ce0f 763a
000000f0: b7a0 84be ada5 5bbe 8b6e 85bb 7319 19be
00000100: a2cb e4bd 941a 05be e9b1 acbd 4964 783d
00000110: 6314 4d3d fe57 243d 6791 293d de47 303c
00000120: 4896 593d 313e 683b 8694 0cbe 19e5 953c
00000130: 34a1 e73c 320f 2e3c a7e5 263d 8b25 25bc
00000140: c55b d53c a5e8 b63d 5825 7d3d b800 323c
00000150: 10fd 363e 061a d0bd e36d 8b3c 9e0e 9f3d
00000160: d241 ad3b a7ec 9b3c 1f3c 8bbc 9ea7 43ba
00000170: b7bd 413d df59 87bd 6413 d03d 835d be3d
00000180: abf8 94bd db4f aa3d ce56 a2bd b329 923d
00000190: 27a8 f1bd d197 033e d6b0 15bd 69f6 ea3d
000001a0: 2e31 d1bc 9cf9 96bb 1779 f3bd 3685 25bd
000001b0: bdc4 80bc b343 4dbd 0a3b 0c3e f233 2d3e
000001c0: 7284 f13d 3da9 693b 9f2e 98bd dea5 bc3d
000001d0: 226d 46bd 2290 67bd f57f 13bb 03d5 cabd
000001e0: 0ad3 64bd 2d37 6f3d 3045 a9bd 3dc5 13be
000001f0: 1796 20bd ed87 d23c c5de 74bb caf5 09be
-0.016760359 0.13010916 -0.12179785 0.13573503 0.032070085 0.0066606314 0.011462435 0.06066227
0.086951375 -0.016118407 -0.09286873 0.057365924 -0.07403641 0.114241414 0.019238504 0.027824108
-0.14663921 0.09033476 -0.016690487 0.05198155 -0.04170733 0.06201982 0.13725388 0.062034223
-0.027786573 -0.0145755755 -0.10190058 0.03063803 0.085911326 -0.045779232 -0.040231336 -0.028965356
0.014349047 0.009001694 0.060967308 0.07550904 0.081286155 0.039793305 -0.11571451 -0.16263722
-0.024543611 0.13372318 0.09684002 -0.10834475 0.14050566 -0.072236165 -0.026017297 0.08849036
0.075219624 -0.0021642342 0.13133682 -0.048981987 -0.011254737 0.055831354 -0.04268011 -0.061218202
0.065893516 0.09981287 -0.09116008 0.00093865104 -0.25903866 -0.21449919 -0.0040720156 -0.14951114
-0.111716524 -0.1299842 -0.08432371 0.060642514 0.05006827 0.04012298 0.041398432 0.010759322
0.053121835 0.003543746 -0.13728532 0.018297719 0.02827511 0.01062374 0.040746357 -0.010079752
0.026044736 0.08931092 0.061803192 0.010864429 0.17869973 -0.101612136 0.017020172 0.0776646
0.0052873874 0.019033743 -0.016996441 -0.00074636366 0.047300067 -0.066089384 0.101599485 0.0929518
-0.07273992 0.083160125 -0.07926713 0.0713686 -0.11799651 0.12850882 -0.036545597 0.1147278
-0.025536146 -0.0046073925 -0.118883304 -0.040410243 -0.015718812 -0.05011339 0.13694397 0.16914347
0.1179284 0.0035653852 -0.07430767 0.09211324 -0.04844392 -0.05653394 -0.0022506688 -0.0990391
-0.055865325 0.05840223 -0.082651496 -0.14430709 -0.039205637 0.02569958 -0.0037364226 -0.13472667

model.fc5.bias f4 [2]
00000000: e9ec 6ebd 87e4 51bd
-0.058331404 -0.05124333
