Assignment-2/models/moon_test1.pth (torch, 534306 bytes, 10 tensors)

model.fc1.weight f4 [128, 4]
00000000: 16f0 a03d 029d 0cbf f8d8 26be 1134 d2bc
00000010: 60a2 003f 8d84 c93e 9073 eebe b908 a8be
00000020: 489d 06bf b19d 063f 8405 97be e98f 2dbe
00000030: d17c 7f3e 32a4 63be acbc 24be 0e99 8abe
00000040: 2cec 96be 6500 9c3e 13c3 a2be d80a 753d
00000050: 96f4 fc3e 8bc2 fabe a488 f23d ccec dfbd
00000060: 6464 233e bc92 f1be 1453 20bd 8936 36be
00000070: c372 a2bd 23bc 16bd f374 c23c 7db3 9e3c
00000080: 1e78 143f 6a7a da3e e2cf 8d3d 59b4 6fbe
00000090: 1a63 a7be 1813 693d 4044 603e 0768 b33e
000000a0: 96ad c1be d727 023f da13 c93e 11ee 86be
000000b0: 70fe 1fbf 7298 ea3d 642a a03e affd 573e
000000c0: 9e88 a0bd df60 353e a037 fdbd 282f 403d
000000d0: fb75 193f 9211 3f3e 843e 25be 3bba ba3d
000000e0: 7661 013f 9bba e53d 96e7 dc3e b55e 44be
000000f0: fbd9 8e3e f07c c23e 9701 04be dda0 44be
00000100: cad8 bd3d eb86 03bf 03f0 0f3d abcf 83bc
00000110: d335 ea3e 206e 2a3c 6606 9a3e 90f0 c9bd
00000120: 2280 853e 2e20 943e eafb 673e 8d24 503e
00000130: 5042 0dbf 743d 053e b4ee a1bc ff44 68be
00000140: 2906 3f3e 98da a6be 35cb a5bd a412 d83c
00000150: a08d 0b3e eae2 c03e 38fc 4cbe b83c 8b3e
00000160: d5c7 513e 6d09 983e 29c6 093d e0a2 b83d
00000170: 96bc 8abe 1ac9 d33e 8fd5 65be d00f 653e
00000180: 70f0 853e 6672 24bd 3777 16be dabc c9bd
00000190: dec6 b1be 446a c6be 771c 86be e70e 9b3e
000001a0: 6b42 cdbe 93db fbbd 6688 473e 98cf a7be
000001b0: 7156 98be a479 723e d204 b93e 8ba9 913c
000001c0: e309 78be 2235 1e3e 0a47 76be 9131 ffbd
000001d0: da5e e93e 2722 103f 10f9 d33d 89ed 3d3d
000001e0: 7a17 61bd 0af1 cc3e ca86 8dbe 9dc8 983e
000001f0: 7d99 80be 12f6 293e 9eee 9abd 842e 4cbd
00000200: 29d4 1d3f edcf 89ba 0679 24bc d352 cfbd
00000210: 2628 ffbe 05f4 e4be 34f6 85be 8465 4e3e
00000220: 087c 8cbd 0669 b43e 143b 56be 1db8 4d3d
00000230: c309 f03e 70df 743e dcfd 2abe 8004 843e
00000240: 93ac 4b3e bb39 013e 3c3e 233d a4ba 273d
00000250: b605 8e3e 13ff 923d 8cc0 90bc e97e 2a3d
00000260: 01b0 5f3d 93b8 f0be 78be 133d dbf7 cabd
00000270: cafb ab3e ffdd f23e 7eeb 6d3d 4cf8 92be
00000280: 0ce5 c8be 45dc cd3e a80a a63e 1c93 adbd
00000290: e4be 7a3d 4c29 d93c 77fc 7abe 5e3d 6ebe
000002a0: 5e12 acbe db98 0abe 95de 1e3e 909a 5e3d
000002b0: 5bad 553e 1d5e 693e 9e13 10be 3934 20be
000002c0: fd98 05bd d1a0 e3be c071 c7bc 3560 593e
000002d0: 5d5d ce3e 21b4 b83e 804c 293c 7de6 4fbe
000002e0: 3066 8d3e e677 053f efdb 94be 1c05 ff3d
000002f0: ae50 9bbd 0eee 0d3e fd9c 2a3d 078b 953d
00000300: c137 5f3e a8e9 123f 5a5f 13be d0cd 94be
00000310: 11a3 14bf 20ff bdbe 23c6 23be 0de3 b73c
00000320: 5c9c bcbe f562 5a3e 1ee2 37be d22c a6be
00000330: b64f 1abf fac9 c73d 2da0 14be 95b1 9d3e
00000340: d34f c23e 05ee ee3d efd0 723d 4215 103e
00000350: aa81 9abe eca7 4ebe d154 303c a476 923e
00000360: 10b9 863e 20a5 13be 42a7 893e 94af 183e
00000370: 802f 8dbe 4d33 8b3e 66fb 023d 04ad cebd
00000380: fede ea3e 90c9 193f 90e2 163e 5c36 3bbe
00000390: a8fb fc3e 93a6 f1be 85b4 f43d b0d6 ab3e
000003a0: c6bf 00bf dd44 d3be 5285 b63e cdd9 333c
000003b0: a343 f23d bf06 ab3e ecf7 ddbc 24be 6ebe
000003c0: f728 8f3e 059a 15bf b005 bc3e 8d56 b4bd
000003d0: 3484 8fbc 0672 abbc 3943 dc3a 4a2d 36bb
000003e0: 877b c6be e161 1f3f 36db dcbd db2c 843c
000003f0: 5c5c 66be a840 eb3e 1cf3 f43d b5ea f0bd
0.07858293 -0.54927075 -0.16293705 -0.025659593 0.50247765 0.3935894 -0.46572542 -0.32819155
-0.5258374 0.5258437 -0.29496396 -0.16949429 0.24949957 -0.22230604 -0.16087598 -0.27069896
-0.2947706 0.3046905 -0.31789455 0.059824795 0.49405354 -0.4897655 0.118424684 -0.10933837
0.15956265 -0.47182262 -0.03914173 -0.17794241 -0.07932045 -0.036800515 0.023737406 0.019372696
0.57995784 0.4267152 0.06924416 -0.23408641 -0.32692796 0.056902975 0.21901035 0.35040304
-0.37827748 0.5084204 0.39272958 -0.26353505 -0.62497616 0.11454858 0.3128234 0.21092866
-0.07838558 0.17712735 -0.12364125 0.04691997 0.5994565 0.18659046 -0.16137129 0.09117552
0.5053934 0.11217233 0.43145436 -0.19176753 0.2790068 0.37985945 -0.12891231 -0.1920199
0.09269865 -0.51377743 0.035141002 -0.016090235 0.4574419 0.010402232 0.30083007 -0.09860337
0.2607432 0.289308 0.22654691 0.20326443 -0.5517931 0.13011724 -0.019767143 -0.2268257
0.18654694 -0.3258865 -0.08095399 0.026376076 0.13628244 0.37673122 -0.20018089 0.27194762
0.20486386 0.2969469 0.033636246 0.09015441 -0.27097005 0.41364366 -0.22444747 0.22369313
0.26160002 -0.04014816 -0.14693914 -0.09850474 -0.34722036 -0.3875295 -0.26193592 0.30284807
-0.40089735 -0.1229774 0.19485626 -0.3277557 -0.2975345 0.23679215 0.3613649 0.01778104
-0.24222521 0.15449956 -0.24050537 -0.12460626 0.45580178 0.5630211 0.10350239 0.04636911
-0.05495403 0.40027648 -0.27641898 0.29840556 -0.25117102 0.16597775 -0.07565044 -0.04984905
0.61651856 -0.0010514237 -0.01003862 -0.10123219 -0.49835318 -0.44717422 -0.261644 0.20155913
-0.068595946 0.35236377 -0.20920974 0.050224412 0.46882448 0.2391336 -0.16698402 0.25784683
0.1989005 0.12619679 0.039854273 0.04094948 0.27738732 0.07177558 -0.017669939 0.041624937
0.05461121 -0.4701582 0.036070317 -0.09910556 0.33590537 0.47434995 0.05808591 -0.2870506
-0.3923725 0.40207115 0.32430005 -0.084753245 0.061217204 0.02650895 -0.2451037 -0.23265597
-0.33607763 -0.13534872 0.15514596 0.05434662 0.20866911 0.22789808 -0.14069983 -0.15644921
-0.032616604 -0.4445863 -0.024346232 0.21228106 0.40305606 0.36074927 0.01033318 -0.20302768
0.27617025 0.52136075 -0.29074046 0.124521464 -0.07583748 0.13860342 0.041653622 0.07301908
0.21798612 0.5738778 -0.14391842 -0.29063272 -0.5806132 -0.37108707 -0.15993552 0.022447133
-0.36838043 0.21326812 -0.1795735 -0.3245607 -0.6027788 0.09755321 -0.14514227 0.30799547
0.37951526 0.116664924 0.059281286 0.14070609 -0.3017705 -0.20181245 0.010762409 0.2860614
0.26313066 -0.14418459 0.2688542 0.14910728 -0.27575302 0.27187577 0.031978033 -0.10091594
0.45873255 0.60073185 0.14734864 -0.18282455 0.49410748 -0.471974 0.11948494 0.3356223
-0.50292623 -0.41263476 0.3564859 0.010977221 0.11829307 0.33403584 -0.027095757 -0.2331472
0.2796094 -0.5843814 0.3672309 -0.08805571 -0.017519094 -0.020928394 0.0016804702 -0.002779799
-0.3876612 0.62258726 -0.10783999 0.01613467 -0.2249617 0.45947766 0.11960432 -0.11763517

model.fc1.bias f4 [128]
00000000: 7eee 85be 83ad 95be efbf 59bc 8552 94bc
00000010: 037e 8d3d d806 013e 977c 2d3e 42fd ddbc
00000020: b127 efbd 44d2 823e 7571 aa3e c08b bdbd
00000030: 2798 12be 32c5 85be bd65 d6be 5049 523d
00000040: 3c58 c73d 463c 803e eb29 c7bc 7565 92bc
00000050: 2574 2f3e 2941 793e c242 81bd ab12 203e
00000060: 67f1 20be 31c0 243e 2136 9cbe 6cbc e9bc
00000070: 0057 ff3d 0724 8f3e a93b 243d 55be 7f3e
00000080: a6c9 5abe 4a79 b63e a61c 493d 47cb 02bd
00000090: 4d91 06bd fe3a 72bd 0832 ddbe 879b a23e
000000a0: fb74 b93e 7d06 a53e 0a77 44be dedf d13d
000000b0: ec74 4a3e 4ea0 a53e 0f7d e6bb a268 d63d
000000c0: e4c8 bdbe bc1a 92be be25 a13e e9b9 e23d
000000d0: acd9 d63d 6008 d5be 2245 323e c0cb 55be
000000e0: af27 dbbd 3bc6 ebbe fdd0 86be 150c 59bd
000000f0: be26 603e a619 b6bb 15f3 25be 2053 c43e
00000100: 7578 d23e 025c 9c3e 4b97 b23e 7cdc 2ebe
00000110: d657 64bd 4a5c c2be 6afa ac3e dfeb cabe
00000120: ddb9 9b3e 0351 4fbc 1317 7ebe 8dd9 debe
00000130: 57b9 7e3e 3d90 db3e 7113 0d3c dc03 88bd
00000140: b4a9 c93e b1f2 ccbe b40b 5bbd 2d97 f1ba
00000150: 866d 333d 208f a23e f932 6f3e 8cee f13d
00000160: 214a f33e cb55 d03e 504b 4c3e 4531 103e
00000170: 1b0f a13e dbe1 e23d b841 c1bc f0fc 57be
00000180: 8fa6 e2be ed22 a13e 507a 9abe 5a6e 84be
00000190: f59b 503d 87f3 cdbe b977 b7be f1c2 b3be
000001a0: 24e4 9cbd 9d73 84be 4a0f d1be e1d8 f5be
000001b0: 67d5 b0bd 124c e3be 0719 9b3e 7d7f f13e
000001c0: d588 a03e a4bd 3ebe 987c 1c3e 40e8 9d3d
000001d0: 869d 04be b71e e4be 545c 603e 561a e4bd
000001e0: b1d6 c0be 5cc0 32be ba37 85be 2dc5 4dbe
000001f0: eb37 c93e 2c70 b4be 47d6 a2be 8834 dcbd
-0.26158518 -0.2923394 -0.013290389 -0.018105755 0.069088005 0.12600267 0.16942059 -0.027098302
-0.116774924 0.25551045 0.33289686 -0.09255171 -0.14315854 -0.2612701 -0.41874495 0.051339447
0.09733626 0.25045985 -0.02431198 -0.017870644 0.1713415 0.24341263 -0.06311561 0.15632121
-0.15717088 0.1608894 -0.30510047 -0.02853223 0.12467766 0.27957174 0.04009596 0.2497495
-0.21365985 0.3563941 0.049099587 -0.03193214 -0.032853413 -0.05913829 -0.43202233 0.31759283
0.36222062 0.32231513 -0.19186035 0.102477774 0.19771165 0.32348865 -0.007033951 0.10469176
-0.3706733 -0.28536022 0.31474108 0.11070616 0.10490736 -0.41607952 0.17409185 -0.20878506
-0.107009284 -0.46049675 -0.2633132 -0.052990038 0.21889779 -0.0055572568 -0.1620601 0.3834467
0.41107526 0.30538946 0.34881052 -0.17076296 -0.05574783 -0.37961036 0.337848 -0.3963308
0.3041524 -0.012653592 -0.2481349 -0.43525353 0.24875389 0.42883483 0.008610592 -0.06641361
0.39387286 -0.4002891 -0.053477958 -0.0018431895 0.04380562 0.3174982 0.23359288 0.11813077
0.47517493 0.40690455 0.19950604 0.14081295 0.31456837 0.11078235 -0.023590907 -0.21092582
-0.442677 0.3147196 -0.30171442 -0.25865442 0.050929982 -0.4022486 -0.3583353 -0.35109666
-0.07660702 -0.25869456 -0.40831977 -0.48017028 -0.08634453 -0.44393975 0.30292532 0.47167578
0.31354395 -0.1862703 0.15281904 0.07710314 -0.12950715 -0.44554684 0.2191022 -0.11137836
-0.37663797 -0.17456192 -0.26019078 -0.20094748 0.39300475 -0.3524183 -0.31804106 -0.10752207

model.fc2.weight f4 [256, 128]
00000000: f0d8 e43d e696 66bd 9a77 18bd 26f8 a23d
00000010: b7dd 3dbe 7e85 483e eae8 193e dbb8 6b3d
00000020: db1b 9d3d 0924 efbc 1e91 91be 932d 8ebd
00000030: 3bee 393d 9fa3 ae3d 7bde 223e 247d 40bd
00000040: 2fc9 403e a102 30bd 5399 b3bd 2d80 76bd
00000050: 8b06 743c 8331 35be 1197 44bd 6063 03be
00000060: 30a7 37bc 750a 533d bb92 393d 34fc 21be
00000070: 2e0c 4bbe c950 debd de99 a6bd 4756 80be
00000080: 8191 5a3e 0437 293d df35 d5bd b2a9 1bbd
00000090: d6cd 3ebd 1dc7 e03d 56a3 743e ca2d a6bd
000000a0: 3d4e a1be a422 73bc 678d a43c 83ec 74bd
000000b0: c442 463d bdb4 0b3c 277f 7abb 6d27 15bd
000000c0: 7e52 033d aa1a 793d 5e9d 43be 0145 19be
000000d0: b71f acbb 1459 be3d 84f6 33bb 1a77 c3bd
000000e0: 43a2 60bd 1b0d 893e 41f2 1f3e 3ec9 36bd
000000f0: 7af1 b03d 181a 8ebd 864d 5abd 43b4 9ebe
00000100: fa41 053d 3341 3c3d 8cae 8f3d 95df 9a3b
00000110: 3f21 d23d a5ba 693e 7398 353d 3445 1b3e
00000120: fe56 433b 97ad c43d b27a d93d 33c2 043e
00000130: 0bfb ccbc 8a39 ff3d 2299 123e 828e 03be
00000140: 74f3 943d f122 b83e 9140 55bd 53d5 cbbd
00000150: 77a6 a4bc 4007 ab3d 1f82 323d 69aa b9bd
00000160: 7e2e 54bd 543b 73be f680 a93c 96a9 ebbd
00000170: 2f1b d63b d5d3 003d a745 b33d 36b8 313d
00000180: b3f1 013e 6a78 5abe f8fe ad3d c988 3bbd
00000190: 6dfc d83c 6ba0 8c3e 8e9d 653d 4442 003d
000001a0: af44 adbd 925a 65bd 5e2d 8cbb c9db a63d
000001b0: 0d69 683c 5891 123e e748 1b3d 0450 d3be
000001c0: 2161 b73d 5e53 bcbd 896d b2bc 9a21 48be
000001d0: 236a 593e fdd4 553d 68fa 83bd e740 c13b
000001e0: 5467 ad3d 0e34 b4bd 1777 8bbd 7a11 353e
000001f0: 2a88 f4bd 5af8 1e3e d4a8 eebc b985 12bd
00000200: 15fa 033e a4e8 fe3b 75cc 033b f091 773d
00000210: 3f8e 19bd fb5d 9e3d d503 8c3d 0041 bd3c
00000220: bc18 be3d 34ca 3fbe 0937 52be 8cd2 213c
00000230: 2907 43bd 014a 0d3e f88b 493e fde6 f43c
00000240: d3b5 e7ba 6b59 bebc 5ab6 46bd a2d6 a63b
00000250: 2663 6b3d 0d2e bfbd d4a7 b53d 5cc7 adbd
00000260: 12a8 0e3d 01e5 55bd e981 c9ba aa9a 02be
00000270: 53d3 2dbd 1244 6cbb 9afb b9bd c513 55be
00000280: 46bf 5b3e 49fe 0dbe a86f f03c 2132 7d3c
00000290: 2439 ea3b 0f78 833d 746a 2e3e 66e6 af3c
000002a0: b4b1 83be 5bf1 d7bd 866b cabc ed98 a13c
000002b0: eded b3bd e0f0 7e3d 842a 513d bd7c d1bd
000002c0: daa8 723d 7191 d83d fca9 31be b0ac 4bbe
000002d0: 040f 9c3d 1502 003d d70b 413d c3e9 943d
000002e0: e2c1 84bc f2ca cc3d 5353 aabc 93c6 3a3d
000002f0: 5a7a c1bc 5ab0 103c 75dd 53bd e6de 7ebe
00000300: 56a5 14be fbd3 033d df63 acbd c711 22bd
00000310: 2e9b 423d 4a3d 253e 6c13 e5bd 4cb0 a63d
00000320: 7f5a adbd 1a29 21bd e9b4 0c3d 00d2 45bd
00000330: 412b 68bd 1308 bcbb 3c40 a4bb 59a7 41bd
00000340: fb54 893d 70a7 a43e a3fb c53d af9b 14bc
00000350: 344a 96bd eaf3 9aba a824 2a3d 3bfe 38be
00000360: ed9d cf3c 0466 67be 9c0c 17bc b42c 2cbe
00000370: c691 0dbe e946 c23d d6f8 bbba 854a ae3c
00000380: 7b0d 603d d85c 44be 7cfd 373e c9f0 73bd
00000390: ccf3 b7bd c17e 4c3e 9b7e f63d c012 343d
000003a0: d50a 1f3c 748c 75bc 9eb6 083e e921 f33d
000003b0: 1e36 ba3c 04a7 7a3e 9137 473d dfa8 7dbe
000003c0: 5a77 d33d 5471 253b bcf3 c3bd 8bae 2fbe
000003d0: 19f8 fb3c f82d bfbb 5449 4ebe b6ff f43c
000003e0: 6027 af3d 0146 2d3d ecd8 183e 10f7 6f3d
000003f0: 36e7 ad3c ac4d 0c3d dc38 c43d 775e f6bc
0.1117419 -0.05629625 -0.037223436 0.07957487 -0.18541609 0.19582173 0.15030256 0.05754934
0.07671329 -0.029191988 -0.28431028 -0.06942286 0.04539321 0.08527302 0.15905182 -0.046994343
0.18826745 -0.042971257 -0.08769479 -0.06018083 0.014894138 -0.17694668 -0.04799563 -0.12830877
-0.011209294 0.051523644 0.04530595 -0.15818864 -0.19828865 -0.10855252 -0.081348166 -0.25065824
0.21344568 0.041312233 -0.10410666 -0.03800363 -0.04658302 0.10975478 0.23890433 -0.08114202
-0.31505004 -0.014839802 0.020086957 -0.059795868 0.048403516 0.008526978 -0.0038222761 -0.036414552
0.032061093 0.060816444 -0.19103 -0.14967729 -0.005252804 0.09294334 -0.0027460167 -0.09544201
-0.054842245 0.2676781 0.15619756 -0.044625513 0.08639808 -0.06938571 -0.05329659 -0.30996904
0.032533623 0.045960616 0.07015714 0.00472636 0.102602474 0.22825105 0.04433484 0.15163118
0.002980649 0.09603422 0.106191054 0.12964706 -0.02502205 0.124621466 0.14316228 -0.12847331
0.072729975 0.35964158 -0.05206353 -0.09952798 -0.020098908 0.08350992 0.043581124 -0.09065706
-0.05180215 -0.237531 0.020691376 -0.11506955 0.0065340023 0.03145202 0.087535195 0.043388568
0.12689857 -0.21334997 0.08495897 -0.045784745 0.026487553 0.2746614 0.05605846 0.031313196
-0.08460366 -0.055994578 -0.004277869 0.081473894 0.014185202 0.14313257 0.037911322 -0.41271985
0.08954073 -0.091955885 -0.021780746 -0.19544068 0.21231894 0.052205075 -0.064442456 0.0058976295
0.08466974 -0.08798991 -0.06809824 0.17682448 -0.11940034 0.15524426 -0.029133238 -0.03577206
0.12888367 0.007779198 0.002011088 0.06044191 -0.037489172 0.07732769 0.068366684 0.023102283
0.092820615 -0.18729478 -0.20528807 0.009876858 -0.04761425 0.13797761 0.196823 0.0298953
-0.0017678089 -0.023235997 -0.048513748 0.005091504 0.057467602 -0.09334955 0.08869901 -0.084852904
0.034828253 -0.05222035 -0.0015373799 -0.12754312 -0.042437863 -0.0036051315 -0.09081192 -0.20808323
0.21459684 -0.13866533 0.029350117 0.015453846 0.007147925 0.06419384 0.17032796 0.021472167
-0.25721514 -0.10544082 -0.024709474 0.019726241 -0.08785615 0.062241435 0.051065937 -0.1022887
0.05924306 0.10574616 -0.1735 -0.19890094 0.076200515 0.031251986 0.047130432 0.07271149
-0.016205732 0.09999646 -0.020791685 0.04559953 -0.023617912 0.008831108 -0.05172487 -0.24889717
-0.14516196 0.032184582 -0.084174864 -0.039567735 0.047511272 0.16136661 -0.11185345 0.08139095
-0.084645264 -0.039345838 0.034352217 -0.048295975 -0.056681875 -0.005738267 -0.00501254 -0.047278736
0.06705662 0.32158995 0.096671365 -0.009070321 -0.07338372 -0.001182196 0.041538864 -0.18065731
0.02534386 -0.2259751 -0.009219315 -0.16813928 -0.1382514 0.09486181 -0.0014341127 0.021275768
0.054700356 -0.19176042 0.1796779 -0.059555802 -0.089820474 0.19970228 0.12035867 0.043963194
0.009707172 -0.0149871 0.13350913 0.11871702 0.022730883 0.24477774 0.048636977 -0.2477145
0.10325499 0.002524455 -0.09567973 -0.17156427 0.03075795 -0.0058343373 -0.2014516 0.029907089
0.08552432 0.04230309 0.14926499 0.058585227 0.021228414 0.03425376 0.095811576 -0.030074341

model.fc2.bias f4 [256]
00000000: d9ba b5bd d1c2 20be 11ae 443c 9eec c43c
00000010: a0fc e1bd 3dc6 6e3b 1de4 993b 3863 c6bc
00000020: 2689 06be 897a cebc 790c 30be db6f 1fbd
00000030: 10f0 42bd 16cf 17bd 4b5e c2bd 6feb f5bc
00000040: b942 98bd 3bf1 14be f661 473c d2e3 f8bd
00000050: af32 233d 439b 98ba b20e 34bd ae75 17be
00000060: 42b2 3ebd 9141 04be 0249 86bd 9d9b b8bd
00000070: f516 ffbd 1b92 263d 713a 803d 5c7c 0c3d
00000080: 56f2 34bd 4d08 fe3c e99a a7bd bb9c 9fbd
00000090: b5d5 bfbc db87 c7bc b2cf 5fbd b309 b8bd
000000a0: a062 c9bc 1df5 ddbc 50ec fc3c ea3a 6fbd
000000b0: a831 f73c 6133 d1bd 9bf9 883d c0e8 ad3c
000000c0: 0dbc a43a 27ce 3c3d 9d51 9cbd 55de 73bd
000000d0: dfc5 8abd 8875 55bd 19d9 9dbd d5f9 933d
000000e0: 826e 58bc 6281 4c3d 32d5 84bd 791f b2bd
000000f0: fae9 acbd dfd1 8c3d 7a16 c7bd 79a6 bbbd
00000100: 0ecd 11bd 0cfb 19bd 188b 97bd 50c5 15bd
00000110: f1dd 0fbc 9a6e 523c 45d1 debd 9c00 9cbd
00000120: 6675 df3c 0078 0ebe 57f6 6f3b c5b3 4dbd
00000130: f005 f2bd 4d4d 7e3d adb4 233d f2b1 c7bc
00000140: eb57 b0bb b5ba 56bc 8e1f a2bc 3de1 ddbc
00000150: 1483 8dbc 2a6c 253d 6af0 13bc c4f6 e5bd
00000160: f030 d3bd 8999 a6bc 9445 79bc d088 cdbc
00000170: 3d29 febc 6a36 8abd 1fd5 63bc 4529 c6bd
00000180: 4d6d 09bc 7b63 843d 0aeb 2ebe 0486 65bd
00000190: 005a 1cbd e2b3 e63c 7174 72bd 2cc8 c6bc
000001a0: 7f00 c63d 385c f2bc e7ed 45bd 439e 94ba
000001b0: c726 e0bd 0b89 e1bd e830 7f3d 986a 62bb
000001c0: a9e2 22be 5faf 53bd c444 8cbc ffce 973c
000001d0: 7573 893d 9413 28be 7d82 fbbc 30bf babd
000001e0: 9705 0abc 8806 8c3c 0ada 85bd d108 2cbe
000001f0: 470b 5dbd 0892 7dbc b8a5 02bd e428 dfbd
00000200: f6a3 99bc 8181 da3c 1e35 923d 3470 e23c
00000210: 4e1c 9abc 0c05 83bd cd86 573d f758 1a3c
00000220: e349 9c3d 7d79 fb3c d9ff 0ebd 34e5 143d
00000230: 0dcb 08bd 667b b4bd 3dd9 db3a b826 04be
00000240: f6c9 aebc 0c46 09bd 265f 06be ab0a a3bd
00000250: b12f 16bd 49ca c6bb ea63 02be d23f bdbd
00000260: 3c3b 04be 5902 c3bd cd20 24be 06f7 17be
00000270: dc4e 4bbe 233c 373c 401a af3c 8b59 94bd
00000280: 7d91 9b3b 1e75 083d bde9 a43c 2015 bcbd
00000290: ac0f 74bc 251f 7b3d c24d af3c 5c5b 393d
000002a0: 7d9c c13c bca7 a7bc f01e c3bd 660f 24be
000002b0: 1d83 24be 49f9 c6bd fd24 b2bd 4ff7 2e3c
000002c0: 9f4f 673d cda8 debc fbf3 a2bd f37d c93c
000002d0: 5049 fabd 1bad 06be 41f5 1bbe 4d38 07be
000002e0: f34f 7dbc 69c5 9abd c410 f0bd 07a8 90bd
000002f0: 98e4 18bd 8444 ebbd 08da 733d 4871 05bd
00000300: 4ce2 c6bc 3b95 e7bc ce5a 95bd 58b5 1bba
00000310: a8f4 7bbd 9a91 36bd 0e5c d7bc 2d2c 24bd
00000320: e61f 3fbc 03d4 0d3d 55fa 9b3c 8234 193d
00000330: 7e24 f9bd f31b fdbd b2cb 6cbd 3129 983d
00000340: 19da debd 0b2d 4ebd 7119 0cbe c008 383d
00000350: fed6 a53d 4769 04bc 2b67 89ba 13ce f1bd
00000360: 43b6 12be 1baf f6bd 29e1 01be 7297 be3d
00000370: eefc eabc f110 38bd 25be 1fbe 8b07 233d
00000380: f19c 343d 561f bebd 000d 7e3d 3272 4ebd
00000390: 3672 253d 2217 76bd 9bb6 0dbe 012a 7dbd
000003a0: 28e9 bd3d 5998 893c 32d2 c3bd f25b 35be
000003b0: 29a7 9dbd 8ab6 e5bc f33e 833d e0cc 80bc
000003c0: 73bc ffbc 5687 b2bd 137f 26be d066 69bd
000003d0: 2fb9 3bbe 4998 7fbb 84c4 383d 0369 d23c
000003e0: c591 133b 9973 ae3d cce4 27be e9a6 853d
000003f0: cc2a 41bd c420 3d3d 0652 98bd 5662 94bd
-0.08873529 -0.15699317 0.012004391 0.02403861 -0.110345125 0.0036434077 0.0046963827 -0.024217233
-0.13138255 -0.025204914 -0.17192258 -0.038925033 -0.047592223 -0.037062727 -0.09490641 -0.03001949
-0.07434601 -0.14545147 0.012169352 -0.12152828 0.039843258 -0.0011642951 -0.043959327 -0.14790985
-0.04655672 -0.12915637 -0.06556894 -0.09014056 -0.124555506 0.04066668 0.06261147 0.034298286
-0.044176422 0.031009817 -0.08183844 -0.07793566 -0.023417333 -0.024356773 -0.054641433 -0.08986225
-0.02458316 -0.027094418 0.030874401 -0.058405794 0.030175045 -0.10214878 0.066882335 0.021229148
0.001256825 0.04609504 -0.07632754 -0.059538204 -0.06776022 -0.05211404 -0.07707424 0.07225386
-0.013209941 0.049928077 -0.06485976 -0.08697409 -0.08443065 0.06875967 -0.09721084 -0.091626115
-0.035595946 -0.037592933 -0.07399577 -0.036565125 -0.008780942 0.012843752 -0.10879759 -0.07617304
0.02727766 -0.13912964 0.0036615336 -0.05022027 -0.11817539 0.06208544 0.039967228 -0.024376843
-0.0053815744 -0.013106038 -0.019790437 -0.027084941 -0.017274417 0.040386356 -0.009029487 -0.112287074
-0.103120685 -0.020336883 -0.015214343 -0.025089651 -0.031025523 -0.0674866 -0.0139057925 -0.0967584
-0.008387876 0.06464287 -0.17081848 -0.05603601 -0.03817177 0.028161947 -0.05919308 -0.024265371
0.09668063 -0.029584989 -0.048322584 -0.001133867 -0.10944896 -0.11012467 0.0623025 -0.0034548398
-0.15906776 -0.05168092 -0.017122634 0.01853132 0.06711475 -0.16413718 -0.03070187 -0.09118497
-0.008424184 0.017092958 -0.06535728 -0.16800238 -0.053965833 -0.015476711 -0.031896323 -0.10896471
-0.01875494 0.02667308 0.071390375 0.027641393 -0.018812325 -0.06397447 0.05261879 0.009420625
0.0763128 0.030697579 -0.034911964 0.036351398 -0.03339677 -0.08812599 0.0016773116 -0.12905395
-0.021336537 -0.033514068 -0.13122234 -0.07961019 -0.036666576 -0.0060665947 -0.12733427 -0.092406884
-0.12913221 -0.09521932 -0.16028138 -0.14840326 -0.19854301 0.011183771 0.021374822 -0.072436415
0.004747568 0.033314817 0.020130986 -0.09183717 -0.014896315 0.061309 0.021399383 0.045253143
0.02363419 -0.020465724 -0.09527385 -0.16021499 -0.16065641 -0.09715516 -0.08698461 0.01067908
0.056472417 -0.0271801 -0.07956692 0.02459619 -0.122210145 -0.13151972 -0.15230276 -0.13205071
-0.015460956 -0.07557184 -0.11721948 -0.07063299 -0.03732738 -0.11487678 0.059534103 -0.032578737
-0.024277829 -0.0282694 -0.0729271 -0.0005939803 -0.06151262 -0.04457245 -0.026289012 -0.04008119
-0.01166532 0.03462602 0.019040266 0.03740359 -0.121651635 -0.123588465 -0.057811446 0.07429732
-0.108814426 -0.050335925 -0.1368158 0.04493022 0.08097647 -0.008081741 -0.0010483017 -0.11806884
-0.1432734 -0.120451175 -0.12683548 0.0930623 -0.02868506 -0.04493803 -0.15599878 0.039802115
0.044094983 -0.092833206 0.062024117 -0.050401874 0.040392123 -0.060080655 -0.1383919 -0.061807636
0.09272987 0.016796278 -0.09561576 -0.17710856 -0.07697899 -0.028041143 0.06408491 -0.015722692
-0.03121779 -0.087172195 -0.16259412 -0.056982815 -0.1833236 -0.003900068 0.045109287 0.02568484
0.0022517305 0.08518142 -0.16395873 0.06525976 -0.047159955 0.046173826 -0.0743752 -0.072453186

model.fc3.weight f4 [256, 256]
00000000: 0f15 563c 4ecd 313d 0d11 143d dafe b83c
00000010: d6b7 1d3d b3a8 da3c 3352 b9bd eaeb 993c
00000020: 3830 8abc c0b2 85bc 410f 23bc a964 ab3c
00000030: 9573 d43c 1500 2c3d 6571 d33a 93aa f53c
00000040: b560 51bb bf38 fdbc ca8c 343d 802a 25bb
00000050: 2b92 453d 49e4 93bc 7381 1abd 2772 383c
00000060: 0a5f 963b a678 493d 2d84 ec3b 6897 e9bc
00000070: 02e7 943c ab99 dbbc b326 6f3c d81e 32bb
00000080: ddbc 833d bf1f 3d3d 6c3f fe3c 8c78 01bd
00000090: 94ba d8bc d24e 9e3c 6756 ebbc 05bc d53b
000000a0: 5994 763c 8c7f 163c 34c4 5ebb 455c 10bd
000000b0: e345 30bd e7a0 483d 4588 783c b74f 7dbd
000000c0: 0605 66bc d71e d4bc 6452 98bd 3b65 513d
000000d0: 5e0c 90bd ea92 1cbd e9ac 90bd ae3e 25bc
000000e0: b69e f63b b6c6 a23c 9497 7b3d f1a9 233c
000000f0: fcfc 73bd 325a 2a3d 4799 89bc 82fb 783c
00000100: f57b 803a e502 aa3d 5887 e93c 6984 4abc
00000110: d663 31bd 0ecb 273d f0fc f8bc c3d8 5b3d
00000120: 8e13 64bd 2610 9fbc 1a7f 4fbd 2a36 70bd
00000130: feae 30bd dfad dcbc 944b cc3c 2062 1abb
00000140: b9de 223b 7595 e7bc b1f8 64bd 4c14 14bb
00000150: 1fb9 623d 1eca acbc 7f82 8bbd d100 79bd
00000160: fea4 e4ba 3804 273d d8e7 2bbd 4891 78bd
00000170: c015 8eb7 bcdb 32bd 097c ff3c 1adf 22bd
00000180: 2840 1c3d 6478 533d 525f babb aa3b 40bd
00000190: d242 8dbc 31c4 a83c ecef 2bbd cdc0 9ab9
000001a0: 76f8 fa3c 935e 2e3c 360f 12bd dd39 a4ba
000001b0: 0c97 1c3d 4d45 67bd bb03 9fbc 659b d2bc
000001c0: a359 24bd 46ea 43bd c4bb 5dbd b99b 7ebd
000001d0: f3d3 9e3c ce76 df39 e92b 853d f78a fe3b
000001e0: 935f 3dbd 730c 98bc 856e 493d fe43 2dbd
000001f0: a30d 893c 882e 7f3c 3053 3bbd 229e e23c
00000200: 0ad4 1b3d 2bd9 1e3d b054 6939 4193 c13c
00000210: 7ef0 24bb 2347 ec3c 44ba 97bd 3207 6b3c
00000220: 36de ee3c 9d73 713d d768 36bd 956e b8bc
00000230: d0d4 42bd f6c3 bfbb 1595 1fbd 2ec4 cb3b
00000240: 26b4 b8ba cdc8 7b3c d8bb 45bd 8b5b ab3c
00000250: 79d2 b6bc e460 433d 0e9b 523d 6818 e4bb
00000260: 531a c13c bfd0 80bd a890 003d 19ae 4a3c
00000270: c2bb 81bc 5ece a5bc 40e1 4b3d 4fca 92bd
00000280: 37bd 0dbd 24c5 7fbd 672e 14bc be4c 54bd
00000290: 9552 e93c d68d 153d 2987 a1bc 3765 c9bc
000002a0: 7315 9bbc f627 373d dfae 36bd c00c 25bc
000002b0: 70d0 f03c 8280 d7bc 405e 0fbd b121 3c3c
000002c0: 8459 04bd 29ff 53bd 9341 073c 7a4b e1bc
000002d0: 14c0 4ebd ae6b 733c c19e 693d 21bd 0fbd
000002e0: 39d8 ea3c 7f60 45bd 7151 dabc c373 46bc
000002f0: cd6b bd3b aadd 0c3d 531f f93b 1578 53bd
00000300: 33f6 da3c c415 643c 72d6 a4bc f1ba 3f3c
00000310: 1259 303d e455 92bd d068 64bd 4709 25bc
00000320: 7edf 9dbc 7c1e 813b e20a da3c cb76 acbc
00000330: 8d7c 293d 5dbc 17bd 59c5 463c 0cdb 5ebc
00000340: 7afe 6c3d 645d 173d 8aca 4ebd 6d0e b53c
00000350: dcec 013b 5dff 673d 85e3 333c e020 20bd
00000360: ee45 303d 817e 88bd 9b66 103d f00c 39bd
00000370: 3318 26bd 2a90 c5bc c1b7 fabc 7980 30bd
00000380: a7aa 4bbd 1ce5 b8bc ff02 0abd 9b96 06ba
00000390: f3ef 953c d78b 69ba 0b57 263d a9d6 7a3d
000003a0: 518e cd3c 0764 4e3d b683 fc3c b4c9 283d
000003b0: 164a 91bc 12d4 3b3d 5597 193d 0144 9fba
000003c0: 4eb8 2e3d 8d13 2b3d a706 043d d888 153d
000003d0: a603 6bbd 3ef7 883c 0325 9dbd 6061 463d
000003e0: 42f6 c3bc d79e 973d f30e 20bc 9b1c 663d
000003f0: 6fa6 d23c 6238 0ebd bbff 40bd d2e8 6e3d
0.013066544 0.043408684 0.036149073 0.02258246 0.038505398 0.02669177 -0.090488814 0.01878925
-0.016868696 -0.016320586 -0.009952367 0.020922022 0.02593402 0.041992266 0.0016131817 0.029988563
-0.003194851 -0.030910848 0.04407958 -0.0025202334 0.0482351 -0.01805319 -0.03772111 0.011257685
0.0045889663 0.049187325 0.007217905 -0.028514579 0.01817656 -0.026806673 0.014596629 -0.002717903
0.06432507 0.046172854 0.031036101 -0.031609103 -0.026456155 0.019324694 -0.028727723 0.006522658
0.015050017 0.009185683 -0.0033991458 -0.035244245 -0.0430354 0.048981573 0.015169208 -0.0618436
-0.014039284 -0.025893612 -0.0743759 0.05112193 -0.07033609 -0.038226046 -0.0706423 -0.010085745
0.007526244 0.019870143 0.061423853 0.009989248 -0.059567437 0.041589923 -0.016796721 0.015196683
0.0009802567 0.08301333 0.02850692 -0.012360671 -0.0433081 0.040965132 -0.030394047 0.053673517
-0.05568271 -0.01941688 -0.050658323 -0.058645405 -0.043135636 -0.026938377 0.024938382 -0.0023557022
0.0024851991 -0.028269509 -0.055901233 -0.0022595106 0.055352326 -0.02109247 -0.068119995 -0.060791794
-0.0017444191 0.040775508 -0.04196915 -0.060685426 -1.6937847e-05 -0.043666586 0.031187074 -0.039763547
0.03814712 0.051628485 -0.0056876326 -0.0469319 -0.017243776 0.020601364 -0.041976854 -0.00029516817
0.030636054 0.010642665 -0.035659038 -0.0012529452 0.038229987 -0.056462575 -0.019410959 -0.025708864
-0.040124547 -0.047830842 -0.054134145 -0.062160227 0.019388175 0.0004262239 0.06502516 0.0077680307
-0.046233725 -0.018560624 0.049177665 -0.04230117 0.016730135 0.015575059 -0.04573363 0.027663294
0.038044013 0.038781326 0.0002225216 0.023629786 -0.0025167759 0.028842514 -0.07408574 0.014344977
0.029158693 0.058948148 -0.044533577 -0.022513667 -0.047566235 -0.005852218 -0.038960535 0.006218455
-0.0014091774 0.015367699 -0.048274845 0.020917675 -0.022317158 0.047699824 0.051417403 -0.0069609173
0.023572123 -0.06289815 0.031387955 0.01237061 -0.0158366 -0.020240005 0.049775362 -0.071674936
-0.034604277 -0.062443867 -0.009044266 -0.051831 0.028481761 0.03651222 -0.01971777 -0.024584396
-0.018931126 0.044715844 -0.044600364 -0.010073841 0.029396266 -0.026306394 -0.035001993 0.011482642
-0.03231193 -0.05175701 0.00825538 -0.02750181 -0.05047615 0.014857216 0.057036165 -0.035092477
0.028667556 -0.04818773 -0.026650162 -0.012112561 0.005780673 0.034391083 0.007602611 -0.05162819
0.026728725 0.013921205 -0.020121787 0.011702285 0.043053694 -0.071452886 -0.05576402 -0.010073013
-0.019271608 0.0039404016 0.026616517 -0.021052739 0.041378547 -0.03704487 0.012132012 -0.0136020295
0.057859875 0.0369543 -0.050486125 0.022101605 0.0019825017 0.056640018 0.010979538 -0.039093852
0.04303544 -0.06664754 0.035254102 -0.045178354 -0.040550422 -0.024116594 -0.030605199 -0.04309127
-0.049723294 -0.022570185 -0.033694264 -0.00051341363 0.018302893 -0.00089090824 0.040610354 0.061239872
0.025092276 0.050388362 0.030824523 0.041207984 -0.017735522 0.045856543 0.037497837 -0.0012151004
0.042656235 0.041766692 0.032232907 0.036507457 -0.057376526 0.016719457 -0.07673075 0.048432708
-0.023921136 0.07403343 -0.009769189 0.056179624 0.025714127 -0.03472174 -0.047118884 0.058327504

model.fc3.bias f4 [256]
00000000: 8c83 2cbd 3d19 f3bd e981 aebd eb06 42bd
00000010: 9891 95bc 9338 afba 9f46 d8bc 936b e93c
00000020: 7f09 c63b d4bb b1bd f096 8cbd 6591 7bbd
00000030: 78a8 bcbd 51f4 1fbc e606 35be acc1 04bd
00000040: 8c39 3cbd 0521 8bbd 15cb a0bd 2e1c 85bd
00000050: 93f3 62bd 5934 cabd 7a40 c7bd 993d f3bc
00000060: fef1 f33b 5b31 8dbd 82cd 6fbc 5aeb 8ebc
00000070: 5c1e eabb 4fc1 cfbd 9c30 f5bd 50fd 00be
00000080: 5198 55bd 2cb2 25bd faa1 c7bc 38c9 573c
00000090: 9ba5 14be 2229 713c d1ee 62bd 2521 68be
000000a0: fec8 4dbd 2e6d 1c3d b4b7 69bd 78aa a23c
000000b0: 07d0 25be cf7d 92bd f7c6 8f3c 7452 86bd
000000c0: 2378 7bbd bd06 81ba 9bee aa3b 001f 21bd
000000d0: 74e2 e1bb 7434 7dbd c0c4 f8bd e51b c1bc
000000e0: 2718 61bc cd64 39be 071f 6abb 2035 d9bd
000000f0: bea6 43bc fcdf 08be 11d9 03bc 8879 d3bb
00000100: 62fd 21bb c13d 32bd 8db7 b1bd 61a7 0f3c
00000110: eabe e9bd f67b f4bd 4335 e4bd 5672 94ba
00000120: 65a0 aa3b 3977 a63b f270 84bc 7933 5ebb
00000130: c0b8 9a3d 8349 ccbd 45c1 0cbd 2b23 8ebd
00000140: 1502 10bd 02be 21be e43e d7bd ad1a 91bd
00000150: cb73 febd 3ade 5fbd 112f 42be 8245 0fbe
00000160: 7fc8 9dbd 6247 bfbd 11cd e2bd 0f9a 17bd
00000170: 11d8 e8bd 8be4 0ebb 81df 39bc 867c 83bd
00000180: 52c3 9fbd 12ae fcbd c21e cd3a 6b2f 41bb
00000190: bf08 c1bd 130f 47bd ee68 6ebd beb4 0fbe
000001a0: 6815 0bbe 2dfb 5a3e ed19 37bd 5f1e 25bd
000001b0: 2fbd c3bd a4fb 2dbe 5f15 bebd 7986 6fbd
000001c0: 045c cd3c 836f 5ebc f337 f3bd ad8d 0fbe
000001d0: 94d9 9cbd d757 8abd 0453 96bd fb5b 1ebe
000001e0: 106d fdbd 5cd3 98bc adc2 b6bd 2676 f3bd
000001f0: 692d e2bc 4ba9 c0bd 0e8b 68bc f53b 91bb
00000200: 16c7 d9bd 8873 d3bd 61cb dcbd 3c13 8ebd
00000210: 43ad 14bd e8f1 34be ef03 c2bd 2a15 77bd
00000220: ff22 b0bd d102 b6bd f74f 07be 1052 7a3e
00000230: ffcb 3cbe d3de a4bd 5bae 343a 3bba dfbd
00000240: 8880 d4bd 883c 71bd 3cd9 93bd b09d 16be
00000250: 4a1d 6ebd 516a 9abd 431c 7a3d 6e2e cfbc
00000260: 2757 c3bd 041d 9dbd 1121 febd 5f67 bbbd
00000270: 45d4 b4bd 7654 11be e95a d4bd 368b d6bd
00000280: 518a a0bd 2f4b acbd ac53 34bd 8643 a3bd
00000290: 51f0 73be 148f edbd 45e2 36be 6d1c 95bd
000002a0: 981d 64bc 0474 20bd 3aca 273a c881 6abd
000002b0: 3fa4 e5bc 87f1 46bd ff27 32bd 16fe 27be
000002c0: f2e8 e8bc 1c2f 39bd f3c5 87bd 6447 f1bd
000002d0: 5857 e3bd eded acbc 1e24 92bd 3bd4 debc
000002e0: 9a16 bdbc 71ef 08be 9c55 26be 318d efbd
000002f0: 4c81 1fbe 8c90 a2bd 81c5 d9bd 338c cbbd
00000300: f981 9abd 3567 f0bd b08e bcbd c203 66bd
00000310: f0d6 86bd e9e6 3bbc 7c64 c0bd 3679 2cbc
00000320: 305e b1bd a1be b3bd 898d 443c 804a babd
00000330: 6028 08bd b583 4abe 8eff 1f3c c549 c9bc
00000340: f6b7 1cbd 6917 9d3a c402 16be 7f00 0dbd
00000350: 4b09 15be 2284 cbbc 0b66 18bd 5be1 80bc
00000360: 3265 5cbc e6ad 74bd 8cdf 05be d8d4 493c
00000370: e2f2 c5bd ffba b4bd 6667 83bd a50c 833c
00000380: 08ea 1bbb bb8f c1bd bc1d e9bd a525 17be
00000390: 2046 a3bd b304 733e 909d 73bc c45c 4ebd
000003a0: facb a8bc d8d1 a8bd d9e3 fdbc f92d 30be
000003b0: 893c 6abd 902c 243c 650d 1cbd be78 69bd
000003c0: 5725 1cbe e4ca 863e 44f7 99ba 7e8c 00be
000003d0: f651 9abc 42f5 99bc 733b 96bd 7a78 093d
000003e0: 162f 3ebd 1e16 b1bd 4c75 a3bd 2533 e4bd
000003f0: 7949 c7bc 69e4 02be 4acb 34bd 3382 863c
-0.04211764 -0.11870048 -0.08520872 -0.04736988 -0.018257901 -0.0013368301 -0.026400862 0.028493678
0.0060436125 -0.086784035 -0.068647265 -0.061417956 -0.0921182 -0.009762839 -0.17678413 -0.032411262
-0.04595332 -0.06793407 -0.07851235 -0.064995155 -0.05540807 -0.09873266 -0.09729095 -0.029692458
0.007444619 -0.068941794 -0.014636399 -0.017446209 -0.0071447324 -0.101442926 -0.11972162 -0.12596631
-0.052147213 -0.04045312 -0.024369229 0.013170533 -0.14516298 0.0147192795 -0.055403534 -0.22668894
-0.05024051 0.03819006 -0.05705996 0.019856676 -0.16192637 -0.07152902 0.017550929 -0.065586954
-0.06139387 -0.0009843927 0.0052164323 -0.039336205 -0.0068934504 -0.0618176 -0.12146902 -0.023572871
-0.0137386685 -0.18104859 -0.003572406 -0.10605836 -0.01194161 -0.13366693 -0.008047358 -0.0064536966
-0.0024717678 -0.043515924 -0.08677588 0.008767934 -0.11413367 -0.11937706 -0.11142971 -0.0011325579
0.005207109 0.0050801304 -0.016167138 -0.0033905192 0.075547695 -0.09974959 -0.034364004 -0.069403015
-0.035158236 -0.15795138 -0.10510042 -0.07085166 -0.124244295 -0.05465529 -0.18963267 -0.13991359
-0.07704257 -0.09339787 -0.110742696 -0.037012156 -0.113693364 -0.0021803703 -0.011344791 -0.06420235
-0.07800926 -0.12337889 0.0015649425 -0.0029477726 -0.09425496 -0.04859836 -0.058205537 -0.14033791
-0.13582385 0.21384878 -0.04470246 -0.040312167 -0.09557568 -0.16990525 -0.0928142 -0.058477852
0.02506829 -0.013576391 -0.11875906 -0.14018889 -0.07658687 -0.06755035 -0.07340053 -0.15464775
-0.12374318 -0.018655472 -0.0892385 -0.118877694 -0.027609544 -0.0940729 -0.0141933095 -0.0044321963
-0.10633676 -0.1032477 -0.10780979 -0.069372624 -0.036298048 -0.17670405 -0.094734065 -0.060322918
-0.08600425 -0.08887256 -0.13214098 0.24445367 -0.18437193 -0.08050313 0.0006892436 -0.109241925
-0.10376078 -0.058895618 -0.072191685 -0.1470859 -0.0581334 -0.075398095 0.06106211 -0.025290694
-0.09538107 -0.0767155 -0.12408651 -0.09150576 -0.0882955 -0.14192376 -0.10368902 -0.10475771
-0.07838882 -0.08412778 -0.04402511 -0.079718634 -0.23822142 -0.115995556 -0.17859752 -0.072808124
-0.013923071 -0.03917314 0.00064006785 -0.057252675 -0.02803242 -0.048570182 -0.043495174 -0.1640552
-0.02843139 -0.045210943 -0.06629553 -0.11781195 -0.11100644 -0.021109546 -0.07135795 -0.027200809
-0.023082066 -0.1337259 -0.16243595 -0.11696852 -0.15576667 -0.079377264 -0.10633374 -0.0993885
-0.075443216 -0.11738435 -0.09206903 -0.056155927 -0.06583965 -0.0114686275 -0.09394166 -0.010526946
-0.08660543 -0.08776594 0.011996635 -0.09096241 -0.03324163 -0.19776805 0.009765519 -0.024571309
-0.038261376 0.0011985126 -0.14649493 -0.0344243 -0.14554326 -0.02484328 -0.03720669 -0.015732458
-0.013451861 -0.059736155 -0.13073558 0.012318812 -0.09665467 -0.08824729 -0.06416206 0.01599724
-0.0023790617 -0.094512425 -0.113826245 -0.14760454 -0.0797236 0.23732261 -0.014869109 -0.050381437
-0.020605076 -0.082431495 -0.030992435 -0.17205037 -0.057186637 0.01002039 -0.03809871 -0.056999914
-0.15248619 0.26326668 -0.0011746665 -0.12553594 -0.01883791 -0.018793706 -0.07335558 0.03356216
-0.046431623 -0.08646797 -0.07981357 -0.111425675 -0.024327027 -0.12782444 -0.044139184 0.016419506

model.fc4.weight f4 [128, 256]
00000000: 4fa3 c93c 2489 89bd 8a56 be3d 0f1c 6ebc
00000010: 34c6 343d cf4a 283c fd83 1a3d 05cc fa3a
00000020: 5c70 68bd 0895 263b 30be d83b 192b ef3c
00000030: a077 833c 78bc c43b a279 4ab9 0f96 0bbd
00000040: 8dd0 1abd 79ba 53bd 1883 a33c 8977 7bbd
00000050: cfed 323d a293 f4bc 1d46 8f3c 24bd 45bc
00000060: e98b b4bc 6d87 113c 6199 b63c 3cc5 38bc
00000070: d583 dcbc e20d 48bd 78a7 013d 0e5d 18bd
00000080: 6502 5ebd 120f 99bc d2ed 13bd e34a 91bc
00000090: b894 33bc 0b74 273d 25e4 753b 9c08 cd3c
000000a0: 0ed3 66bd 36fa 8dbb 334e 57bc bd38 52bd
000000b0: 6426 7cbd 24d7 ef3c a1b4 81bd 70c5 73bd
000000c0: ee14 32bd ad68 773c a468 483c 51cb 22bc
000000d0: 13dc c63b 2b41 603d ca52 8dbc e3c0 75bd
000000e0: 7282 613d fe3e cf3c 3be4 e83b 9fb8 1bbd
000000f0: 3f48 873b 3003 54bc d0e6 a2bc 9b36 a73c
00000100: 931f 5bbb 4362 913c 19e3 59bc 786d ce3c
00000110: a731 863c 8e10 d33c 5b2a ca3c fedb ce3c
00000120: 4140 2bbd f261 1cbb 6f00 413c a5af 203d
00000130: 9b4b f939 e243 563d 337c c2bc f2e1 453d
00000140: 2c5c 803d 9c2a c0bc a440 12bc 239b 8a3b
00000150: 1d1f 533d e18c d93c b425 d53c 474e 6ebc
00000160: 92c8 c33b 5deb acbb 09e3 db3d ca45 8d3d
00000170: 03d3 863c 6109 fb3c fed0 7d3c 19ec c5bc
00000180: 2ee7 8f3c 5cc6 24bd b75f f93c 88d1 f4bc
00000190: 60fe 673c 9471 c4bc 3f1b 20bd 3933 7d3d
000001a0: 1cac 3abd d626 d53a 96d8 6a3d 6a3f 41bd
000001b0: d1bd e1bc c4ec 503d 976e 843c 78c7 93bd
000001c0: 4ba4 1b3c ebee 1dbb 9f12 8e3d a021 b1bb
000001d0: 841a b6bc 957a 3a3b ae61 b33c 547e eb3c
000001e0: 2100 97bd 417f 5c3d ede1 c83c feea 7a3d
000001f0: 769d b03d ee2e 66bd d299 eebc ed3c 203c
00000200: 0a24 023c ee89 593d ec94 083a de94 713b
00000210: 381c fcbc 5481 843d 0bd5 d33c 1563 3a3d
00000220: 9f43 843b 8376 8a3c 76b3 89bc ccaa 3cbd
00000230: db15 febc 9392 21bd 19c9 a5bd bd0c 34bb
00000240: a36b acbc f1d9 8a3c b70c 00bd 7ea8 0cbd
00000250: 0616 abbc 2807 f2bc 7dda 9a3c b1ff b33c
00000260: 1aea 74bd 9171 7abc 2e5c a23d 5523 1bbc
00000270: 3cd0 653d 0957 a4bd 4f3d 3abd 2fc1 06bc
00000280: 76ee 87bc 35b6 d63c 9043 693d b3c0 a9bc
00000290: 7639 10bb 653f b83d 8a1f 8cbd 2810 40bd
000002a0: 2163 133d 822f c73c 0a1b 6ebd cd59 27bd
000002b0: 335c bcbc 0614 a2bc 4cc1 903c 3b9b 633d
000002c0: 5972 013d a576 89bd d865 29bd e95a 163d
000002d0: 9038 353c 9332 c63c 7bd0 be3c 021c be3c
000002e0: 3f31 8cbc f109 51bd fcde aabd 5cd1 2c3d
000002f0: bfeb a63c 7e74 4b3d c75f 003d c9a1 c33d
00000300: 9a90 2bbb ea48 aabb db7e 04bd 441a 9537
00000310: cbf9 033c 9b24 e53c ac8d 88bd c314 c1bc
00000320: 4af2 30bc 75bb 923c 4891 0cbd 0e33 99bd
00000330: af2a fd3c 7a5d 1c3d 59b2 933d 49d8 1cbd
00000340: a95b 443d 483f 86bc e34b 513d dafe 823d
00000350: 12e9 d2bc 542a d73c a0d7 b83c fca0 653d
00000360: 84b4 9cbc be77 d3bc 49f1 843d c1eb 3b3d
00000370: 5107 1dbc 8118 8dbd cd40 efbc 0302 493c
00000380: a379 d63c 956a 07bb a059 083d 6092 51bd
00000390: 2203 c1bd 03b4 8dbc 1eef 7c3c 209a 183d
000003a0: b353 233d 6dc2 6c3b a0e8 da3c 7f85 52bd
000003b0: e47a 3cbc 3efc d13b 6afb b5bd 199a c43c
000003c0: 3c84 e5bc d7d7 77bc e0bb 09bd 234a 9dbc
000003d0: 0597 38bd 553c 9d3c 3707 71bd aac1 fa3c
000003e0: 66db 23bd 7934 0c3b 31f0 14bc 98c1 0cbd
000003f0: ef78 913b 7a02 5ebd 8f6e 09bd 7f65 403c
0.024614004 -0.067156106 0.0929385 -0.014533057 0.044134334 0.010271742 0.03772353 0.0019134289
-0.05674778 0.002541842 0.006614469 0.029195355 0.016048253 0.0060039125 -0.00019309533 -0.034078654
-0.037796546 -0.051691506 0.019959971 -0.061393294 0.043683823 -0.029855553 0.017489487 -0.01206902
-0.02203937 0.008882386 0.022289934 -0.011277493 -0.026918331 -0.048841365 0.03165385 -0.03719812
-0.054201502 -0.018683944 -0.036115475 -0.017735904 -0.01096075 0.04088215 0.0037520018 0.02502852
-0.05635362 -0.004332806 -0.013141203 -0.05132364 -0.06156005 0.029277392 -0.0633328 -0.059514463
-0.04347699 0.01510064 0.0122319795 -0.00993617 0.0060687154 0.05474965 -0.017251391 -0.059998404
0.055056043 0.025298592 0.0071072853 -0.038017865 0.0041284855 -0.012940213 -0.01988545 0.02041178
-0.0033435568 0.01774705 -0.013298773 0.025198683 0.016381098 0.02576473 0.0246784 0.025251385
-0.041809324 -0.002386209 0.0117798885 0.039230008 0.0004754931 0.05231083 -0.023740863 0.04831118
0.062675804 -0.023457818 -0.008926544 0.0042299195 0.051543344 0.026556434 0.026018955 -0.01454503
0.0059748376 -0.005277081 0.10736663 0.06898077 0.01645804 0.03064412 0.015491722 -0.024160432
0.01756629 -0.040228233 0.030441148 -0.029885069 0.014159769 -0.02397994 -0.039088484 0.061816428
-0.045574293 0.0016262184 0.05733546 -0.047179617 -0.027556332 0.051007047 0.016166015 -0.0721578
0.00949962 -0.0024098705 0.069371454 -0.0054056197 -0.02222944 0.0028454412 0.021897163 0.028746761
-0.073730715 0.053832296 0.024521792 0.061259262 0.08623783 -0.0561971 -0.029126082 0.009780151
0.007943163 0.053110056 0.00052101794 0.0036862413 -0.030775174 0.0646998 0.025858423 0.04550465
0.0040363814 0.016902214 -0.016809206 -0.046061322 -0.03101628 -0.039446425 -0.08094997 -0.0027473413
-0.021047419 0.016949626 -0.031262126 -0.034340374 -0.020884525 -0.029544428 0.018903011 0.02197251
-0.05979357 -0.015285865 0.07927738 -0.009468873 0.05610679 -0.08024413 -0.045468625 -0.0082247695
-0.0165932 0.02620993 0.0569492 -0.020721769 -0.0022006906 0.089964665 -0.06841953 -0.046890408
0.03598321 0.024314646 -0.058131255 -0.040857125 -0.022993183 -0.019784939 0.017670296 0.05556796
0.03160319 -0.06712083 -0.04135689 0.036707792 0.011060849 0.024194038 0.02329277 0.023206715
-0.017113326 -0.05103487 -0.08343312 0.04219185 0.020376084 0.049671642 0.03134134 0.095523424
-0.0026178719 -0.0051966803 -0.03234754 1.7774415e-05 0.008055161 0.027971556 -0.06667647 -0.02356947
-0.010799954 0.017911652 -0.03431824 -0.07480441 0.030904142 0.038175084 0.072117515 -0.038292203
0.047938976 -0.016387597 0.05109776 0.06396265 -0.025745902 0.0262653 0.022563756 0.05606173
-0.019129045 -0.025813933 0.06491334 0.04587913 -0.009584264 -0.068894394 -0.029205704 0.012268546
0.026181048 -0.0020662893 0.033288598 -0.051164985 -0.09424426 -0.01729775 0.015437869 0.03725636
0.039874744 0.003612663 0.026722252 -0.051396843 -0.011503909 0.0064082434 -0.08885844 0.02399926
-0.028017156 -0.015127144 -0.033626437 -0.01920039 -0.0450659 0.019193808 -0.05884477 0.030609924
-0.040004157 0.002139358 -0.009090469 -0.034364313 0.0044394652 -0.05420158 -0.033552703 0.011742949

model.fc4.bias f4 [128]
00000000: 85fa 933c 7f22 61bd a876 1fbd 792e 0dbc
00000010: b944 a3bd 28d2 f33b 501a 073d 1fc3 b9bd
00000020: cfa9 b0bc d221 fbbd 05d3 12be 9b29 91bd
00000030: 5d61 4bbd e0f0 3abb 8c21 e9bc 693a 3e3c
00000040: ed04 0b3d fa51 c8bc d527 d23c f991 583c
00000050: 118a 003c c1dc 9dbc ceeb 03bc c31d 3fbd
00000060: 60d0 fe3b 550c b63c 6e90 e23c 2d12 9ebd
00000070: d6ef 55bd abf1 103d 5686 22bd aa30 d4bd
00000080: 233f e13c 3a8a 2abc e3f7 31bc 3bd8 74bd
00000090: 0e20 af3c a40f 74bd 9426 54bd 169a 9bbd
000000a0: 804c b9bd 6cde 5dbd a193 4a3d 4c60 04be
000000b0: 693e 9cbd 0150 3ebc 1f4d 0c3d 47f7 1cbd
000000c0: 7f80 2abd be12 1bbe 86f8 25bd d9ea 953c
000000d0: 7132 e1bd e0eb 91bb b4e0 efbc ada3 85bd
000000e0: 16ce 39bd 3773 8f3c a423 10be 3c40 2e3c
000000f0: f6a3 cfba 5987 dfbc a5a9 80bd 6822 113d
00000100: 8ce7 e03c 4e65 c7bd d0dd 7dbd 3574 653b
00000110: 8ce1 07bd 268c b9bb dd41 0abc eeb4 043c
00000120: 0005 9dbd 16a1 28bd 7cc9 26bd a200 46be
00000130: bcba 4bbd 9225 f3bc 3e1c 393d d979 23bd
00000140: 30cd 51bd c742 febb 3d31 a2bc 263f 5ebd
00000150: 26c8 b5bd 9312 05be 1b7d 55bc 48c3 adbd
00000160: 3e12 55bd 41b9 45bd f3e1 8fbc 74e8 eebd
00000170: aaef 0dbd c25b 963b b542 42bd f4da 063d
00000180: 0b78 b83c 76b3 fabd b427 74bd b0f5 4ebd
00000190: 2515 aebd 2b53 a8bd f459 b73c f968 87bd
000001a0: 1479 2dbd c85e 37bd a40f 04bb 8875 82bd
000001b0: 86ff 9aba 55cb fcbd c6a4 203d ef21 80bc
000001c0: 0875 c93c f9fd 323d 0bf6 00bd 46df 73bc
000001d0: c2b6 c4bc 722a 1fbc 8c2b 11bd cd16 583b
000001e0: bebb 0ebd 9093 a5bd d7c1 c7bb cbcd 75bd
000001f0: 0966 01be e56f 3abd 6e00 0a3d 0f8e 043c
0.018063793 -0.05496454 -0.03893152 -0.008617037 -0.07972092 0.007440824 0.032984078 -0.090704195
-0.021565346 -0.1226231 -0.1433831 -0.07088014 -0.0496534 -0.002852492 -0.02845838 0.011610606
0.033940244 -0.024453152 0.025653759 0.013218396 0.007845418 -0.019270303 -0.008051826 -0.046659242
0.007776305 0.022222677 0.02765676 -0.077183105 -0.05223068 0.035386723 -0.039678894 -0.103608444
0.027495926 -0.010408932 -0.010862323 -0.059776526 0.02137759 -0.05958523 -0.051794603 -0.07597749
-0.09047794 -0.054167196 0.049457196 -0.1292736 -0.07629091 -0.011615754 0.034253236 -0.03832176
-0.04162645 -0.15143868 -0.040520214 0.01830046 -0.10995949 -0.0044531673 -0.029281951 -0.06525359
-0.045362554 0.017510993 -0.14076096 0.010635432 -0.0015841711 -0.027286218 -0.06282357 0.035433203
0.02745416 -0.09736119 -0.061979115 0.0035011892 -0.033174083 -0.005662459 -0.008438555 0.008099778
-0.07666969 -0.04116925 -0.040719494 -0.19336179 -0.04973863 -0.029681 0.04519295 -0.039911125
-0.051221073 -0.0077594253 -0.01979887 -0.05425944 -0.08876066 -0.12995367 -0.013030316 -0.084845126
-0.05201935 -0.048272375 -0.017563796 -0.11665431 -0.03465239 0.004588575 -0.047426898 0.032923654
0.022518178 -0.12241261 -0.059608176 -0.050527275 -0.08500127 -0.08218988 0.02238176 -0.06611819
-0.042351797 -0.044768125 -0.0020150924 -0.063700736 -0.001182542 -0.1234347 0.03921964 -0.01564118
0.024591938 0.04369924 -0.031484645 -0.0148847755 -0.024012927 -0.00971471 -0.03544192 0.0032972575
-0.034847014 -0.08084786 -0.0060961056 -0.060010713 -0.1263658 -0.045516867 0.033691816 0.00809051
