Assignment-2/models/test_moons.pth (torch, 9191 bytes, 5 tensors)

time_embed.weight f4 [200, 2]
0	0x3fae3025	1.3608443
1	0x3f078b0b	0.5294654
2	0xbfa983b1	-1.3243314
3	0xbf54d73d	-0.8314093
4	0x3e97643f	0.2956867
5	0xbe51d888	-0.20492756
6	0xbe1c6a5e	-0.15274951
7	0x3fe5d28f	1.7954882
8	0x3e0d39e7	0.13791619
9	0xbfabb481	-1.341446
10	0x4003ff75	2.0624669
11	0x3fafce89	1.3734905
12	0xbf2b2797	-0.66857284
13	0xbee2a4c3	-0.44266328
14	0x3e83b457	0.25723526
15	0xbeead121	-0.45862678
16	0xbd945d7e	-0.07244395
17	0xbee9f772	-0.45696598
18	0xbf029887	-0.5101399
19	0x3eb9a585	0.36259094
20	0x3ead16e5	0.3380653
21	0x3edbb248	0.42909455
22	0x3e3afb7a	0.18259993
23	0x3e04de05	0.12975319
24	0x3f25c3f4	0.64752126
25	0xbfd2e5dd	-1.6476399
26	0x3f316dfc	0.6930845
27	0xbd8b9660	-0.06815791
28	0x3fbb1c35	1.4617983
29	0xbea95c86	-0.33078402
30	0x3fcc02ca	1.5938351
31	0x40119f7d	2.2753594
32	0x3e477910	0.19479775
33	0xbfdda551	-1.7316076
34	0xc0167fe5	-2.351556
35	0xbef9ce71	-0.48790315
36	0xbf920bd4	-1.140986
37	0xbf4f4c1c	-0.8097551
38	0xbf919ef7	-1.1376637
39	0x3f7f7c91	0.9979945
40	0xbf01269c	-0.5044954
41	0xc00c2aab	-2.1901042
42	0xbe16c4ba	-0.14723483
43	0xbf92d257	-1.1470441
44	0x3f35ea4d	0.7106064
45	0xbef577ee	-0.47943062
46	0x3f799395	0.9749082
47	0xbe4ae3fd	-0.19813533
48	0xbf30fdec	-0.69137454
49	0xbed03bdc	-0.4067067
50	0x401ef44a	2.4836602
51	0xbe975762	-0.29558855
52	0x3eb00309	0.34377316
53	0x3dfc6fd9	0.12326021
54	0x3f03b30a	0.51445067
55	0xbe466b83	-0.1937695
56	0xc01b47f4	-2.4262667
57	0xbecbb614	-0.39787352
58	0x3e9e2a28	0.30891538
59	0xbea1ff95	-0.31640306
60	0x3e31dbee	0.17369053
61	0xbd24bb5e	-0.04021775
62	0x3ec43cc7	0.3832762
63	0xbeb8f87b	-0.36127076
64	0xbeb7b9ab	-0.3588384
65	0xbee404ac	-0.44534814
66	0xbfd0c76c	-1.6310859
67	0xbe32d5c4	-0.17464358
68	0xbf253b2d	-0.6454342
69	0x3f3cd64f	0.7376451
70	0xbef2c23f	-0.47413823
71	0xbf14b4da	-0.5808846
72	0xbf11b5c8	-0.56918
73	0xbf245b4e	-0.6420182
74	0x3ea577be	0.3231792
75	0xbf391d36	-0.723102
76	0x3f818070	1.0117321
77	0x3f2f5e65	0.6850341
78	0xbf813c45	-1.0096518
79	0x3ef2f7b5	0.4745461
80	0x3f0b7e6c	0.5448978
81	0x3ffa62cc	1.95614
82	0xbe30a5ab	-0.17250697
83	0xbf8f85ed	-1.1212746
84	0xbf81416a	-1.0098088
85	0xbba7bde3	-0.005119072
86	0x3e99cd1d	0.30039302
87	0x4010bb45	2.26143
88	0xbfc91f2e	-1.571264
89	0x3f620e03	0.8830263
90	0x3fed7c7c	1.8553615
91	0x3e7bd651	0.24593474
92	0x3ee653c7	0.44985792
93	0xbfb3ee53	-1.4057106
94	0xbeba14c8	-0.3634398
95	0xbf01b219	-0.5066238
96	0xc04108b8	-3.0161572
97	0xbf7e673c	-0.99376273
98	0x3b943173	0.0045224964
99	0xbeb37974	-0.350536
100	0x3f549ae5	0.8304885
101	0xbf8b4cbd	-1.0882794
102	0xbf814269	-1.0098392
103	0xbfcb3066	-1.5874145
104	0x3e6dd72e	0.23226616
105	0x3ea8dd14	0.3298117
106	0x3da6ed92	0.08150782
107	0xbf2bccdf	-0.67109483
108	0x3f435ec8	0.763165
109	0xbfc26214	-1.5186181
110	0x3e9b6433	0.30349883
111	0xbf1380eb	-0.5761859
112	0xbf10ea1a	-0.5660721
113	0xbd583dbe	-0.052793257
114	0xbf9207e7	-1.1408662
115	0xbe8d99c2	-0.2765637
116	0x3ebafc1c	0.3652047
117	0x3e4fdd47	0.20299254
118	0x3ef951b3	0.48695144
119	0x3ebc8e5a	0.36827356
120	0x3d897523	0.06711795
121	0xbf9e5f13	-1.2372764
122	0x3f4f71cf	0.81033033
123	0x3de0052c	0.109384865
124	0xbedfbba4	-0.43697846
125	0xbf4ad02d	-0.792239
126	0xbfccd781	-1.6003267
127	0xbf97ba14	-1.1853662
128	0x3f51e0d7	0.81983703
129	0x3f9bac96	1.2162044
130	0xbe891e98	-0.26781154
131	0x3f451f9a	0.77001345
132	0xbf8a6226	-1.0811203
133	0xbf37008f	-0.7148523
134	0xbf5720ca	-0.8403441
135	0x3f3eb2db	0.7449166
136	0x3f11d348	0.56963015
137	0xbfa36c16	-1.276736
138	0xc0147ca5	-2.3201077
139	0x3f09be2d	0.5380581
140	0x3f52e7ad	0.8238476
141	0xbf6e2179	-0.93019825
142	0xbed6ec1f	-0.4197702
143	0xbfd3d548	-1.6549463
144	0x3f73eb2f	0.95280737
145	0x3faa79e0	1.3318443
146	0x3e712f4f	0.23553203
147	0xc009a4a9	-2.150675
148	0xbf73ef3a	-0.95286906
149	0x3e9fd324	0.31215775
150	0xbeb0bc18	-0.34518504
151	0xbf36a9b3	-0.7135269
152	0xbf870831	-1.0549375
153	0x3f0fcfd2	0.56176484
154	0xbe0129e6	-0.12613639
155	0x3fa69719	1.3014861
156	0x3f9c2013	1.2197288
157	0xbe911549	-0.28336552
158	0xbf33968f	-0.7015161
159	0xbea47be8	-0.32125783
160	0x3fbb03a3	1.4610485
161	0x3da4a941	0.08040095
162	0xbf1ecd37	-0.62031883
163	0xbf30064d	-0.68759614
164	0xbc24125f	-0.010014146
165	0xbf8fbdd6	-1.1229808
166	0xbfc052dd	-1.5025288
167	0x3fd72f2b	1.681127
168	0x3e343d49	0.17601503
169	0x3f9c36ab	1.2204183
170	0x3d9cb4b6	0.076516554
171	0x3f01788d	0.5057457
172	0xbf2e25a5	-0.6802619
173	0xbf55632e	-0.8335446
174	0x3fa41945	1.2820212
175	0x3fc74fb7	1.5571202
176	0xbe8ef7b0	-0.27923346
177	0xbe1e99d7	-0.15488373
178	0x3fa29d2b	1.2704214
179	0x3f1c866d	0.6114262
180	0x3f147c1d	0.5800188
181	0xbfb12c4d	-1.3841645
182	0xbff7b33d	-1.9351574
183	0xc0124bc5	-2.2858746
184	0x3f05da60	0.5228634
185	0xbf4002ea	-0.75004447
186	0xbf2714a5	-0.65265876
187	0x3f1075c1	0.5642968
188	0x3fa409de	1.2815511
189	0xbec6c573	-0.38822517
190	0x3e990b3d	0.29891387
191	0x3f6e5d53	0.9311115
192	0xbeef3c29	-0.46725586
193	0xc00fafc5	-2.2451031
194	0x3fb327e5	1.399655
195	0x3f0e7da9	0.5566049
196	0x3f301a8e	0.6879052
197	0xbf0e5caf	-0.55610174
198	0xbdad08dd	-0.08448956
199	0xbfbebe27	-1.490178
200	0xbf9058a4	-1.1277051
201	0xbf7824b1	-0.96930987
202	0x3f40f802	0.7537843
203	0x3f67f7e4	0.90612626
204	0x3c96c6ab	0.01840528
205	0xbee1dfac	-0.4411596
206	0xbfb76918	-1.4328947
207	0xc026e8db	-2.6079624
208	0xbead2208	-0.33815026
209	0xbf0f7d26	-0.56050336
210	0xbf168d6c	-0.5880954
211	0xbe89029e	-0.2675981
212	0xbee5b00a	-0.4486087
213	0x3fd2794e	1.6443269
214	0x3ecd3143	0.40076646
215	0xbfbe8e00	-1.4887085
216	0x3ee7e446	0.45291346
217	0xbf74e494	-0.9566128
218	0xbf019c98	-0.5062957
219	0xbeb2d97a	-0.34931546
220	0xbb5e963c	-0.0033964058
221	0x3f838f6f	1.0278147
222	0xbf0e7ae2	-0.55656254
223	0xbf6e0eaa	-0.92991126
224	0xbea6abb1	-0.32552865
225	0xbfa0e176	-1.2568805
226	0xbe78dcfb	-0.24303047
227	0xbefc68c8	-0.49298692
228	0xbf8d8ea1	-1.1059152
229	0xbf9a4cef	-1.2054728
230	0xbf3cce69	-0.73752457
231	0x3f588a07	0.84585613
232	0x3fa0917c	1.2544398
233	0x3fa0ee62	1.2572749
234	0xbf8f8468	-1.1212282
235	0xbf92e2cb	-1.1475462
236	0xbf4a45fb	-0.7901303
237	0xbf8d7ce3	-1.1053737
238	0x3f7aeb1a	0.98014987
239	0xbeae3de8	-0.34031606
240	0x3f61cd8b	0.8820426
241	0xbf55ed7f	-0.83565515
242	0x3fcf83c0	1.6212082
243	0x3f24e477	0.6441111
244	0x3c06d29c	0.008228924
245	0xbe965053	-0.29358158
246	0x3feaa4a6	1.8331497
247	0x3c21c486	0.009873515
248	0xbf2350b9	-0.6379505
249	0xbf85aec2	-1.0443957
250	0x3d3c66aa	0.045996346
251	0x3ed54398	0.41653132
252	0x40410845	3.0161297
253	0xbfaf1016	-1.3676784
254	0xbf00c53c	-0.50300956
255	0xbeedc918	-0.46442485

model.0.weight f4 [256, 2]
0	0x3f14a1bc	0.5805929
1	0xbdd17a92	-0.102284566
2	0xbe4d00a3	-0.20019774
3	0x3e84aba2	0.25912195
4	0xbedba3b9	-0.42898348
5	0x3ee3e510	0.44510698
6	0xbf231555	-0.63704425
7	0xbf269312	-0.6506816
8	0xbf00daeb	-0.5033404
9	0xbf2e16fc	-0.6800382
10	0xbef517ba	-0.47869664
11	0x3eba7bf4	0.36422694
12	0xbebafa14	-0.3651892
13	0x3d343450	0.0439952
14	0x3daa8272	0.08325662
15	0x3e9172d2	0.28407913
16	0xbf21fca8	-0.6327615
17	0xbee195cf	-0.44059607
18	0xbec72d8e	-0.38901943
19	0x3f02bc53	0.5106861
20	0x3ea17091	0.31531194
21	0x3f3081ae	0.68947875
22	0x3edf9ff3	0.4367672
23	0xbd0927a3	-0.033485066
24	0x3cf500b0	0.029907554
25	0x3f146eec	0.57981753
26	0xbedd280a	-0.4319461
27	0x3ec2459a	0.37943727
28	0x3e32671d	0.17422147
29	0x3e820a90	0.25398684
30	0x3eddb5ff	0.43302915
31	0xbeaf9d02	-0.34299475
32	0x3f06e787	0.5269703
33	0xbea683f4	-0.32522547
34	0x3f22a65e	0.63535106
35	0xbe582282	-0.21106914
36	0xbe835ad3	-0.2565523
37	0x3dca9185	0.09891037
38	0x3db9bfaf	0.09069764
39	0xbe825f4c	-0.2546333
40	0xbf0e26d8	-0.5552802
41	0x3f319d77	0.693809
42	0xbec3175f	-0.38103768
43	0xbc3a2edc	-0.011363711
44	0x3cca16ad	0.024669016
45	0xbf03c8e2	-0.514784
46	0xbd8f3f39	-0.06994481
47	0xbdbe10f2	-0.09280576
48	0xbf1b1414	-0.6057751
49	0x3e004133	0.12524872
50	0x3f2597cc	0.6468475
51	0xbec60ee8	-0.38683248
52	0x3ec63277	0.38710377
53	0x3e632f2f	0.22185968
54	0xbf08e1d2	-0.53469574
55	0x3e2a9076	0.1665667
56	0xbd57091c	-0.05249892
57	0x3e1c9fad	0.15295286
58	0x3d8378f4	0.06419554
59	0xbe50a6f3	-0.20376186
60	0xbe1f13c5	-0.15534885
61	0xbe90a6a3	-0.28252134
62	0x3f153c82	0.5829545
63	0x3f2d3d2a	0.67671454
64	0x3e0e46ff	0.1389427
65	0x3ed25aa4	0.41084778
66	0xbe9b781b	-0.3036507
67	0xbe34981a	-0.17636147
68	0x3ec6d15a	0.38831598
69	0xbe43a6f8	-0.19106662
70	0x3e8f0b35	0.27938238
71	0xbe6294fa	-0.22127143
72	0x3d9dbddd	0.07702229
73	0x3f13b92a	0.5770441
74	0x3ef6de55	0.482165
75	0xbe526d5f	-0.20549534
76	0xbee31863	-0.44354543
77	0xbe8ebe6d	-0.27879658
78	0x3d7c7bbe	0.061641447
79	0x3f014629	0.5049768
80	0xbe3ea737	-0.18618475
81	0x3f036de2	0.5133954
82	0xbed76bac	-0.42074335
83	0xbb7601b5	-0.0037537639
84	0x3dcf1c08	0.101127684
85	0xbd612e75	-0.054975946
86	0xbeb7f06f	-0.35925624
87	0xbedab42c	-0.42715585
88	0x3f29de6e	0.66355026
89	0x3ef88490	0.48538637
90	0x3f0ce05d	0.5502985
91	0xbdad6b1c	-0.08467695
92	0xbf226d97	-0.6344847
93	0x3e246e51	0.16057707
94	0x3d86f92e	0.06590496
95	0xbf029a5a	-0.5101677
96	0x3e26ba6c	0.16282052
97	0x3f037202	0.5134584
98	0x3e61a22d	0.22034521
99	0x3f0a8e01	0.5412293
100	0xbe00adc8	-0.12566292
101	0x3e4753d8	0.19465578
102	0xbe376f35	-0.17913516
103	0xbe2cf4a7	-0.16890202
104	0xbed9d11f	-0.4254236
105	0x3f1d803f	0.61523813
106	0x3e70593a	0.23471537
107	0x3ea8aa5a	0.32942468
108	0xbec6a663	-0.38798818
109	0xbec2a750	-0.38018274
110	0x3bed553f	0.007242828
111	0xbbe70200	-0.007049799
112	0xbc10fab6	-0.008848837
113	0x3f0dc509	0.55378777
114	0x3effad96	0.49937123
115	0x3e88fcbe	0.26755327
116	0x3f267750	0.65025806
117	0xbdf79056	-0.12088077
118	0xbea890ee	-0.32923073
119	0x3ed3e767	0.41387483
120	0xbf322a2a	-0.6959559
121	0x3f3695a3	0.7132208
122	0xbea48bb8	-0.32137847
123	0x3eaeeda8	0.34165692
124	0xbeee8346	-0.4658453
125	0x3f0691af	0.52566046
126	0x3e9641f8	0.29347205
127	0x3ee6bde8	0.45066762
128	0x3ed790ab	0.4210256
129	0x3f1ad631	0.6048308
130	0xbdd7f8fa	-0.105455354
131	0xbe6d4f7a	-0.23174849
132	0x3e2a7c38	0.16648948
133	0x3ec52188	0.38502145
134	0xbf2e6daa	-0.68136084
135	0xbde2c967	-0.11073571
136	0x3e8bfcde	0.2734136
137	0xbf16a8ce	-0.58851326
138	0x3e54ca40	0.20780277
139	0x3eeb8f0c	0.46007574
140	0xbc54c939	-0.012987428
141	0xbcfb2ae7	-0.030660106
142	0x3cd61c99	0.026136683
143	0xbf24a1fe	-0.6430968
144	0x3e7cfd8d	0.24706097
145	0x3da1cd6e	0.07900511
146	0x3eac524a	0.33656532
147	0x3ee9809c	0.45605934
148	0x3f00a1ac	0.5024669
149	0x3b4e2610	0.0031455792
150	0xbf18fdf5	-0.5976251
151	0xbf01e380	-0.5073776
152	0xbefeeb6d	-0.4978899
153	0xbd942805	-0.072341956
154	0xbe26d27c	-0.16291231
155	0x3eda3f6e	0.42626518
156	0x3e445114	0.19171554
157	0xbca8f6cb	-0.020625493
158	0x3c848387	0.016175998
159	0xbf262e9b	-0.64914864
160	0x3f01ce24	0.5070517
161	0xbe3f13d9	-0.18659915
162	0xbf29a2de	-0.6626414
163	0xbf0de72a	-0.55430853
164	0x3f270940	0.6524849
165	0x3ecba4ac	0.39774072
166	0xbe645b67	-0.22300492
167	0x3ebbbf62	0.3666945
168	0x3d75de0c	0.060026214
169	0x3dab9ccf	0.08379518
170	0xbf175b01	-0.59123236
171	0xbeab04d3	-0.33402118
172	0x3e426c3c	0.189866
173	0xbefb9866	-0.49139708
174	0xbead4256	-0.33839673
175	0xbf2a116d	-0.6643284
176	0x3ee07365	0.4383804
177	0xbee42599	-0.44559935
178	0xbee41aca	-0.44551688
179	0x3ef2d368	0.47426915
180	0x3e1feb95	0.15617211
181	0x3e1e3fa5	0.15453966
182	0x3e678f5b	0.2261328
183	0x3ed7cafe	0.42147058
184	0xbd5456a3	-0.051840436
185	0xbe85e495	-0.26150957
186	0xbdf6822b	-0.12036546
187	0xbe9e3074	-0.30896342
188	0x3be97f11	0.007125743
189	0xbedf577c	-0.43621433
190	0xbea49c4c	-0.32150495
191	0xbdcff301	-0.10153771
192	0xbeb1b556	-0.3470866
193	0xbf1a7605	-0.60336334
194	0xbe8b28f7	-0.2717969
195	0x3d39f74c	0.045401856
196	0xbe98fb82	-0.29879385
197	0x3efc8507	0.49320242
198	0xbe01553f	-0.12630175
199	0x3e385b51	0.18003584
200	0xbe8b92a9	-0.2726033
201	0x3e7f8ae3	0.24955325
202	0x3d3b5c96	0.045742594
203	0xbd0bee7f	-0.034162994
204	0xbf2f7d7f	-0.68550867
205	0x3e7198cd	0.23593445
206	0x3df8f498	0.121560276
207	0xbe25b432	-0.1618202
208	0x3efb2571	0.49052003
209	0xbf13e6b9	-0.5777393
210	0xbe654f77	-0.22393595
211	0x3ef730b1	0.48279336
212	0xbe64a7cf	-0.22329639
213	0xbee715d9	-0.45133856
214	0xbf2055d3	-0.6263096
215	0xbdf57ee9	-0.11987097
216	0x3f0558b0	0.5208845
217	0xbe915634	-0.2838608
218	0x3ef2faed	0.47457066
219	0xbe8ac92f	-0.27106616
220	0xbed5a216	-0.41725224
221	0x3d040f98	0.032241434
222	0xbe9ac882	-0.302311
223	0xbe491aef	-0.1963918
224	0x3da0946d	0.0784081
225	0xbf10cd69	-0.5656343
226	0xbeec1d70	-0.4611621
227	0xbda21b24	-0.07915333
228	0x3e49d0e3	0.1970859
229	0xbe0bcc73	-0.1365221
230	0xbe44deba	-0.19225588
231	0x3e9ac7d8	0.30230594
232	0x3e73c0c8	0.23804009
233	0xbe823914	-0.25434172
234	0xbf22e837	-0.6363558
235	0xbef0b281	-0.47011188
236	0x3df1af81	0.11801053
237	0x3f09465b	0.5362298
238	0xbec1b4bf	-0.3783321
239	0xbf1e29a6	-0.617823
240	0x3c8fe298	0.017564103
241	0x3ebe6a3c	0.37190425
242	0xb880dd7f	-6.1447725e-05
243	0xbf10f246	-0.5661968
244	0xbd23ed97	-0.040021505
245	0xbea3c6a4	-0.31987488
246	0xbf039b97	-0.51409286
247	0xbe1aa9e9	-0.15103878
248	0xbcfe1136	-0.031014066
249	0xbe420cbb	-0.18950169
250	0x3f029640	0.51010513
251	0x3c73b514	0.014874715
252	0x3e14e59a	0.14540711
253	0x3ef124f9	0.4709852
254	0x3e7f4b6b	0.24931113
255	0xbf075408	-0.52862597

model.0.bias f4 [256]
0	0x3e8e44fe	0.27787012
1	0x3f136d61	0.57588774
2	0x3f2ad9d8	0.66738653
3	0xbec40c7a	-0.3829077
4	0xbede1624	-0.43376267
5	0x3e4b00d7	0.19824539
6	0xbe829bf6	-0.25509614
7	0xbf16217d	-0.5864485
8	0x3d04ec1a	0.032451726
9	0xbd1fe8b1	-0.03904027
10	0x3db09d12	0.08623709
11	0x3f11f371	0.5701209
12	0xbc22c565	-0.009934758
13	0x3e51952a	0.20467058
14	0x3f291f8d	0.6606377
15	0x3e349c94	0.17637855
16	0x3ea019aa	0.3126958
17	0x3e004d85	0.12529571
18	0xbcc44d3a	-0.023962606
19	0xbed6483d	-0.41851988
20	0x3f1a6874	0.6031563
21	0x3ec6610f	0.38745925
22	0x3f1a03ce	0.60162055
23	0x3e875ad2	0.26436478
24	0x3eb57121	0.35437873
25	0x3ea1f72e	0.31633896
26	0xbe0790ba	-0.13238803
27	0xbefba619	-0.4915016
28	0xbdd124a1	-0.102120645
29	0xbf0694da	-0.5257088
30	0x3f1c951a	0.6116501
31	0x3f11922e	0.5686368
32	0xbe5717ea	-0.21005216
33	0xbf19d7f2	-0.6009513
34	0x3f04a73a	0.5181767
35	0xbefcc000	-0.49365234
36	0x3c6cb053	0.014446336
37	0xbcc89947	-0.02448715
38	0xbeaa6552	-0.33280426
39	0x3d97a717	0.07404917
40	0x3e90084e	0.28131336
41	0xbe907376	-0.2821309
42	0xbf06be84	-0.52634454
43	0x3e49a470	0.19691634
44	0x3ee31bfa	0.44357282
45	0x3f056929	0.52113587
46	0x3f2bea69	0.67154557
47	0xbd66f704	-0.056387916
48	0xbe3d8b50	-0.18510175
49	0x3ee405ff	0.44535825
50	0xbf2d3524	-0.6765921
51	0xbdf3ea26	-0.11909895
52	0xbebef641	-0.37297252
53	0x3e7c09dd	0.24613138
54	0xbe3d865b	-0.18508284
55	0x3f018357	0.50591034
56	0xbd25646d	-0.040378977
57	0xbe77eb80	-0.2421093
58	0xbe8dace5	-0.2767097
59	0xbe79d5e0	-0.24397993
60	0x3ea7cd38	0.32773757
61	0x3e888349	0.26662663
62	0x3d977e34	0.07397118
63	0x3f0900f5	0.53517085
64	0xbedf8d45	-0.43662468
65	0xbea74266	-0.32667845
66	0xbf1a613c	-0.6030462
67	0x3e7a062d	0.24416418
68	0x3e08dfa9	0.1336657
69	0x3f15301a	0.5827652
70	0x3eed4c02	0.46347052
71	0x3f102a13	0.563142
72	0x3e4281a8	0.18994772
73	0x3e2abe46	0.16674146
74	0xbed8bcba	-0.42331487
75	0x3f0145f4	0.50497365
76	0x3f09ad96	0.53780496
77	0x3c68e2d0	0.014214233
78	0x3e9df3b4	0.30849993
79	0xbe28903d	-0.16461273
80	0x3e41c90c	0.1892435
81	0xbdc34ea8	-0.09536487
82	0xbee8f638	-0.4550035
83	0x3ebbd2e9	0.3668435
84	0xbf20ba77	-0.6278452
85	0xbdee2d6d	-0.11629758
86	0xba19f374	-0.0005872764
87	0x3e1fb839	0.15597619
88	0x3e3c2781	0.18374445
89	0x3ec4c06f	0.38428065
90	0x3d46c333	0.048526
91	0x3e73fd53	0.23827104
92	0x3d9f9bb1	0.07793368
93	0xbe8f1a06	-0.27949542
94	0x3e399e30	0.1812675
95	0x3dd5c934	0.10438767
96	0x3e427c0d	0.18992634
97	0x3eb43055	0.35193124
98	0xbe82c79c	-0.25542915
99	0x3ecbcb99	0.3980377
100	0xbf08bac8	-0.53410006
101	0x3ec42e06	0.38316363
102	0x3da23ecf	0.07922136
103	0x3f2b6534	0.669513
104	0xbec80c03	-0.39071664
105	0xbf0ce7ad	-0.5504101
106	0x3ea5ba81	0.32368854
107	0x3ea25e49	0.3171256
108	0x3e65fe02	0.22460178
109	0xbf31f2ca	-0.6951109
110	0xbe3f7e1a	-0.18700448
111	0xbe7857db	-0.24252264
112	0xbf2d3011	-0.6765147
113	0xbf2d2e57	-0.67648834
114	0x3e335608	0.17513287
115	0xbf266530	-0.6499815
116	0xbf135e9e	-0.5756625
117	0xbeb0f876	-0.3456456
118	0xbea36340	-0.3191166
119	0xbe561117	-0.20904957
120	0x3e39314b	0.1808521
121	0xbe2c4198	-0.16821897
122	0x3e14d851	0.14535643
123	0xbe9bc82b	-0.30426154
124	0x3e3b3f57	0.18285881
125	0x3eaf3e1e	0.3422708
126	0xbf0748de	-0.5284556
127	0x3d8a57da	0.067550376
128	0x3f38ada2	0.7213994
129	0x3df56d9a	0.119837955
130	0xbee35f6b	-0.44408736
131	0x3ea9aba9	0.3313878
132	0x3ec5964c	0.3859123
133	0x3d8fa5ba	0.07014032
134	0x3e97b797	0.29632255
135	0xbf0543e2	-0.52056706
136	0x3ef32c22	0.47494608
137	0x3e60f910	0.2197001
138	0x3d47f3ce	0.048816495
139	0x3f3b06c7	0.73057216
140	0x3f283499	0.6570526
141	0x3ddd2c72	0.10799493
142	0xbe81665b	-0.25273404
143	0x3f11488a	0.5675131
144	0x3e91448f	0.2837262
145	0xbdd68fe3	-0.10476663
146	0xbda08a51	-0.07838882
147	0x3eefc785	0.4683191
148	0xbe622a84	-0.22086531
149	0x3e71d559	0.23616542
150	0x3e111c06	0.14170846
151	0xbf2bf314	-0.6716778
152	0x3efedafb	0.49776444
153	0xbe84ed7d	-0.2596244
154	0x3e0474dc	0.12935203
155	0x3ed2c5e5	0.41166607
156	0xbe119728	-0.14217818
157	0x3e6bd630	0.23030925
158	0xbf21142f	-0.6292142
159	0xbedd8c29	-0.43270996
160	0x3e5fc06b	0.21850745
161	0x3eb4a9a9	0.3528569
162	0xbf0bc5b1	-0.5459853
163	0xbe856119	-0.26050642
164	0xbf2d70f1	-0.6775046
165	0xbe9f4995	-0.31110826
166	0x3df75cb6	0.1207823
167	0xbf01ca27	-0.50699085
168	0xbf0a5c80	-0.54047394
169	0x3e9df341	0.3084965
170	0x3eaffe9b	0.34373936
171	0xbe49bf6e	-0.19701931
172	0x3db9d53d	0.09073875
173	0xbe453cbd	-0.19261451
174	0x3eb8cce8	0.3609383
175	0xbe2a7401	-0.16645814
176	0xb9fb4659	-0.00047926864
177	0x3db3c2f5	0.087774195
178	0xbe2d78ce	-0.16940615
179	0x3e5cbc2d	0.21556158
180	0x3d9b28af	0.07576119
181	0x3f228c10	0.6349497
182	0xbed74898	-0.42047572
183	0xbefe52ef	-0.49672648
184	0x3e5284d5	0.20558484
185	0x3d91986d	0.07109151
186	0x3e4bab54	0.19889575
187	0x3ed09fb3	0.4074684
188	0xbf0e7337	-0.55644554
189	0xbdb71279	-0.0893907
190	0xbf34318b	-0.70388097
191	0xbe3f5fc7	-0.1868888
192	0xbf05e2aa	-0.52298987
193	0x3e1e68d8	0.15469682
194	0xbf143dfc	-0.5790708
195	0x3e892439	0.26785448
196	0xbf072894	-0.5279629
197	0x3f2244ae	0.63386047
198	0x3f08f40d	0.5349739
199	0x3f25d09a	0.64771426
200	0xbeec019e	-0.46094984
201	0x3e25758a	0.16158119
202	0xbe61b50c	-0.2204172
203	0x3ef43458	0.47696185
204	0xbe3b9e9d	-0.18322225
205	0x3e43cd8a	0.19121376
206	0xbf242abe	-0.6412772
207	0x3dd363e4	0.10321787
208	0x3e65f388	0.22456181
209	0x3f30dd04	0.69087243
210	0x3ed987fe	0.42486566
211	0xbeac0350	-0.33596277
212	0x3eaf056b	0.3418382
213	0x3c1a123f	0.009403764
214	0x3f38cdb2	0.72188866
215	0xbf22b848	-0.6356244
216	0x3e1933f4	0.14961225
217	0x3f31b756	0.69420373
218	0x3ec87512	0.39151818
219	0x3f00aa23	0.5025961
220	0x3ec9adfa	0.39390546
221	0x3d8ca21a	0.06866856
222	0xbe918be3	-0.28427038
223	0xbf2eec66	-0.68329465
224	0xbe9f9d38	-0.31174636
225	0xbf1bb2db	-0.60819787
226	0xbf03ebf5	-0.51531917
227	0xbf091da0	-0.5356083
228	0xbedefb4a	-0.43551093
229	0xbd208dae	-0.039197616
230	0x3db4ff13	0.08837714
231	0x3f239df2	0.6391288
232	0xbe065717	-0.1311916
233	0x3f2e4e7c	0.6808851
234	0x3ed47df7	0.41502354
235	0x3e663356	0.2248052
236	0xbf3352d7	-0.7004828
237	0x3efbe6a3	0.491994
238	0x3f07a94f	0.5299272
239	0xbe173fc0	-0.14770412
240	0x3f046abc	0.51725364
241	0xbe451da1	-0.19249584
242	0xbf18be19	-0.59665066
243	0xbd88626e	-0.06659399
244	0xbddd7ea5	-0.10815171
245	0xbed72f13	-0.42028102
246	0x3f0465be	0.51717746
247	0x3ea70fc8	0.32629228
248	0x3e242c8c	0.16032618
249	0x3edf3ab9	0.4359949
250	0x3ef6d70c	0.48210943
251	0x3db8e483	0.0902796
252	0x3f223427	0.6336083
253	0x3e327d72	0.17430666
254	0x3f11112d	0.56666833
255	0xbecacc18	-0.39608836

model.2.weight f4 [2, 256]
0	0x3c719d58	0.014746986
1	0x3d4c2a46	0.049845003
2	0x3d17b120	0.037034154
3	0x3c3ffa1d	0.0117173465
4	0xbd8675d3	-0.06565442
5	0x3d053b5f	0.032527324
6	0xbd2d704a	-0.042343415
7	0x3d815bd4	0.06316343
8	0xbd45d0ef	-0.048294958
9	0xbd6b5b6d	-0.057460237
10	0xbcb966eb	-0.022632083
11	0xbbb566c9	-0.0055359346
12	0x3d76f8ea	0.060295977
13	0x3d5465ed	0.051855016
14	0xbc815fe0	-0.015792787
15	0xbcc0d51d	-0.02353912
16	0x3c8790bf	0.016548513
17	0xbd26e9cd	-0.040750314
18	0x3c961552	0.018320713
19	0x3d007039	0.031357024
20	0xbd0483df	-0.032352325
21	0x3cb774ae	0.022394504
22	0xbc6efda9	-0.0145868445
23	0x3c928dfb	0.017889967
24	0x3d2025a0	0.039098382
25	0xbc370df8	-0.011172764
26	0xbcd69bbf	-0.026197312
27	0x39d077cc	0.00039762107
28	0x3c99f0e4	0.018791623
29	0xbc2ec5eb	-0.0106673045
30	0xbcd48ebc	-0.025946967
31	0x3d226f70	0.039657056
32	0x3d0088c2	0.031380422
33	0x3cc8b945	0.024502406
34	0x3d0f378b	0.03496508
35	0x3da8ffdd	0.08251927
36	0xbd526e7c	-0.051374897
37	0x3c769cf7	0.015052072
38	0x3c739373	0.014866698
39	0x3c2c8c37	0.010531477
40	0x3cfa3dc4	0.03054703
41	0x3d5d4ac3	0.054026376
42	0x3cffa244	0.031205304
43	0xbd369c9f	-0.04458296
44	0x3d016cbb	0.031597834
45	0x3c7e384c	0.015516352
46	0x3c737e7d	0.0148617
47	0xbc04cf73	-0.0081061
48	0xbc6d8a7d	-0.01449835
49	0xbd2eb5be	-0.04265379
50	0x3cf9116a	0.030403811
51	0xbd2caba0	-0.04215586
52	0xbd3311c2	-0.043718107
53	0x3c4d9afc	0.012549158
54	0xbb910d3b	-0.004426626
55	0xbd341ff0	-0.04397577
56	0x3d1fa4cb	0.03897552
57	0xbca01c10	-0.019544631
58	0xbc4c5c2e	-0.012473149
59	0xbd58c7ab	-0.052924793
60	0xbd1c1f32	-0.038115688
61	0x3c8b2c92	0.016989026
62	0xbd8d99cb	-0.06914099
63	0x3c9612ac	0.01831945
64	0x3c8be98b	0.017079135
65	0x3d21ba4a	0.0394843
66	0xbc9b5806	-0.018962871
67	0xba9cc834	-0.0011961521
68	0x3d03d1dc	0.03218256
69	0x3a87ec24	0.0010370058
70	0xbbb0a92b	-0.00539126
71	0x3d2c31db	0.042039733
72	0xbc59b7eb	-0.013288478
73	0x3c7b9cc5	0.015357201
74	0x3d365ea8	0.044523865
75	0xbd59a4cc	-0.05313568
76	0xbc0abf96	-0.008468529
77	0xbd31f44a	-0.043445863
78	0x3cffbefa	0.031218994
79	0xbc27b94d	-0.01023705
80	0x3bc18ca1	0.005906657
81	0xbcf6a7a2	-0.03010923
82	0x3d2f9b4b	0.04287271
83	0x3d3d1f76	0.04617258
84	0x3d4ca794	0.049964502
85	0x3d29990b	0.04140572
86	0x3d111c4e	0.035427384
87	0x3d00683b	0.031349402
88	0xbcdde334	-0.027085878
89	0xbd6c2134	-0.057648852
90	0x3cab49a3	0.020909136
91	0x3d61a206	0.05508616
92	0x3d487018	0.048935026
93	0xbd8622b3	-0.06549587
94	0x3bc7144d	0.006075418
95	0x3cc0a9d0	0.023518473
96	0x3cfe82e3	0.031068271
97	0xbd8fa3a7	-0.07013636
98	0xbbd898c2	-0.006610007
99	0x3cd19000	0.02558136
100	0xbd71e536	-0.059056483
101	0xbd295b53	-0.04134686
102	0xbc632887	-0.013864643
103	0xbc943771	-0.018092843
104	0x3caa94c1	0.020822885
105	0xbd31e142	-0.043427713
106	0x3d43ef79	0.0478358
107	0x3bca4ba4	0.006173568
108	0x3d601a5a	0.05471263
109	0x3d5d1a00	0.053979874
110	0xbd73e922	-0.059548505
111	0xbcdbf95f	-0.026852308
112	0x3d2acdb6	0.041700087
113	0x3d246f9e	0.04014551
114	0xbcbf22c5	-0.02333201
115	0xbd437bd6	-0.04772552
116	0x3d656daa	0.056012787
117	0xbcbb7f58	-0.02288787
118	0xbb3ce755	-0.0028824408
119	0xbd6b9d5c	-0.057523116
120	0xbcf8f5a5	-0.03039057
121	0xbb180305	-0.002319516
122	0xbd7667b7	-0.060157504
123	0x3be85bc4	0.0070910174
124	0x3d31156f	0.04323333
125	0x3d363a59	0.04448924
126	0x3d834f72	0.06411637
127	0x3d597cd9	0.05309758
128	0xbce3a1ae	-0.027787056
129	0x3d28df3d	0.04122852
130	0x3d91b99e	0.07115482
131	0xbbd1085f	-0.0063791717
132	0x3d5695ed	0.052389074
133	0xbcb9dc30	-0.022688001
134	0xbcc7d823	-0.024395054
135	0x3cb93d66	0.022612285
136	0xbd491583	-0.04909278
137	0xbb4197b7	-0.0029539892
138	0xbd4f062e	-0.050543003
139	0xbd58546b	-0.052814882
140	0xbc88df9f	-0.016708193
141	0x3bac2ac4	0.0052541215
142	0xbb554805	-0.0032544148
143	0xbd26a88a	-0.040688075
144	0xbcfa02ff	-0.030519007
145	0xbd0b4abc	-0.03400682
146	0xbbadc1af	-0.00530263
147	0x3d6694d4	0.056294277
148	0xbd52676d	-0.051368166
149	0x3d1442a4	0.036196366
150	0x3c32d704	0.0109155215
151	0x3d5321da	0.051545955
152	0x3d09bd0e	0.033627562
153	0x3d2c9a40	0.04213929
154	0x3d2c3fcd	0.042053033
155	0x3cfb9602	0.030711178
156	0x3c70abfa	0.01468944
157	0x3c8321b9	0.016007291
158	0xbd5a7d47	-0.05334213
159	0xbbcdb07c	-0.006277142
160	0x3cdca206	0.026932728
161	0x3cafc9eb	0.021458587
162	0x3d25e132	0.040497966
163	0x3c5beb81	0.013422848
164	0xbc9c9d8b	-0.019118091
165	0x3cb05478	0.021524653
166	0x3d58c02b	0.05291764
167	0x3d326acc	0.04355888
168	0x3d223718	0.039603323
169	0x3d3b9a91	0.045801703
170	0x3d410e23	0.047132622
171	0x3cd70e76	0.026252013
172	0xbd69fd4c	-0.05712633
173	0x3dac2204	0.084049255
174	0xbd6d3035	-0.057907302
175	0xbd005efe	-0.03134059
176	0xbd72cf94	-0.059279993
177	0xbd27c15a	-0.04095588
178	0x3caed961	0.021343889
179	0x3d54c2fe	0.05194377
180	0xbd5e9ba3	-0.054347645
181	0x3d144b0f	0.036204394
182	0xbc8addcc	-0.016951464
183	0xbcdedf87	-0.027206196
184	0xbd87774e	-0.066145524
185	0x3d54f956	0.051995598
186	0x3d05146b	0.032490175
187	0x3d585bad	0.052821804
188	0xbc559b57	-0.013037524
189	0xbb9d905c	-0.0048084687
190	0xbd2a4a78	-0.041574925
191	0xbcd89f62	-0.026443187
192	0xbd416708	-0.0472174
193	0xbd528f87	-0.05140641
194	0x3d5fc310	0.054629385
195	0xbd7587a0	-0.059943795
196	0xbc4e962a	-0.012609044
197	0x3d180beb	0.03712074
198	0x3c9e6752	0.019336376
199	0xbd628e84	-0.055311695
200	0xbc7c678c	-0.015405547
201	0x3d467b5c	0.04845749
202	0x3cd43d0d	0.025908018
203	0x3d5bd7a8	0.053672463
204	0x3ceffea6	0.02929623
205	0x3d5fcacc	0.05463676
206	0xbcb4163b	-0.021983257
207	0xbcc24a26	-0.023716997
208	0x3acd02af	0.0015641059
209	0xbd145e94	-0.03622301
210	0x3d226292	0.039644785
211	0x3bc95a58	0.006144803
212	0xbd0ab1c7	-0.033860948
213	0xbd88a759	-0.06672544
214	0xbd420ec1	-0.04737735
215	0xbd88ec0d	-0.06685648
216	0x3c8f309e	0.017479237
217	0xbce4bc4e	-0.027921822
218	0xbd46d366	-0.04854145
219	0xbc8ce621	-0.017199578
220	0x3b8cb277	0.0042937356
221	0x3bdb6571	0.0066954424
222	0xbda90804	-0.08253482
223	0xbce7825c	-0.028260402
224	0xbb033e62	-0.0020026197
225	0xbd30ea78	-0.043192357
226	0x3d2d7f71	0.042357866
227	0xbd0a15c3	-0.03371216
228	0xbce3e075	-0.02781699
229	0x3d6caf3a	0.057784297
230	0xbbcdc921	-0.00628008
231	0xbd07e1b0	-0.033174217
232	0x3d1c932c	0.03822629
233	0x3d8266b5	0.06367246
234	0xbc795895	-0.0152188735
235	0x3d223ce7	0.039608862
236	0xbce450f2	-0.027870629
237	0xbb75ca94	-0.003750478
238	0xbc3e07a3	-0.0115985
239	0x3d3419bb	0.04396985
240	0x3d2fcd5d	0.04292046
241	0xbcce6f5c	-0.025199585
242	0x3bf588dc	0.0074931215
243	0x3d9e8bc9	0.07741506
244	0x3d118592	0.035527773
245	0x3d6fb565	0.0585226
246	0x3cc7e0df	0.02439922
247	0xbcaee0ce	-0.02134743
248	0x3cde088e	0.027103689
249	0x3d068b50	0.032847703
250	0xbd466b5b	-0.048442226
251	0xbd1d4722	-0.038397916
252	0x3d493deb	0.049131315
253	0x3d5062a4	0.05087532
254	0x3c4098f1	0.011755214
255	0x3d6aaa73	0.05729146

model.2.bias f4 [2]
0	0xbd820a47	-0.063496165
1	0x3d39fe94	0.0454088
