Assignment-2/models/test_moons.pth (torch, 9191 bytes, 5 tensors)

time_embed.weight f4 [200, 2]
000000 62 e6 65 3e e5 c4 a2 bf 38 f3 58 bf ea de 17 3f
       0.22451165 -1.2716337 -0.8474612 0.59324515
000010 89 40 5c 3f 94 43 e2 be c5 80 51 3f 2b 9d 17 3f
       0.8603597 -0.44192183 0.8183711 0.59224194
000020 75 f5 59 3e a9 df e9 3f 22 ef 69 bd 75 ea 5b bf
       0.2128504 1.8271381 -0.05711282 -0.8590463
000030 1b 17 36 40 ee 76 73 bd f0 0d 0c bf d1 f8 80 bf
       2.8451602 -0.059439592 -0.54708767 -1.0075933
000040 bc f4 f1 3f 0e 95 a7 bd 25 0d c3 3f c4 2d ee be
       1.8902812 -0.08182727 1.5238386 -0.4651929
000050 58 ea a1 be 37 2a 5d 3f ea 31 b4 3f 3c 46 65 bf
       -0.31624103 0.8639254 1.4077733 -0.89560294
000060 95 1a db bf d7 75 47 bf 59 e5 ad be 71 e2 08 40
       -1.7117487 -0.77914184 -0.3396404 2.138821
000070 ed 30 8a bf bc 72 18 3f 5b fe 70 3f 1f 32 ae bf
       -1.0796181 0.5955007 0.94138116 -1.3609046
000080 70 c1 55 bf a5 b7 bd 3f 6c fa b8 be b2 e6 d0 3f
       -0.8349829 1.4821669 -0.36128557 1.6320403
000090 0a 83 6f bf a3 9d c4 bf 35 9a 0f 3f b3 c2 a7 3f
       -0.93559325 -1.5360607 0.56094676 1.3106292
0000a0 9e 83 31 3f 3d ae a9 bf 7a e8 28 3e 6d cd c2 3f
       0.69341457 -1.3256298 0.16494933 1.5218941
0000b0 e0 55 50 bf 3e bb 90 3e 4d c0 e5 3e c3 4a 41 bf
       -0.81381035 0.28267854 0.44873276 -0.755047
0000c0 65 a8 82 3f 9a 87 0d 3e 15 56 9c bf 3c dc 81 bf
       1.020764 0.13821259 -1.221377 -1.0145335
0000d0 0b 91 af bf 7b 05 5e 3e eb a8 52 40 50 76 97 3f
       -1.3716139 0.21681778 3.29156 1.1832981
0000e0 82 89 4a bf 12 14 03 c0 3e 8a 7e bf 00 80 61 3f
       -0.7911607 -2.0481 -0.9942969 0.8808594
0000f0 7c ec 17 bf f3 72 26 bf ab 62 a5 3f 66 f3 fb be
       -0.5934522 -0.6501915 1.2920736 -0.49209136
000100 f1 e6 d6 3f 68 a3 28 bf 8e 06 b2 3b 70 57 ac bf
       1.6789228 -0.6587434 0.0054329103 -1.3464184
000110 6f 70 d1 3f ab 35 6e 3e 70 ef fd 3e b4 7b 89 bf
       1.6362437 0.2326266 0.4959674 -1.0740876
000120 6d 58 30 3f e1 e4 c4 bf 87 f6 b0 3f d2 7c 94 3e
       0.6888493 -1.5382348 1.3825234 0.2900148
000130 dc f3 95 be 7e 11 16 be ca d2 a0 3c 75 e5 37 3f
       -0.29287612 -0.1465511 0.019631762 0.718345
000140 e9 01 5e 3f 9a 7a b3 bf 96 e9 6e 3f 0e 4c 54 bf
       0.86721665 -1.402179 0.93325174 -0.8292855
000150 a6 5d 21 bf 25 1f 83 bf 75 36 37 be de 42 74 bd
       -0.6303352 -1.024388 -0.17891867 -0.059634082
000160 9d 21 e5 3d 3c 1b 68 3f 61 0a 51 3f 7f 7b 8e 3f
       0.11188052 0.90666556 0.8165646 1.1131438
000170 cf 12 46 3f 28 4c 35 bf 93 30 4b 3f cd cd 27 3f
       0.7737245 -0.7081933 0.79370993 0.655484
000180 e0 f5 0f 40 5a bb d8 bf 4d d4 1f c0 92 e1 88 3f
       2.249382 -1.6932175 -2.4973328 1.0693839
000190 d8 2c 09 bf 68 2c 5e bd 65 ab f8 3d 9e 1d c3 3f
       -0.5358405 -0.054241568 0.12142066 1.5243413
0001a0 de 83 89 3f 4e 91 bf be 6b 92 ac bf 78 82 e4 be
       1.0743368 -0.37415546 -1.3482183 -0.4463079
0001b0 8b 67 47 3d 46 a7 d1 be b7 08 d1 be 7e 99 cb bf
       0.04868273 -0.40947932 -0.4082696 -1.5906217
0001c0 dc 31 45 bf 43 fb c0 3d e6 4a e9 3c b2 66 01 bf
       -0.77029204 0.09422924 0.028478097 -0.50547326
0001d0 39 27 54 bf fb d6 c7 3e 4c fb 45 3f 96 5a 9d 3f
       -0.8287235 0.39031205 0.77336574 1.229327
0001e0 b7 3b 4d 3f 90 26 5a bf 94 ab 94 bb bd 81 2d bf
       0.8016924 -0.8521509 -0.0045370553 -0.6777609
0001f0 19 d2 0a bd 5f 14 30 3f db 82 32 bf 3d de 9c 3e
       -0.03389177 0.68781084 -0.6973092 0.30638304
000200 e9 ba b0 be f6 f5 b7 3f 14 1c 2c 3c 2e 82 15 40
       -0.345176 1.4371936 0.010504741 2.3360705
000210 a7 5a cc be a4 12 19 bd a3 76 6e 3f 0d 8e 4f 3f
       -0.39912912 -0.037371293 0.93149775 0.8107613
000220 4a 57 36 bf 93 7a 7e bf e9 7e 4d bf ad 8c 26 40
       -0.7122694 -0.99405783 -0.80271775 2.6023362
000230 6e d7 00 bf 18 43 d9 3f 68 76 9b bb 23 86 50 3f
       -0.5032872 1.69736 -0.0047443397 0.81454676
000240 f2 97 c8 3f f6 13 76 bf a1 c8 03 c0 f1 8f dc be
       1.567137 -0.9612421 -2.0591204 -0.4307857
000250 4a a9 11 40 ac 6f 58 3e 99 99 97 3e f9 58 1e bf
       2.2759576 0.2113635 0.29609373 -0.6185451
000260 a6 bc 58 3d 5c d4 86 bf e4 3a 6d 3e 22 32 7b 3e
       0.052914284 -1.0533557 0.23166996 0.24530843
000270 6b 6f 1e bc f6 c1 d3 bd 90 69 bb 3f 52 62 4d 3f
       -0.009670119 -0.103397295 1.464159 0.8022815
000280 ec 80 af 3e 65 65 63 bf b6 ef cb be cb 47 ff be
       0.34278047 -0.8882659 -0.39831322 -0.4985946
000290 9c da 7c be d2 77 f3 be 0a ca ee 3f b7 a0 99 3e
       -0.24692768 -0.47552353 1.8655407 0.30005428
0002a0 60 81 5a 3f 21 48 5c 3f 9b b0 7e 3f de cc 18 bf
       0.8535366 0.8604756 0.9948823 -0.596876
0002b0 12 14 96 3f ff aa 9e 3f c0 b2 2d bf bb 8d 30 bf
       1.1724875 1.2395934 -0.67850876 -0.68966264
0002c0 c0 38 b4 bf b0 1b 5a c0 ac 68 4a bf 70 4e a3 3f
       -1.4079819 -3.40794 -0.79065967 1.2758312
0002d0 61 af 40 bf f8 b7 c4 3c 40 e1 1d 3f 25 3c c6 3e
       -0.75267607 0.024013504 0.6167183 0.38717762
0002e0 6f a4 00 bf e7 92 96 3f a5 af 12 bf 23 4e 41 3f
       -0.50250906 1.1763581 -0.5729926 0.7550985
0002f0 7d 2e f3 be 68 c0 86 bf fd 5d 2e 3e 8c 02 9e bf
       -0.47496405 -1.0527468 0.17028041 -1.2344527
000300 0e 06 b5 be d5 ff 02 40 a1 3f 0e 3f ef 8b 58 bd
       -0.35356182 2.0468647 0.5556584 -0.052867826
000310 1d f6 68 3e 5c fe ac bf ef f7 87 bf a3 3e 0e 40
       0.22750135 -1.3515124 -1.0622538 2.222573
000320 e8 66 75 3e 56 cd 05 bf 17 c1 8a 3f 77 df 8b be
       0.23965037 -0.5226644 1.0840176 -0.27318928
000330 71 94 aa bf e9 e7 bf 3e 3c 13 ab 3c 73 a8 c0 3f
       -1.3326551 0.3748162 0.020883195 1.5051407
000340 07 f5 e7 bf 92 27 8b 3f ae 7a 93 bf 57 0b 5e bf
       -1.8121651 1.0871451 -1.1521814 -0.86736053
000350 f3 55 c0 3e 62 1a 54 bf db 0d 93 3f c4 24 8a bf
       0.37565574 -0.82852757 1.1488603 -1.079247
000360 9c 13 f5 be 8d 2e 8b bf e9 41 d7 3f 4b 6d ad 3d
       -0.47866523 -1.0873581 1.6816989 0.084681116
000370 7a c4 71 3f 28 93 58 3e b3 98 ed be 98 8e cb bd
       0.94440424 0.21149886 -0.46405563 -0.09939307
000380 4e 4b 5a bf 3f 34 75 bf f0 09 90 bf 33 64 ae bf
       -0.85271156 -0.95782846 -1.1253033 -1.3624328
000390 e1 f5 80 bf f4 f4 18 bf ac 71 84 3e 93 2d d1 be
       -1.0075036 -0.5974877 0.25867975 -0.40855083
0003a0 14 be 1f bf 31 e1 21 bf f9 ba b2 bf e7 c9 58 3f
       -0.6239941 -0.6323424 -1.396331 0.8468308
0003b0 e9 c0 c1 3f 96 dc e7 be d2 31 3d 3e 91 ff b6 3f
       1.5136997 -0.4528548 0.18476036 1.4296743
0003c0 1a f6 21 3f 98 c3 a5 bf 36 88 3f be 2d 3f 3e be
       0.63266146 -1.2950315 -0.18704304 -0.18578787
0003d0 e3 66 a1 be 95 54 c6 3e be 85 ca 3f eb 0e bf 3e
       -0.3152381 0.38736406 1.5822065 0.3731607
0003e0 16 f3 86 bf e3 60 44 40 46 72 03 bf c0 31 2b 3b
       -1.0542934 3.0684135 -0.5134624 0.0026122183
0003f0 54 11 48 bf 08 b5 0f c0 fc 47 f5 be b2 ef 18 3f
       -0.7815144 -2.2454243 -0.47906482 0.59740746

model.0.weight f4 [256, 2]
000000 82 dd 8d 3e d3 65 2b bf 5a f0 6f 3e 3e 0b ae be
       0.2770806 -0.66952246 0.2343153 -0.33992952
000010 c5 69 eb be 54 47 a4 3b 17 69 a2 be 21 06 90 3e
       -0.45979133 0.005013386 -0.31720802 0.28129676
000020 3d 0b e0 be d8 16 1e ba fe e0 26 3f 2b eb 99 3e
       -0.43758574 -0.00060306257 0.6518706 0.3006223
000030 e4 ea 35 3e c1 93 1f 3f ef 94 08 3f e6 07 37 3e
       0.17765385 0.6233483 0.53352255 0.17874107
000040 06 19 a9 3d 09 c5 fe be f2 1e 21 bf 39 2d 23 3f
       0.08256726 -0.497597 -0.62937844 0.6374088
000050 18 4b 3f 3e 07 64 08 3f 8f 20 60 3e 83 72 4f 3e
       0.1868099 0.5327763 0.2188742 0.20258527
000060 ca 71 1c 3e 33 cc c6 be 50 d0 f3 bc bf 33 a4 3a
       0.15277782 -0.38827667 -0.029762417 0.0012527629
000070 79 7e f3 be d9 2e 04 3f 68 b0 5a bd a6 5e bd 3e
       -0.47557428 0.51633984 -0.05339089 0.36986274
000080 d4 f1 d6 3e fc e1 34 3f 03 34 8e 3e 77 97 bc be
       0.41981375 0.70657325 0.27774057 -0.36834309
000090 2c ce a4 3e 76 ca 44 bd d7 37 d3 3e 84 de 66 3e
       0.32188547 -0.048044644 0.4125354 0.2254582
0000a0 3a c6 08 be 7d ae 8d bd 89 21 31 3f a8 53 e9 be
       -0.13356867 -0.069180466 0.69191796 -0.45571637
0000b0 c5 01 f2 be e9 e2 c3 3e a8 06 cf 3e 70 97 e2 3d
       -0.47266975 0.38259056 0.40434766 0.11064041
0000c0 da 11 2a 3f c6 a9 e4 be 73 7c 36 be cf 5a e3 3e
       0.6643349 -0.44660777 -0.17820911 0.4440522
0000d0 1a 46 f6 3e 7a 59 a9 3e 02 a6 a0 3e 6e 2a 31 3f
       0.48100358 0.33076078 0.31376654 0.6920537
0000e0 be fc 24 bf 90 0e ad be d8 bd 08 3f 28 13 0e 3f
       -0.64448154 -0.33800173 0.5341468 0.5549798
0000f0 ed f3 0a 3f e0 47 f9 3d ed 04 3e 3e 68 88 be 3d
       0.5427845 0.12171912 0.18556567 0.09303361
000100 ed b8 8a 3e 95 ba 25 be 16 7b 04 bf a7 09 19 3f
       0.27094212 -0.16184457 -0.51750314 0.59780353
000110 f7 01 2e bf 4d 7f 39 be 04 16 e8 bc fe 46 70 be
       -0.6797175 -0.18114968 -0.02833081 -0.23464581
000120 37 37 ee 3e e6 70 08 3f c8 b5 0e bf eb c2 13 3f
       0.465265 0.5329727 -0.55746126 0.57719296
000130 c6 aa 7d 3c 8e 80 fd 3e f6 e3 0d bf 24 db fb be
       0.01548261 0.49512142 -0.55425966 -0.4919063
000140 7e 0a 30 3f 77 69 62 bc ca 33 9e be 07 fb 11 bf
       0.6876601 -0.01381909 -0.30898887 -0.5702366
000150 b6 a4 fc bd 40 3b d5 be 8a 5d e9 be d4 c0 c6 bd
       -0.123361036 -0.41646767 -0.45579177 -0.09704748
000160 bb 7a c5 be bc a6 13 3f e7 4a 30 3e 4d e1 ab 3d
       -0.38570198 0.5767629 0.17216073 0.08392582
000170 33 06 07 bf 80 8b 41 3c 31 4c ee 3e 14 eb 17 bf
       -0.52743834 0.011813045 0.46542504 -0.59343076
000180 d8 99 af be 3c 58 c5 be 50 96 24 3f 17 dd 0c be
       -0.3429706 -0.3854388 0.6429186 -0.13756214
000190 24 04 43 be aa b1 80 be d0 75 93 be 30 d9 21 be
       -0.19044548 -0.25135547 -0.2880082 -0.15805507
0001a0 cd 7b e8 be 30 e3 09 3e 0d 1f 06 be eb 17 71 bd
       -0.45406953 0.13465571 -0.13097782 -0.0588607
0001b0 67 27 dd 3e c4 3d 17 3e 59 17 d8 be 29 07 cd 3e
       0.43194124 0.14769655 -0.42205313 0.40044525
0001c0 20 72 21 3f 30 ca 39 be 77 4a db 3e 89 a2 fe 3d
       0.63064766 -0.18143535 0.4283025 0.12433345
0001d0 05 31 0a bf 23 b2 52 be 10 a3 38 be cb 29 fb be
       -0.5398105 -0.20575766 -0.18030953 -0.49055323
0001e0 65 d7 64 be e0 96 98 3e 3d 89 8b be 98 b6 d6 3e
       -0.22347791 0.29802608 -0.27253142 0.41936183
0001f0 24 2f ac 3e d1 57 1d 3f 77 d5 d2 be e7 26 26 3f
       0.33629715 0.6146212 -0.41178486 0.6490311
000200 0e 87 34 3f 2b 9c 24 3f a8 cb b7 be b9 19 ac 3e
       0.7051858 0.64300793 -0.35897565 0.33613375
000210 dc 90 c6 3e 4d cf 1a 3d eb 1a 15 3f f2 6a 00 3f
       0.38782394 0.037795354 0.582442 0.50163186
000220 d7 b3 00 3f d8 64 1b 3f 08 6d 33 3f 79 99 15 bf
       0.50274414 0.6070075 0.70088243 -0.58437306
000230 76 b1 17 bf 6c b0 51 be 50 a2 31 3d a2 d1 a2 be
       -0.5925516 -0.20477456 0.043367684 -0.31800562
000240 cd 41 2e 3f 45 53 81 3d e5 28 bb be 94 2c d8 be
       0.68069154 0.063147105 -0.36554638 -0.4222151
000250 c9 20 b3 3e 4f 74 52 3d 04 95 e1 3e 23 11 13 bf
       0.3498595 0.05138045 0.44059002 -0.57448024
000260 7d 4f 35 3e 82 9e 26 3f 59 54 27 3f 21 e5 2c 3f
       0.17706104 0.65085614 0.6536308 0.6753712
000270 83 ee 8a be 04 eb 1e bf 8b 6f 07 3f e6 fc 03 3e
       -0.27135095 -0.62077355 0.52904576 0.12889442
000280 0e 3f d2 be f6 23 c8 3e 86 c7 1e be 76 52 ba 3d
       -0.41063732 0.39089936 -0.155058 0.090977594
000290 30 da 8b 3e b5 b6 93 be a5 54 04 3e 3c db 37 be
       0.273149 -0.28850332 0.12922914 -0.17954725
0002a0 d9 de af 3e 67 36 a4 be ae d4 59 be d3 11 19 3f
       0.34349707 -0.32072756 -0.21272537 0.5979282
0002b0 c5 42 11 bf 3e 5d 1f 3f 0b cf 2b be 9b 4c df be
       -0.5674251 0.6225165 -0.167782 -0.43613133
0002c0 47 f2 13 3f b3 68 bb 3e e0 30 80 be e7 3b 87 be
       0.5779156 0.36603317 -0.2503729 -0.2641289
0002d0 66 ec 23 be 5c bd 31 3f 16 71 bc bb ab 22 ce 3d
       -0.16008148 0.69429564 -0.0057507856 0.10065206
0002e0 96 0c bf bc 92 d0 2e 3f 3c 0c aa 3d c4 3a be be
       -0.023321431 0.68287003 0.08303115 -0.3715421
0002f0 93 7b 3d 3e 79 f9 a4 be e6 6d 0f bf 85 64 de be
       0.18504171 -0.32221583 -0.56027067 -0.43436065
000300 b6 28 54 be da 48 0c bf 09 71 23 bf bd a9 0a bf
       -0.20718655 -0.5479866 -0.6384435 -0.5416525
000310 71 e1 7d be 79 80 30 bf 33 17 ee bd e3 8e 1a 3f
       -0.2479303 -0.68946034 -0.11625519 0.6037428
000320 ed 8a 30 3e 49 32 09 bf 59 92 3c be 7e e1 c6 be
       0.17240496 -0.53592354 -0.18415202 -0.38843912
000330 5e 58 2f 3f 37 ee 5a bd 76 a0 8a be 26 f8 5a 3e
       0.6849421 -0.053449836 -0.27075547 0.21383724
000340 5c ef b5 3e c4 6c bc be b4 bc 8b be a8 00 9a 3e
       0.3553418 -0.36801732 -0.27292407 0.30078626
000350 24 6f 92 3e 6e 16 8e be 88 6c 07 3e e0 f9 e5 3e
       0.2860042 -0.27751487 0.13224995 0.44917202
000360 9d d5 f6 bd 55 f2 99 3e b3 3f 0b bf 17 33 a0 3d
       -0.12052462 0.30067697 -0.5439407 0.078222446
000370 21 27 6d 3e e6 c0 ef 3d f7 85 b6 3c 15 0e 3d 3e
       0.23159458 0.11706714 0.022280676 0.18462403
000380 45 fb 19 3f e1 92 43 3e 68 be 17 3f 1f 5c 24 3f
       0.6014903 0.19098999 0.5927491 0.64203066
000390 0a 9d 86 be f7 45 69 be c9 86 06 be 2f a5 b9 3d
       -0.26291686 -0.22780596 -0.13137354 0.090647094
0003a0 41 e8 1a bf 18 e3 0c 3f 39 03 19 3f d1 20 14 3f
       -0.6051064 0.5503402 0.5977054 0.57862574
0003b0 e9 5f 40 bd 3f 11 c9 3e 50 aa 6d 3d 98 40 bd 3e
       -0.046966467 0.3927097 0.05802375 0.36963344
0003c0 88 25 32 3f 2d 9c d7 3e 92 79 99 3d eb cd 33 3f
       0.6958852 0.4211134 0.07493891 0.7023608
0003d0 e1 cc cd be 9c e3 e2 3e b6 38 03 be d0 ed 09 3f
       -0.40195373 0.44314277 -0.12814602 0.538785
0003e0 06 c3 ac 3d ee 13 85 be 6a cc 43 bd 5f 41 e5 be
       0.08435635 -0.25991768 -0.047802366 -0.44776437
0003f0 77 9a 83 be 95 bd 83 be e7 d0 34 be e2 a4 f9 bd
       -0.25703785 -0.25730577 -0.17657815 -0.12189652

model.0.bias f4 [256]
000000 49 92 23 3f 0b 38 43 3d d3 0f 6a 3e e2 ae 63 be
       0.6389509 0.04766087 0.22857599 -0.22234681
000010 58 a0 21 3f ed b4 25 3f df f5 12 bf 20 38 3e 3e
       0.6313529 0.64729196 -0.5740642 0.18576097
000020 ab ac c8 be 20 29 50 be da 27 27 be ca 36 1f 3f
       -0.39194235 -0.20328188 -0.16323796 0.62192976
000030 ed aa 2d bf 1c ff 29 3f 42 f2 90 3d be 70 09 bc
       -0.6783894 0.6640489 0.07077457 -0.008388696
000040 eb 4a 1a 3f 4a be a2 be d4 50 ff 3e 2d 83 8a 3e
       0.60270566 -0.31785804 0.49866354 0.27053204
000050 d0 f8 91 be 90 ed 33 3e f5 43 0f 3f 38 cd 0f bf
       -0.2851014 0.17571092 0.5596307 -0.56172514
000060 ac 2d 29 3f 06 9c 8e 3e 6a 50 58 be ae 97 09 bf
       0.66085315 0.2785341 -0.21124426 -0.5374707
000070 e0 1e 30 bf 50 ed 9f be 01 d8 25 3e 86 4b ab be
       -0.6879711 -0.31235743 0.1619568 -0.33456057
000080 33 03 56 3e eb 7d 0d 3f e3 f1 ec be 62 05 f4 3d
       0.20899658 0.5527026 -0.46278295 0.11915089
000090 83 e8 0c 3f 8d 35 6f 3e 2b 79 04 3f 7f 4d d1 be
       0.55042285 0.23360272 0.5174739 -0.40879437
0000a0 d8 9b fe 3e e6 43 1a bf c3 78 0e bf 8a 79 00 bf
       0.49728274 -0.60259855 -0.5565302 -0.50185454
0000b0 0d 8c 24 3f 2a 8b e3 bd 3d fc 1e 3e 97 02 1b 3f
       0.642762 -0.11110528 0.15525909 0.60550827
0000c0 e2 d6 27 3d bc 69 a7 3e 67 01 ad 3e e7 b8 09 bf
       0.040976413 0.32697856 0.33790132 -0.53797764
0000d0 3c ca 33 3f 4f ec 08 3f 92 48 03 be 6c c0 99 be
       0.7023046 0.5348558 -0.12820652 -0.3002962
0000e0 68 0a c5 be 1d dc 8b 3e a8 af b7 bb be 34 0b 3d
       -0.38484502 0.2731637 -0.0056056567 0.033985846
0000f0 28 ec 3c be ec 20 6c bc 25 95 9c be b8 33 16 3f
       -0.18449461 -0.014412146 -0.30582538 0.58672667
000100 24 34 08 3e 27 bf 50 be 8f 9a e6 be 08 ba 27 3f
       0.1330114 -0.20385419 -0.45039794 0.65518236
000110 de ed 0a bf e0 04 63 be 2d b1 73 be ae 53 22 bf
       -0.54269207 -0.22169828 -0.23798056 -0.63408935
000120 ce 7d 15 3f 86 dc 00 3e 90 f9 db be b3 27 10 bf
       0.5839509 0.12584123 -0.4296384 -0.56310576
000130 68 05 cc be b7 c9 8e be 32 cf 8c be 1a 01 bb be
       -0.39847875 -0.2788827 -0.27501827 -0.36524278
000140 da 08 2b bf 81 85 ed 3b a9 e2 7e be e4 99 d0 bd
       -0.6681038 0.007248581 -0.24891151 -0.10185602
000150 f3 96 00 bf 56 5d 1c bf b0 f1 30 bf 37 18 09 bf
       -0.5023033 -0.6107992 -0.69118786 -0.53552574
000160 be 5a d7 be cb c0 b4 3e 20 4a 11 3f 85 94 0e 3f
       -0.42061418 0.3530334 0.5675373 0.5569537
000170 c1 82 3b be d1 a9 1b 3f 3b 91 0f 3f eb 84 b5 be
       -0.18311597 0.60805994 0.5608098 -0.3545297
000180 de 9d 2c 3e 53 c3 b5 bd 3d ff 0c 3f 49 f9 27 be
       0.16857097 -0.08875146 0.5507696 -0.16403688
000190 ba 9e 2a 3e 9b 90 89 be 34 58 15 be 27 ea 0d bf
       0.16662112 -0.26868138 -0.14584428 -0.55435413
0001a0 05 b4 07 bf 9a 94 bb 3d f7 9e f8 3e ec c8 0b bf
       -0.53009063 0.09159203 0.4855878 -0.5460346
0001b0 f8 15 7b 3d 06 b6 96 3e 3d 78 ad 3e 83 12 7b bc
       0.061300248 0.29435748 0.33880797 -0.015324238
0001c0 04 6d 36 be c8 52 33 3f 43 0d 0e 3e aa cc ce 3e
       -0.17815024 0.7004819 0.13872246 0.4039052
0001d0 d6 0d c0 be c5 cc 1b bf 16 85 2d bf c3 a5 31 bf
       -0.37510556 -0.6085933 -0.677812 -0.6939356
0001e0 91 91 23 bf c7 1b 36 3e 61 ce 20 be ae e0 0d 3f
       -0.6389399 0.17784034 -0.15703727 0.5542096
0001f0 30 ae f7 3e 9a 11 92 3e 3c 2e 04 bf 71 c7 c8 be
       0.48375082 0.28529054 -0.5163305 -0.39214662
000200 34 2f 23 be 1f 0e 83 3e cb 36 38 3e e4 0d b3 be
       -0.15935975 0.2559671 0.17989652 -0.34971535
000210 16 81 3f 3e e6 82 8a 3e 81 a6 09 bf 28 24 26 3f
       0.18701586 0.27052993 -0.5376969 0.6489892
000220 2a f3 fe 3e 7c d6 26 bf 0c de 20 bf 0c 5c 1e 3f
       0.49794894 -0.6517103 -0.62838817 0.618592
000230 63 79 1f 3f bf e3 d8 3e 36 9d e2 be fd 79 25 bf
       0.62294596 0.42361256 -0.44260567 -0.64639264
000240 35 96 21 3f 2d 09 1b bf 1c b3 6b be 69 2e fa be
       0.6311982 -0.60560876 -0.23017544 -0.48863533
000250 cc e1 14 3f 15 ac f3 3e fa d5 cd be 5c 6b c9 3c
       0.5815704 0.47592226 -0.40202314 0.024587326
000260 62 37 89 be 64 ba e6 3e f9 aa ff 3e b7 c0 df 3e
       -0.26800066 0.4506408 0.4993513 0.43701717
000270 07 f5 8f 3e 39 ca a1 be ac be 58 3d 1b 9f 6f be
       0.2811663 -0.31599596 0.052916214 -0.23400538
000280 b1 54 b3 be 8f 80 82 be 02 44 1e 3f 39 b5 69 bc
       -0.35025552 -0.25488707 0.6182252 -0.014264398
000290 d6 16 17 3f 34 a3 3d bd a5 9f ce be 09 3d 54 3e
       0.5901922 -0.04629822 -0.40356174 0.20726408
0002a0 4d c3 29 be 99 45 34 3e 76 28 88 3e 6f 41 6d be
       -0.16578408 0.17604674 0.2659337 -0.23169492
0002b0 c6 ff 8e be 4d 70 24 bf c4 0a 2b bf cb 9f 1e bf
       -0.27929515 -0.6423386 -0.668133 -0.61962575
0002c0 eb e4 0b 3f 10 08 84 be f4 af 89 be c3 31 24 bf
       0.54646176 -0.257874 -0.26892054 -0.6413843
0002d0 93 c6 0e 3e 25 88 af 3e 1a 5f c0 be 15 b2 28 3e
       0.13942938 0.34283558 -0.37572557 0.16474183
0002e0 cb ac 4a 3e 5d 39 17 bf d1 f3 20 be bc 6c 1f 3f
       0.19792478 -0.59071904 -0.15718009 0.6227529
0002f0 a7 91 24 be bb 2f fa 3e ac 0f 16 3e 5c 37 e5 bd
       -0.16071187 0.4886454 0.14654416 -0.111921996
000300 d5 c3 9c 3e 7c 8f eb bd 03 0b 68 3d 6d a2 c7 be
       0.30618158 -0.11501977 0.056651127 -0.3899111
000310 da ac 22 bf 28 df 5f be dd a3 e0 be bb 3d 85 3e
       -0.63545 -0.21862471 -0.43875018 0.2602366
000320 de 09 34 be 56 db 35 3c 10 3c 27 be 89 ee ee be
       -0.17581889 0.011099657 -0.16331506 -0.46666363
000330 de 04 b4 3d a8 2d d5 3e 5b 45 4c bd 97 9c 12 bf
       0.08789991 0.41636395 -0.04987083 -0.5727019
000340 05 40 17 bf b3 b4 30 3f 3b d7 95 bc 07 ce d1 be
       -0.5908206 0.69025725 -0.018291106 -0.409775
000350 2b c8 23 3f a7 4c f8 be 72 14 26 3f 69 96 30 3f
       0.6397731 -0.4849598 0.6487495 0.6897951
000360 2b 45 7d 3e ee 37 ab be 8b 81 ad 3d e5 11 ba 3e
       0.24733417 -0.33441108 0.08471974 0.36341777
000370 d4 94 ea 3e 9b af 91 be 87 99 3f 3e 7b 20 a9 3e
       0.45816672 -0.2845429 0.1871091 0.33032593
000380 77 1e 0e bf ce ea 34 bf 3b 9a 1f 3f b9 71 be 3e
       -0.55515236 -0.70670784 0.6234471 0.37196139
000390 51 b6 19 bf 8b 41 1d bf 2b 87 83 be 4f b4 a2 be
       -0.6004382 -0.61428136 -0.25689062 -0.3177819
0003a0 ba 50 2c bf 50 d0 5d be d9 14 0e bf b9 ca 0a 3d
       -0.6731068 -0.21661496 -0.5550056 0.033884738
0003b0 c5 61 44 be dd f0 30 3f 3f e5 ce be 0d b4 26 bf
       -0.19177921 0.6911753 -0.40409276 -0.65118486
0003c0 8a 0c 18 bf 81 0e 34 bf 48 d9 02 3f 2b e0 ed 3e
       -0.59394133 -0.7033463 0.51112795 0.4646009
0003d0 d2 87 27 3e 7b 22 69 bd 13 6b 0d 3f 26 fb 06 3f
       0.16360405 -0.05691765 0.5524151 0.5272697
0003e0 39 1f 2f be f8 34 0a 3f a5 4e 14 3f 1b 7e b1 3e
       -0.17101754 0.53987074 0.579325 0.34666523
0003f0 d7 87 16 3e fd 8f 58 bd ed 9d 26 bf 23 79 41 be
       0.14700256 -0.052871693 -0.65084726 -0.18893866

model.2.weight f4 [2, 256]
000000 db 02 84 3d 03 78 5c 3d f2 f1 4a bc 92 b4 27 bb
       0.06445857 0.05382539 -0.012386786 -0.0025589806
000010 92 77 13 3d e8 f8 88 3d b0 30 93 3c a0 fd 4c bd
       0.036002703 0.066881 0.017967552 -0.050046563
000020 7d 92 05 3d 3f 9e cb 3b 30 2d 27 bd 41 1b 1a bd
       0.032610405 0.0062139328 -0.04081458 -0.037623648
000030 ab 98 93 3c 99 f5 3f bd 17 24 0f bd d1 27 3e 3d
       0.018017134 -0.04686508 -0.034946527 0.04642469
000040 97 73 00 bc 8e 66 11 bc a2 85 de bc 3c 7e 3e 3d
       -0.007840059 -0.008874549 -0.02716333 0.046507105
000050 7c c1 99 bd a4 64 30 bd 8e 3f 3f bd 3b e3 0c 3d
       -0.07507607 -0.04306473 -0.04669147 0.03439639
000060 c0 3e 73 3d 2e ad 49 3d ec df 28 3c d5 2d 2d 3d
       0.059386015 0.049237423 0.010307293 0.042280037
000070 22 e5 42 bd 7b 7d 6e 3c bf 94 0c 3d c7 d1 3b bc
       -0.0475818 0.014556284 0.034321543 -0.011463589
000080 11 94 66 3d 11 67 db 3c c5 1b 15 bd d5 23 5e bd
       0.05629355 0.026782544 -0.036403436 -0.05423339
000090 72 32 43 bd 4f b7 f8 bc 56 f7 87 3c cb f5 86 ba
       -0.04765553 -0.030360846 0.016597431 -0.0010296641
0000a0 59 6a 08 bd c4 1d 69 bd 43 56 30 bd 13 3e 2c 3d
       -0.033304546 -0.056913152 -0.043051016 0.042051386
0000b0 5a 58 d1 3c 68 49 47 bd a8 08 43 bd cd 3d 11 bd
       0.025554825 -0.04865399 -0.047615677 -0.03545933
0000c0 d9 e0 21 bc 91 5b df bc 12 9f 0e 3d f9 52 e3 bc
       -0.009880268 -0.027265342 0.03481967 -0.027749525
0000d0 67 dc 97 bd b4 37 e7 bc b4 36 4c bd a0 dc 2e bc
       -0.07415085 -0.028224804 -0.049856856 -0.010672718
0000e0 9b a4 6b 3b d6 09 48 3a e6 98 ae 3b 61 f5 4e bd
       0.0035956267 0.000763086 0.0053282855 -0.05052698
0000f0 19 c9 cc bc c1 31 45 bd a9 a3 16 bd 86 dd 7d bd
       -0.024998235 -0.048143152 -0.036777172 -0.06197884
000100 af 84 94 3c 45 fa a8 bc db 3e 13 bd 55 fd f3 3c
       0.018129675 -0.02062715 -0.035948616 0.029783884
000110 4f 02 b3 3c 4a 0d c5 3c b5 56 cc 3b fa e1 dd bb
       0.021851687 0.024054188 0.006235922 -0.0067713233
000120 c2 d3 8a 3d 8f 7a 1c bc c5 bf 81 3d dd c8 e2 3c
       0.06778671 -0.009550705 0.06335405 0.02768367
000130 73 95 8c 3d ab 23 40 bd e0 d3 73 bd 36 45 1a 3b
       0.06864443 -0.046909016 -0.05952823 0.0023539788
000140 c3 9c 86 3c 73 b4 23 3c ca da 8f 3b a8 8e 85 3d
       0.016432172 0.009991753 0.0043900954 0.0652135
000150 d6 d4 9e 3d 81 fc 23 3c 6e 91 40 3d ab 88 00 3d
       0.07755439 0.010008932 0.047013693 0.031380337
000160 de 5b 63 3a 1f e2 74 bd 7a f2 51 3d 2d 7e a0 bc
       0.0008673052 -0.05978596 0.051256634 -0.019591415
000170 3c b2 8e 3d 30 f1 9b ba 5e 86 e8 3c 18 ab 8b bc
       0.06967589 -0.0011897441 0.028384384 -0.017049357
000180 e5 8f 5e 3b b9 ef a8 3c 46 88 6d bc e5 91 6c 3d
       0.003396028 0.020622121 -0.014497822 0.057756323
000190 94 bf 4c 3c 16 b6 d8 3c 5c c6 32 3d ab 7a df bc
       0.012496848 0.026454013 0.0436462 -0.027280172
0001a0 44 a8 60 3c 0d c0 16 bd 44 4f 71 bc e9 04 ca bc
       0.013711993 -0.036804248 -0.014728371 -0.024660544
0001b0 f6 c3 3e bd d5 2e 1f 3d a2 4b e5 3b ae 1c 39 3c
       -0.0465736 0.038863022 0.0069975415 0.011298342
0001c0 a9 d3 9f bb 37 1a 84 3d fb c8 fa 3c 2b 0e 95 bb
       -0.004877527 0.064503126 0.030613413 -0.004548808
0001d0 ec d9 b0 3c 55 94 52 3d 12 8b 99 3d 85 ae 7e 3d
       0.021588288 0.05141099 0.07497229 0.062178154
0001e0 24 54 1c 3d 08 dd 59 3d 5d fa e8 bc 35 20 be bc
       0.03816618 0.053189307 -0.028439695 -0.023208717
0001f0 5c 09 41 bd 7e 6a 4b bd 25 eb 55 bd 47 72 36 3c
       -0.047128066 -0.049662106 -0.052226204 0.011135644
000200 3e cd 93 bc 90 96 2b 3d b9 c8 16 3d 61 71 e0 bc
       -0.018042203 0.041891634 0.036812518 -0.027397813
000210 6e 57 de 3b e0 5d a8 bc 8c 54 52 bd c3 d2 80 3d
       0.006785325 -0.020552576 -0.05135016 0.062901996
000220 de df 38 3d 5b 9d 40 bd 49 18 4a bc b1 b0 48 bc
       0.04513537 -0.047025066 -0.012334892 -0.012249158
000230 19 20 7b bd 95 30 3a 3d 27 5d f6 bc de 71 1b 3d
       -0.061309908 0.045456488 -0.030073715 0.03795039
000240 df 9f ae bc b4 df 65 3c 82 9c e5 bc 59 29 21 bd
       -0.021316467 0.014030386 -0.02802873 -0.039346073
000250 e3 07 6d 3d 65 93 60 3c 87 4c 23 3d 22 e9 39 bd
       0.05786885 0.013707017 0.039867904 -0.04538835
000260 82 97 d7 bc 73 72 46 3d f1 c3 64 bd 17 f0 f8 bc
       -0.026317362 0.04844899 -0.055850927 -0.030387921
000270 eb b8 51 3d d1 9f 97 3b a6 c5 0c bd cf 56 70 3c
       0.051201742 0.004627206 -0.03436818 0.014669134
000280 88 21 74 bc af d3 28 bd e3 dd 56 3d 13 a1 74 3d
       -0.014900573 -0.041217502 0.0524577 0.059723925
000290 b5 37 d0 bc b8 76 62 3d 74 b3 51 bd 1c 8a b8 bc
       -0.025417188 0.055289 -0.05119653 -0.022526793
0002a0 f1 65 10 bd ab 07 48 bd 48 a1 8f 3c c1 e7 a5 bd
       -0.03525347 -0.048835438 0.01753296 -0.08100844
0002b0 a3 8f 3a bd 03 47 2d 3d 11 9d 6b 3c bf db 8d 3c
       -0.04554714 0.04230405 0.014380709 0.017316697
0002c0 ae 78 b3 3b 9e 7b 8e bd ce 60 23 3d 8a 71 9b 3d
       0.0054770326 -0.06957172 0.039887242 0.07590015
0002d0 3f 8a 87 bd 77 93 45 3d e1 96 97 bc 32 92 90 bc
       -0.06618165 0.048236337 -0.018504562 -0.017647836
0002e0 4e 4d 21 3d 91 8d b9 3c 40 8b 51 3d 1d 14 6b bd
       0.039380364 0.022650512 0.05115819 -0.05739223
0002f0 1e 63 84 3d bd a3 a7 bc a7 58 10 3c 88 66 a4 bc
       0.064642176 -0.020463819 0.008810199 -0.020068422
000300 1a 30 87 bc 75 78 29 bd 68 05 23 bd 40 4a 20 bd
       -0.016502429 -0.041374642 -0.039800078 -0.03913331
000310 ea 68 9b bc 98 79 a1 3c 2a 92 93 bd 59 49 46 bd
       -0.018970925 0.0197113 -0.07205613 -0.048409794
000320 e3 14 9e bc 37 88 8a 3d 16 b0 9c bb e9 19 fa bc
       -0.019297069 0.06764262 -0.0047817333 -0.030529933
000330 88 58 3d bd 68 0b a4 3c 01 53 09 bd 78 e8 11 bd
       -0.046227008 0.02002497 -0.033526424 -0.03562209
000340 80 6b 1a bd 99 bc 47 bd 9c d7 8f bc 55 b7 af bc
       -0.037700176 -0.048763845 -0.017558865 -0.021449724
000350 24 69 4f 3d fb e7 97 bc d1 0a 77 3a 87 da 39 bd
       0.05063738 -0.018543234 0.0009423914 -0.04537442
000360 a6 17 cb bc 6e db 2c bd 96 2e c0 bc 15 ac ae bc
       -0.02479155 -0.042201452 -0.023459714 -0.02132229
000370 0a b3 17 3d ca c8 06 3d 81 d2 58 bd 74 2d 24 bc
       0.03703598 0.03290633 -0.052935127 -0.0100206025
000380 de d6 f0 3c 18 ad 40 3d 91 4d 76 bd 50 46 12 3d
       0.029399332 0.047040075 -0.060132567 0.035711586
000390 7e 36 03 3d 5c 24 c2 3c 69 dd 7e bc 2b 5a 4e 3d
       0.03203439 0.023698978 -0.015555718 0.05037896
0003a0 71 06 94 bd 99 23 8f bc b5 16 25 3d e2 3f 61 bd
       -0.07227791 -0.017473029 0.04030486 -0.054992564
0003b0 00 2d 5e 3d a2 ac 6f b9 4e 6a 4b bc fc 99 40 bc
       0.054242134 -0.00022857127 -0.012415482 -0.011755463
0003c0 b3 f4 74 3c e3 dd 84 3d ce 59 2f 3d 56 d1 0b bd
       0.014950919 0.06487634 0.042810254 -0.034135185
0003d0 d4 81 dc bc 50 36 1d 3d e0 c9 57 3b 95 57 01 3d
       -0.026917376 0.038381875 0.0032926723 0.031577665
0003e0 90 df 7c 3d 0b 49 d6 bb d5 3d df bc d1 fd af bc
       0.061736643 -0.006539469 -0.027251163 -0.021483334
0003f0 59 d8 06 bd 3f ac 04 3d d2 7c 91 bd 3c 27 0c bd
       -0.03292117 0.03239083 -0.07103886 -0.034217104

model.2.bias f4 [2]
000000 9b da 09 3c 30 0a 36 bd
       0.008413936 -0.04444331
